…
        max_scale: 1
        min_aspect_ratio: 1
        max_aspect_ratio: 1
      }
      sample_constraint {
        min_jaccard_overlap: 0.9
      }
      max_sample: 1
      max_trials: 50
      merged_data: true
    }
    batch_sampler {
      sampler {
        min_scale: 0.3
        max_scale: 1
        min_aspect_ratio: 1
        max_aspect_ratio: 1
      }
      sample_constraint {
        max_jaccard_overlap: 1
      }
      max_sample: 1
      max_trials: 50
      merged_data: true
    }
    label_map_file: "data/KITTI/labelmap_kitti.prototxt"
  }
}
layer {
  name: "conv_1"
  type: "Convolution"
  bottom: "data"
  top: "conv_1"
  param {
    lr_mult: 1
    decay_mult: 1
  }
  convolution_param {
    num_output: 64
    bias_term: false
    pad: 1
    kernel_size: 3
    stride: 2
    weight_filler {
      type: "gaussian"
      std: 0.01
    }
  }
}
layer {
  name: "bn2a_root"
  type: "BatchNorm"
  bottom: "conv_1"
  top: "bn2a_root"
  batch_norm_param {
    eps: 0.001
  }
}
layer {
  name: "scale2a_root"
  type: "Scale"
  bottom: "bn2a_root"
  top: "bn2a_root"
  param {
    lr_mult: 1
    decay_mult: 0
  }
  param {
    lr_mult: 1
    decay_mult: 0
  }
  scale_param {
    filler {
      type: "constant"
      value: 1
    }
    bias_term: true
    bias_filler {
      type: "constant"
      value: 0
    }
  }
}
layer {
  name: "bn2a_root_relu"
  type: "ReLU"
  bottom: "bn2a_root"
  top: "bn2a_root"
}
layer {
  name: "conv2a_branch2a"
  type: "Convolution"
  bottom: "bn2a_root"
  top: "conv2a_branch2a"
  param {
    lr_mult: 1
    decay_mult: 1
  }
  convolution_param {
    num_output: 64
    bias_term: false
    pad: 1
    kernel_size: 3
    stride: 2
    weight_filler {
      type: "xavier"
      std: 0.01
    }
  }
}
layer {
  name: "conv2a_proj"
  type: "Convolution"
  bottom: "bn2a_root"
  top: "conv2a_proj"
  param {
    lr_mult: 1
    decay_mult: 1
  }
  convolution_param {
    num_output: 64
    bias_term: false
    pad: 0
    kernel_size: 1
    stride: 2
    weight_filler {
      type: "xavier"
      std: 0.01
    }
  }
}
layer {
  name: "bn2a_branch2b"
  type: "BatchNorm"
  bottom: "conv2a_branch2a"
  top: "bn2a_branch2b"
  batch_norm_param {
    eps: 0.001
  }
}
layer {
  name: "scale2a_branch2b"
  type: "Scale"
  bottom: "bn2a_branch2b"
  top: "bn2a_branch2b"
  param {
    lr_mult: 1
    decay_mult: 0
  }
  param {
    lr_mult: 1
    decay_mult: 0
  }
  scale_param {
    filler {
      type: "constant"
      value: 1
    }
    bias_term: true
    bias_filler {
      type: "constant"
      value: 0
    }
  }
}
layer {
  name: "bn2a_branch2b_relu"
  type: "ReLU"
  bottom: "bn2a_branch2b"
  top: "bn2a_branch2b"
}
layer {
  name: "conv2a_branch2b"
  type: "Convolution"
  bottom: "bn2a_branch2b"
  top: "conv2a_branch2b"
  param {
    lr_mult: 1
    decay_mult: 1
  }
  convolution_param {
    num_output: 64
    bias_term: false
    pad: 1
    kernel_size: 3
    stride: 1
    weight_filler {
      type: "gaussian"
      std: 0.01
    }
  }
}
layer {
  name: "res2a"
  type: "Eltwise"
  bottom: "conv2a_proj"
  bottom: "conv2a_branch2b"
  top: "res2a"
}
layer {
  name: "bn2b_branch2a"
  type: "BatchNorm"
  bottom: "res2a"
  top: "bn2b_branch2a"
  batch_norm_param {
    eps: 0.001
  }
}
layer {
  name: "scale2b_branch2a"
  type: "Scale"
  bottom: "bn2b_branch2a"
  top: "bn2b_branch2a"
  param {
    lr_mult: 1
    decay_mult: 0
  }
  param {
    lr_mult: 1
    decay_mult: 0
  }
  scale_param {
    filler {
      type: "constant"
      value: 1
    }
    bias_term: true
    bias_filler {
      type: "constant"
      value: 0
    }
  }
}
layer {
  name: "bn2b_branch2a_relu"
  type: "ReLU"
  bottom: "bn2b_branch2a"
  top: "bn2b_branch2a"
}
layer {
  name: "conv2b_branch2a"
  type: "Convolution"
  bottom: "bn2b_branch2a"
  top: "conv2b_branch2a"
  param {
    lr_mult: 1
    decay_mult: 1
  }
  convolution_param {
    num_output: 64
    bias_term: false
    pad: 1
    kernel_size: 3
    stride: 1
    weight_filler {
      type: "gaussian"
      std: 0.01
    }
  }
}
layer {
  name: "bn2b_branch2b"
  type: "BatchNorm"
  bottom: "conv2b_branch2a"
  top: "bn2b_branch2b"
  batch_norm_param {
    eps: 0.001
  }
}
layer {
  name: "scale2b_branch2b"
  type: "Scale"
  bottom: "bn2b_branch2b"
  top: "bn2b_branch2b"
  param {
    lr_mult: 1
    decay_mult: 0
  }
  param {
    lr_mult: 1
    decay_mult: 0
  }
  scale_param {
    filler {
      type: "constant"
      value: 1
    }
    bias_term: true
    bias_filler {
      type: "constant"
      value: 0
    }
  }
}
layer {
  name: "bn2b_branch2b_relu"
  type: "ReLU"
  bottom: "bn2b_branch2b"
  top: "bn2b_branch2b"
}
layer {
  name: "conv2b_branch2b"
  type: "Convolution"
  bottom: "bn2b_branch2b"
  top: "conv2b_branch2b"
  param {
    lr_mult: 1
    decay_mult: 1
  }
  convolution_param {
    num_output: 64
    bias_term: false
    pad: 1
    kernel_size: 3
    stride: 1
    weight_filler {
      type: "gaussian"
      std: 0.01
    }
  }
}
layer {
  name: "res2b"
  type: "Eltwise"
  bottom: "res2a"
  bottom: "conv2b_branch2b"
  top: "res2b"
}
layer {
  name: "bn3a_root"
  type: "BatchNorm"
  bottom: "res2b"
  top: "bn3a_root"
  batch_norm_param {
    eps: 0.001
  }
}
layer {
  name: "scale3a_root"
  type: "Scale"
  bottom: "bn3a_root"
  top: "bn3a_root"
  param {
    lr_mult: 1
    decay_mult: 0
  }
  param {
    lr_mult: 1
    decay_mult: 0
  }
  scale_param {
    filler {
      type: "constant"
      value: 1
    }
    bias_term: true
    bias_filler {
      type: "constant"
      value: 0
    }
  }
}
layer {
  name: "bn3a_root_relu"
  type: "ReLU"
  bottom: "bn3a_root"
  top: "bn3a_root"
}
layer {
  name: "conv3a_branch2a"
  type: "Convolution"
  bottom: "bn3a_root"
  top: "conv3a_branch2a"
  param {
    lr_mult: 1
    decay_mult: 1
  }
  convolution_param {
    num_output: 256
    bias_term: false
    pad: 1
    kernel_size: 3
    stride: 2
    weight_filler {
      type: "xavier"
      std: 0.01
    }
  }
}
layer {
  name: "conv3a_proj"
  type: "Convolution"
  bottom: "bn3a_root"
  top: "conv3a_proj"
  param {
    lr_mult: 1
    decay_mult: 1
  }
  convolution_param {
    num_output: 256
    bias_term: false
    pad: 0
    kernel_size: 1
    stride: 2
    weight_filler {
      type: "xavier"
      std: 0.01
    }
  }
}
layer {
  name: "bn3a_branch2b"
  type: "BatchNorm"
  bottom: "conv3a_branch2a"
  top: "bn3a_branch2b"
  batch_norm_param {
    eps: 0.001
  }
}
layer {
  name: "scale3a_branch2b"
  type: "Scale"
  bottom: "bn3a_branch2b"
  top: "bn3a_branch2b"
  param {
    lr_mult: 1
    decay_mult: 0
  }
  param {
    lr_mult: 1
    decay_mult: 0
  }
  scale_param {
    filler {
      type: "constant"
      value: 1
    }
    bias_term: true
    bias_filler {
      type: "constant"
      value: 0
    }
  }
}
layer {
  name: "bn3a_branch2b_relu"
  type: "ReLU"
  bottom: "bn3a_branch2b"
  top: "bn3a_branch2b"
}
layer {
  name: "conv3a_branch2b"
  type: "Convolution"
  bottom: "bn3a_branch2b"
  top: "conv3a_branch2b"
  param {
    lr_mult: 1
    decay_mult: 1
  }
  convolution_param {
    num_output: 256
    bias_term: false
    pad: 1
    kernel_size: 3
    stride: 1
    weight_filler {
      type: "gaussian"
      std: 0.01
    }
  }
}
layer {
  name: "res3a"
  type: "Eltwise"
  bottom: "conv3a_proj"
  bottom: "conv3a_branch2b"
  top: "res3a"
}
layer {
  name: "bn3a_branch_root_1x1"
  type: "BatchNorm"
  bottom: "res3a"
  top: "bn3a_branch_root_1x1"
  batch_norm_param {
    eps: 0.001
  }
}
layer {
  name: "scale3a_branch_root_1x1"
  type: "Scale"
  bottom: "bn3a_branch_root_1x1"
  top: "bn3a_branch_root_1x1"
  param {
    lr_mult: 1
    decay_mult: 0
  }
  param {
    lr_mult: 1
    decay_mult: 0
  }
  scale_param {
    filler {
      type: "constant"
      value: 1
    }
    bias_term: true
    bias_filler {
      type: "constant"
      value: 0
    }
  }
}
layer {
  name: "bn3a_branch_root_1x1_relu"
  type: "ReLU"
  bottom: "bn3a_branch_root_1x1"
  top: "bn3a_branch_root_1x1"
}
layer {
  name: "res3a_branch_root_1x1"
  type: "Convolution"
  bottom: "bn3a_branch_root_1x1"
  top: "res3a_branch_root_1x1"
  param {
    lr_mult: 1
    decay_mult: 1
  }
  convolution_param {
    num_output: 256
    bias_term: false
    pad: 0
    kernel_size: 1
    stride: 1
    weight_filler {
      type: "gaussian"
      std: 0.01
    }
  }
}
layer {
  name: "bn3a_branch2b_3x3"
  type: "BatchNorm"
  bottom: "res3a_branch_root_1x1"
  top: "bn3a_branch2b_3x3"
  batch_norm_param {
    eps: 0.001
  }
}
layer {
  name: "scale3a_branch2b_3x3"
  type: "Scale"
  bottom: "bn3a_branch2b_3x3"
  top: "bn3a_branch2b_3x3"
  param {
    lr_mult: 1
    decay_mult: 0
  }
  param {
    lr_mult: 1
    decay_mult: 0
  }
  scale_param {
    filler {
      type: "constant"
      value: 1
    }
    bias_term: true
    bias_filler {
      type: "constant"
      value: 0
    }
  }
}
layer {
  name: "bn3a_branch2b_3x3_relu"
  type: "ReLU"
  bottom: "bn3a_branch2b_3x3"
  top: "bn3a_branch2b_3x3"
}
layer {
  name: "res3a_branch2b_3x3"
  type: "Convolution"
  bottom: "bn3a_branch2b_3x3"
  top: "res3a_branch2b_3x3"
  param {
    lr_mult: 1
    decay_mult: 1
  }
  convolution_param {
    num_output: 256
    bias_term: false
    pad: 1
    kernel_size: 3
    stride: 1
    weight_filler {
      type: "gaussian"
      std: 0.01
    }
  }
}
layer {
  name: "bn3a_branch2c_3x3_a"
  type: "BatchNorm"
  bottom: "res3a_branch_root_1x1"
  top: "bn3a_branch2c_3x3_a"
  batch_norm_param {
    eps: 0.001
  }
}
layer {
  name: "scale3a_branch2c_3x3_a"
  type: "Scale"
  bottom: "bn3a_branch2c_3x3_a"
  top: "bn3a_branch2c_3x3_a"
  param {
    lr_mult: 1
    decay_mult: 0
  }
  param {
    lr_mult: 1
    decay_mult: 0
  }
  scale_param {
    filler {
      type: "constant"
      value: 1
    }
    bias_term: true
    bias_filler {
      type: "constant"
      value: 0
    }
  }
}
layer {
  name: "bn3a_branch2c_3x3_a_relu"
  type: "ReLU"
  bottom: "bn3a_branch2c_3x3_a"
  top: "bn3a_branch2c_3x3_a"
}
layer {
  name: "res3a_branch2c_3x3_a"
  type: "Convolution"
  bottom: "bn3a_branch2c_3x3_a"
  top: "res3a_branch2c_3x3_a"
  param {
    lr_mult: 1
    decay_mult: 1
  }
  convolution_param {
    num_output: 128
    bias_term: false
    pad: 1
    kernel_size: 3
    stride: 1
    weight_filler {
      type: "gaussian"
      std: 0.01
    }
  }
}
layer {
  name: "bn3a_branch2c_3x3_b"
  type: "BatchNorm"
  bottom: "res3a_branch2c_3x3_a"
  top: "bn3a_branch2c_3x3_b"
  batch_norm_param {
    eps: 0.001
  }
}
layer {
  name: "scale3a_branch2c_3x3_b"
  type: "Scale"
  bottom: "bn3a_branch2c_3x3_b"
  top: "bn3a_branch2c_3x3_b"
  param {
    lr_mult: 1
    decay_mult: 0
  }
  param {
    lr_mult: 1
    decay_mult: 0
  }
  scale_param {
    filler {
      type: "constant"
      value: 1
    }
    bias_term: true
    bias_filler {
      type: "constant"
      value: 0
    }
  }
}
layer {
  name: "bn3a_branch2c_3x3_b_relu"
  type: "ReLU"
  bottom: "bn3a_branch2c_3x3_b"
  top: "bn3a_branch2c_3x3_b"
}
layer {
  name: "res3a_branch2c_3x3_b"
  type: "Convolution"
  bottom: "bn3a_branch2c_3x3_b"
  top: "res3a_branch2c_3x3_b"
  param {
    lr_mult: 1
    decay_mult: 1
  }
  convolution_param {
    num_output: 256
    bias_term: false
    pad: 1
    kernel_size: 3
    stride: 1
    weight_filler {
      type: "gaussian"
      std: 0.01
    }
  }
}
layer {
  name: "3a/concat"
  type: "Concat"
  bottom: "res3a_branch_root_1x1"
  bottom: "res3a_branch2b_3x3"
  bottom: "res3a_branch2c_3x3_b"
  top: "3a/concat"
  concat_param {
    axis: 1
  }
}
layer {
  name: "bn3a_3a/concat_1x1"
  type: "BatchNorm"
  bottom: "3a/concat"
  top: "bn3a_3a/concat_1x1"
  batch_norm_param {
    eps: 0.001
  }
}
layer {
  name: "scale3a_3a/concat_1x1"
  type: "Scale"
  bottom: "bn3a_3a/concat_1x1"
  top: "bn3a_3a/concat_1x1"
  param {
    lr_mult: 1
    decay_mult: 0
  }
  param {
    lr_mult: 1
    decay_mult: 0
  }
  scale_param {
    filler {
      type: "constant"
      value: 1
    }
    bias_term: true
    bias_filler {
      type: "constant"
      value: 0
    }
  }
}
layer {
  name: "bn3a_3a/concat_1x1_relu"
  type: "ReLU"
  bottom: "bn3a_3a/concat_1x1"
  top: "bn3a_3a/concat_1x1"
}
layer {
  name: "res3a_3a/concat_1x1"
  type: "Convolution"
  bottom: "bn3a_3a/concat_1x1"
  top: "res3a_3a/concat_1x1"
  param {
    lr_mult: 1
    decay_mult: 1
  }
  convolution_param {
    num_output: 256
    bias_term: false
    pad: 0
    kernel_size: 1
    stride: 1
    weight_filler {
      type: "gaussian"
      std: 0.01
    }
  }
}
layer {
  name: "inception_3a"
  type: "Eltwise"
  bottom: "res3a"
  bottom: "res3a_3a/concat_1x1"
  top: "inception_3a"
}
layer {
  name: "bn4a_root"
  type: "BatchNorm"
  bottom: "inception_3a"
  top: "bn4a_root"
  batch_norm_param {
    eps: 0.001
  }
}
layer {
  name: "scale4a_root"
  type: "Scale"
  bottom: "bn4a_root"
  top: "bn4a_root"
  param {
    lr_mult: 1
    decay_mult: 0
  }
  param {
    lr_mult: 1
    decay_mult: 0
  }
  scale_param {
    filler {
      type: "constant"
      value: 1
    }
    bias_term: true
    bias_filler {
      type: "constant"
      value: 0
    }
  }
}
layer {
  name: "bn4a_root_relu"
  type: "ReLU"
  bottom: "bn4a_root"
  top: "bn4a_root"
}
layer {
  name: "conv4a_branch2a"
  type: "Convolution"
  bottom: "bn4a_root"
  top: "conv4a_branch2a"
  param {
    lr_mult: 1
    decay_mult: 1
  }
  convolution_param {
    num_output: 256
    bias_term: false
    pad: 1
    kernel_size: 3
    stride: 2
    weight_filler {
      type: "xavier"
      std: 0.01
    }
  }
}
layer {
  name: "conv4a_proj"
  type: "Convolution"
  bottom: "bn4a_root"
  top: "conv4a_proj"
  param {
    lr_mult: 1
    decay_mult: 1
  }
  convolution_param {
    num_output: 256
    bias_term: false
    pad: 0
    kernel_size: 1
    stride: 2
    weight_filler {
      type: "xavier"
      std: 0.01
    }
  }
}
layer {
  name: "bn4a_branch2b"
  type: "BatchNorm"
  bottom: "conv4a_branch2a"
  top: "bn4a_branch2b"
  batch_norm_param {
    eps: 0.001
  }
}
layer {
  name: "scale4a_branch2b"
  type: "Scale"
  bottom: "bn4a_branch2b"
  top: "bn4a_branch2b"
  param {
    lr_mult: 1
    decay_mult: 0
  }
  param {
    lr_mult: 1
    decay_mult: 0
  }
  scale_param {
    filler {
      type: "constant"
      value: 1
    }
    bias_term: true
    bias_filler {
      type: "constant"
      value: 0
    }
  }
}
layer {
  name: "bn4a_branch2b_relu"
  type: "ReLU"
  bottom: "bn4a_branch2b"
  top: "bn4a_branch2b"
}
layer {
  name: "conv4a_branch2b"
  type: "Convolution"
  bottom: "bn4a_branch2b"
  top: "conv4a_branch2b"
  param {
    lr_mult: 1
    decay_mult: 1
  }
  convolution_param {
    num_output: 256
    bias_term: false
    pad: 1
    kernel_size: 3
    stride: 1
    weight_filler {
      type: "gaussian"
      std: 0.01
    }
  }
}
layer {
  name: "res4a"
  type: "Eltwise"
  bottom: "conv4a_proj"
  bottom: "conv4a_branch2b"
  top: "res4a"
}
layer {
  name: "bn4b_branch2a"
  type: "BatchNorm"
  bottom: "res4a"
  top: "bn4b_branch2a"
  batch_norm_param {
    eps: 0.001
  }
}
layer {
  name: "scale4b_branch2a"
  type: "Scale"
  bottom: "bn4b_branch2a"
  top: "bn4b_branch2a"
  param {
    lr_mult: 1
    decay_mult: 0
  }
  param {
    lr_mult: 1
    decay_mult: 0
  }
  scale_param {
    filler {
      type: "constant"
      value: 1
    }
    bias_term: true
    bias_filler {
      type: "constant"
      value: 0
    }
  }
}
layer {
  name: "bn4b_branch2a_relu"
  type: "ReLU"
  bottom: "bn4b_branch2a"
  top: "bn4b_branch2a"
}
layer {
  name: "conv4b_branch2a"
  type: "Convolution"
  bottom: "bn4b_branch2a"
  top: "conv4b_branch2a"
  param {
    lr_mult: 1
    decay_mult: 1
  }
  convolution_param {
    num_output: 256
    bias_term: false
    pad: 1
    kernel_size: 3
    stride: 1
    weight_filler {
      type: "gaussian"
      std: 0.01
    }
  }
}
layer {
  name: "bn4b_branch2b"
  type: "BatchNorm"
  bottom: "conv4b_branch2a"
  top: "bn4b_branch2b"
  batch_norm_param {
    eps: 0.001
  }
}
layer {
  name: "scale4b_branch2b"
  type: "Scale"
  bottom: "bn4b_branch2b"
  top: "bn4b_branch2b"
  param {
    lr_mult: 1
    decay_mult: 0
  }
  param {
    lr_mult: 1
    decay_mult: 0
  }
  scale_param {
    filler {
      type: "constant"
      value: 1
    }
    bias_term: true
    bias_filler {
      type: "constant"
      value: 0
    }
  }
}
layer {
  name: "bn4b_branch2b_relu"
  type: "ReLU"
  bottom: "bn4b_branch2b"
  top: "bn4b_branch2b"
}
layer {
  name: "conv4b_branch2b"
  type: "Convolution"
  bottom: "bn4b_branch2b"
  top: "conv4b_branch2b"
  param {
    lr_mult: 1
    decay_mult: 1
  }
  convolution_param {
    num_output: 256
    bias_term: false
    pad: 1
    kernel_size: 3
    stride: 1
    weight_filler {
      type: "gaussian"
      std: 0.01
    }
  }
}
layer {
  name: "res4b"
  type: "Eltwise"
  bottom: "res4a"
  bottom: "conv4b_branch2b"
  top: "res4b"
}
layer {
  name: "bn_res4b"
  type: "BatchNorm"
  bottom: "res4b"
  top: "bn_res4b"
  batch_norm_param {
    eps: 0.001
  }
}
layer {
  name: "scale_res4b"
  type: "Scale"
  bottom: "bn_res4b"
  top: "bn_res4b"
  param {
    lr_mult: 1
    decay_mult: 0
  }
  param {
    lr_mult: 1
    decay_mult: 0
  }
  scale_param {
    filler {
      type: "constant"
      value: 1
    }
    bias_term: true
    bias_filler {
      type: "constant"
      value: 0
    }
  }
}
layer {
  name: "bn_res4b_relu"
  type: "ReLU"
  bottom: "bn_res4b"
  top: "bn_res4b"
}
layer {
  name: "conv6_1"
  type: "Convolution"
  bottom: "bn_res4b"
  top: "conv6_1"
  param {
    lr_mult: 1
    decay_mult: 1
  }
  convolution_param {
    num_output: 256
    bias_term: false
    pad: 0
    kernel_size: 1
    stride: 1
    weight_filler {
      type: "gaussian"
      std: 0.01
    }
  }
}
layer {
  name: "conv6_1_bn"
  type: "BatchNorm"
  bottom: "conv6_1"
  top: "conv6_1"
  batch_norm_param {
    moving_average_fraction: 0.999
    eps: 0.001
  }
}
layer {
  name: "conv6_1_scale"
  type: "Scale"
  bottom: "conv6_1"
  top: "conv6_1"
  param {
    lr_mult: 1
    decay_mult: 0
  }
  param {
    lr_mult: 1
    decay_mult: 0
  }
  scale_param {
    filler {
      type: "constant"
      value: 1
    }
    bias_term: true
    bias_filler {
      type: "constant"
      value: 0
    }
  }
}
layer {
  name: "conv6_1_relu"
  type: "ReLU"
  bottom: "conv6_1"
  top: "conv6_1"
}
layer {
  name: "conv6_2"
  type: "Convolution"
  bottom: "conv6_1"
  top: "conv6_2"
  param {
    lr_mult: 1
    decay_mult: 1
  }
  convolution_param {
    num_output: 512
    bias_term: false
    pad: 1
    kernel_size: 3
    stride: 2
    weight_filler {
      type: "gaussian"
      std: 0.01
    }
  }
}
layer {
  name: "conv6_2_bn"
  type: "BatchNorm"
  bottom: "conv6_2"
  top: "conv6_2"
  batch_norm_param {
    moving_average_fraction: 0.999
    eps: 0.001
  }
}
layer {
  name: "conv6_2_scale"
  type: "Scale"
  bottom: "conv6_2"
  top: "conv6_2"
  param {
    lr_mult: 1
    decay_mult: 0
  }
  param {
    lr_mult: 1
    decay_mult: 0
  }
  scale_param {
    filler {
      type: "constant"
      value: 1
    }
    bias_term: true
    bias_filler {
      type: "constant"
      value: 0
    }
  }
}
layer {
  name: "conv6_2_relu"
  type: "ReLU"
  bottom: "conv6_2"
  top: "conv6_2"
}
layer {
  name: "conv7_1"
  type: "Convolution"
  bottom: "conv6_2"
  top: "conv7_1"
  param {
    lr_mult: 1
    decay_mult: 1
  }
  convolution_param {
    num_output: 128
    bias_term: false
    pad: 0
    kernel_size: 1
    stride: 1
    weight_filler {
      type: "gaussian"
      std: 0.01
    }
  }
}
layer {
  name: "conv7_1_bn"
  type: "BatchNorm"
  bottom: "conv7_1"
  top: "conv7_1"
  batch_norm_param {
    moving_average_fraction: 0.999
    eps: 0.001
  }
}
layer {
  name: "conv7_1_scale"
  type: "Scale"
  bottom: "conv7_1"
  top: "conv7_1"
  param {
    lr_mult: 1
    decay_mult: 0
  }
  param {
    lr_mult: 1
    decay_mult: 0
  }
  scale_param {
    filler {
      type: "constant"
      value: 1
    }
    bias_term: true
    bias_filler {
      type: "constant"
      value: 0
    }
  }
}
layer {
  name: "conv7_1_relu"
  type: "ReLU"
  bottom: "conv7_1"
  top: "conv7_1"
}
layer {
  name: "conv7_2"
  type: "Convolution"
  bottom: "conv7_1"
  top: "conv7_2"
  param {
    lr_mult: 1
    decay_mult: 1
  }
  convolution_param {
    num_output: 256
    bias_term: false
    pad: 1
    kernel_size: 3
    stride: 2
    weight_filler {
      type: "gaussian"
      std: 0.01
    }
  }
}
layer {
  name: "conv7_2_bn"
  type: "BatchNorm"
  bottom: "conv7_2"
  top: "conv7_2"
  batch_norm_param {
    moving_average_fraction: 0.999
    eps: 0.001
  }
}
layer {
  name: "conv7_2_scale"
  type: "Scale"
  bottom: "conv7_2"
  top: "conv7_2"
  param {
    lr_mult: 1
    decay_mult: 0
  }
  param {
    lr_mult: 1
    decay_mult: 0
  }
  scale_param {
    filler {
      type: "constant"
      value: 1
    }
    bias_term: true
    bias_filler {
      type: "constant"
      value: 0
    }
  }
}
layer {
  name: "conv7_2_relu"
  type: "ReLU"
  bottom: "conv7_2"
  top: "conv7_2"
}
layer {
  name: "conv8_1"
  type: "Convolution"
  bottom: "conv7_2"
  top: "conv8_1"
  param {
    lr_mult: 1
    decay_mult: 1
  }
  convolution_param {
    num_output: 128
    bias_term: false
    pad: 0
    kernel_size: 1
    stride: 1
    weight_filler {
      type: "gaussian"
      std: 0.01
    }
  }
}
layer {
  name: "conv8_1_bn"
  type: "BatchNorm"
  bottom: "conv8_1"
  top: "conv8_1"
  batch_norm_param {
    moving_average_fraction: 0.999
    eps: 0.001
  }
}
layer {
  name: "conv8_1_scale"
  type: "Scale"
  bottom: "conv8_1"
  top: "conv8_1"
  param {
    lr_mult: 1
    decay_mult: 0
  }
  param {
    lr_mult: 1
    decay_mult: 0
  }
  scale_param {
    filler {
      type: "constant"
      value: 1
    }
    bias_term: true
    bias_filler {
      type: "constant"
      value: 0
    }
  }
}
layer {
  name: "conv8_1_relu"
  type: "ReLU"
  bottom: "conv8_1"
  top: "conv8_1"
}
layer {
  name: "conv8_2"
  type: "Convolution"
  bottom: "conv8_1"
  top: "conv8_2"
  param {
    lr_mult: 1
    decay_mult: 1
  }
  convolution_param {
    num_output: 256
    bias_term: false
    pad: 0
    kernel_size: 3
    stride: 1
    weight_filler {
      type: "gaussian"
      std: 0.01
    }
  }
}
layer {
  name: "conv8_2_bn"
  type: "BatchNorm"
  bottom: "conv8_2"
  top: "conv8_2"
  batch_norm_param {
    moving_average_fraction: 0.999
    eps: 0.001
  }
}
layer {
  name: "conv8_2_scale"
  type: "Scale"
  bottom: "conv8_2"
  top: "conv8_2"
  param {
    lr_mult: 1
    decay_mult: 0
  }
  param {
    lr_mult: 1
    decay_mult: 0
  }
  scale_param {
    filler {
      type: "constant"
      value: 1
    }
    bias_term: true
    bias_filler {
      type: "constant"
      value: 0
    }
  }
}
layer {
  name: "conv8_2_relu"
  type: "ReLU"
  bottom: "conv8_2"
  top: "conv8_2"
}
layer {
  name: "bn4a_root_relu_mbox_loc"
  type: "Convolution"
  bottom: "bn4a_root"
  top: "bn4a_root_relu_mbox_loc"
  param {
    lr_mult: 1
    decay_mult: 1
  }
  convolution_param {
    num_output: 16
    bias_term: false
    pad: 1
    kernel_size: 3
    stride: 1
    weight_filler {
      type: "gaussian"
      std: 0.01
    }
  }
}
layer {
  name: "bn4a_root_relu_mbox_loc_bn"
  type: "BatchNorm"
  bottom: "bn4a_root_relu_mbox_loc"
  top: "bn4a_root_relu_mbox_loc"
  batch_norm_param {
    moving_average_fraction: 0.999
    eps: 0.001
  }
}
layer {
  name: "bn4a_root_relu_mbox_loc_scale"
  type: "Scale"
  bottom: "bn4a_root_relu_mbox_loc"
  top: "bn4a_root_relu_mbox_loc"
  param {
    lr_mult: 1
    decay_mult: 0
  }
  param {
    lr_mult: 1
    decay_mult: 0
  }
  scale_param {
    filler {
      type: "constant"
      value: 1
    }
    bias_term: true
    bias_filler {
      type: "constant"
      value: 0
    }
  }
}
layer {
  name: "bn4a_root_relu_mbox_loc_perm"
  type: "Permute"
  bottom: "bn4a_root_relu_mbox_loc"
  top: "bn4a_root_relu_mbox_loc_perm"
  permute_param {
    order: 0
    order: 2
    order: 3
    order: 1
  }
}
layer {
  name: "bn4a_root_relu_mbox_loc_flat"
  type: "Flatten"
  bottom: "bn4a_root_relu_mbox_loc_perm"
  top: "bn4a_root_relu_mbox_loc_flat"
  flatten_param {
    axis: 1
  }
}
layer {
  name: "bn4a_root_relu_mbox_conf"
  type: "Convolution"
  bottom: "bn4a_root"
  top: "bn4a_root_relu_mbox_conf"
  param {
    lr_mult: 1
    decay_mult: 1
  }
  convolution_param {
    num_output: 40
    bias_term: false
    pad: 1
    kernel_size: 3
    stride: 1
    weight_filler {
      type: "gaussian"
      std: 0.01
    }
  }
}
layer {
  name: "bn4a_root_relu_mbox_conf_bn"
  type: "BatchNorm"
  bottom: "bn4a_root_relu_mbox_conf"
  top: "bn4a_root_relu_mbox_conf"
  batch_norm_param {
    moving_average_fraction: 0.999
    eps: 0.001
  }
}
layer {
  name: "bn4a_root_relu_mbox_conf_scale"
  type: "Scale"
  bottom: "bn4a_root_relu_mbox_conf"
  top: "bn4a_root_relu_mbox_conf"
  param {
    lr_mult: 1
    decay_mult: 0
  }
  param {
    lr_mult: 1
    decay_mult: 0
  }
  scale_param {
    filler {
      type: "constant"
      value: 1
    }
    bias_term: true
    bias_filler {
      type: "constant"
      value: 0
    }
  }
}
layer {
  name: "bn4a_root_relu_mbox_conf_perm"
  type: "Permute"
  bottom: "bn4a_root_relu_mbox_conf"
  top: "bn4a_root_relu_mbox_conf_perm"
  permute_param {
    order: 0
    order: 2
    order: 3
    order: 1
  }
}
layer {
  name: "bn4a_root_relu_mbox_conf_flat"
  type: "Flatten"
  bottom: "bn4a_root_relu_mbox_conf_perm"
  top: "bn4a_root_relu_mbox_conf_flat"
  flatten_param {
    axis: 1
  }
}
layer {
  name: "bn4a_root_relu_mbox_priorbox"
  type: "PriorBox"
  bottom: "bn4a_root"
  bottom: "data"
  top: "bn4a_root_relu_mbox_priorbox"
  prior_box_param {
    min_size: 30
    max_size: 60
    aspect_ratio: 2
    flip: true
    clip: false
    variance: 0.1
    variance: 0.1
    variance: 0.2
    variance: 0.2
    step: 8
    offset: 0.5
  }
}
layer {
  name: "bn_res4b_relu_mbox_loc"
  type: "Convolution"
  bottom: "bn_res4b"
  top: "bn_res4b_relu_mbox_loc"
  param {
    lr_mult: 1
    decay_mult: 1
  }
  convolution_param {
    num_output: 24
    bias_term: false
    pad: 1
    kernel_size: 3
    stride: 1
    weight_filler {
      type: "gaussian"
      std: 0.01
    }
  }
}
layer {
  name: "bn_res4b_relu_mbox_loc_bn"
  type: "BatchNorm"
  bottom: "bn_res4b_relu_mbox_loc"
  top: "bn_res4b_relu_mbox_loc"
  batch_norm_param {
    moving_average_fraction: 0.999
    eps: 0.001
  }
}
layer {
  name: "bn_res4b_relu_mbox_loc_scale"
  type: "Scale"
  bottom: "bn_res4b_relu_mbox_loc"
  top: "bn_res4b_relu_mbox_loc"
  param {
    lr_mult: 1
    decay_mult: 0
  }
  param {
    lr_mult: 1
    decay_mult: 0
  }
  scale_param {
    filler {
      type: "constant"
      value: 1
    }
    bias_term: true
    bias_filler {
      type: "constant"
      value: 0
    }
  }
}
layer {
  name: "bn_res4b_relu_mbox_loc_perm"
  type: "Permute"
  bottom: "bn_res4b_relu_mbox_loc"
  top: "bn_res4b_relu_mbox_loc_perm"
  permute_param {
    order: 0
    order: 2
    order: 3
    order: 1
  }
}
layer {
  name: "bn_res4b_relu_mbox_loc_flat"
  type: "Flatten"
  bottom: "bn_res4b_relu_mbox_loc_perm"
  top: "bn_res4b_relu_mbox_loc_flat"
  flatten_param {
    axis: 1
  }
}
layer {
  name: "bn_res4b_relu_mbox_conf"
  type: "Convolution"
  bottom: "bn_res4b"
  top: "bn_res4b_relu_mbox_conf"
  param {
    lr_mult: 1
    decay_mult: 1
  }
  convolution_param {
    num_output: 60
    bias_term: false
    pad: 1
    kernel_size: 3
    stride: 1
    weight_filler {
      type: "gaussian"
      std: 0.01
    }
  }
}
layer {
  name: "bn_res4b_relu_mbox_conf_bn"
  type: "BatchNorm"
 
I0321 00:37:30.478358  2075 layer_factory.hpp:77] Creating layer data
I0321 00:37:30.478780  2075 net.cpp:100] Creating Layer data
I0321 00:37:30.478795  2075 net.cpp:408] data -> data
I0321 00:37:30.478823  2075 net.cpp:408] data -> label
I0321 00:37:30.479898  2080 db_lmdb.cpp:35] Opened lmdb /home/byeonghak/data/KITTI/KITTI_train_lmdb
I0321 00:37:30.500154  2075 annotated_data_layer.cpp:62] output data size: 32,3,150,600
I0321 00:37:30.549564  2075 net.cpp:150] Setting up data
I0321 00:37:30.549615  2075 net.cpp:157] Top shape: 32 3 150 600 (8640000)
I0321 00:37:30.549620  2075 net.cpp:157] Top shape: 1 1 1 8 (8)
I0321 00:37:30.549624  2075 net.cpp:165] Memory required for data: 34560032
I0321 00:37:30.549634  2075 layer_factory.hpp:77] Creating layer data_data_0_split
I0321 00:37:30.549649  2075 net.cpp:100] Creating Layer data_data_0_split
I0321 00:37:30.549654  2075 net.cpp:434] data_data_0_split <- data
I0321 00:37:30.549666  2075 net.cpp:408] data_data_0_split -> data_data_0_split_0
I0321 00:37:30.549677  2075 net.cpp:408] data_data_0_split -> data_data_0_split_1
I0321 00:37:30.549686  2075 net.cpp:408] data_data_0_split -> data_data_0_split_2
I0321 00:37:30.549691  2075 net.cpp:408] data_data_0_split -> data_data_0_split_3
I0321 00:37:30.549695  2075 net.cpp:408] data_data_0_split -> data_data_0_split_4
I0321 00:37:30.549700  2075 net.cpp:408] data_data_0_split -> data_data_0_split_5
I0321 00:37:30.549775  2075 net.cpp:150] Setting up data_data_0_split
I0321 00:37:30.549780  2075 net.cpp:157] Top shape: 32 3 150 600 (8640000)
I0321 00:37:30.549783  2075 net.cpp:157] Top shape: 32 3 150 600 (8640000)
I0321 00:37:30.549803  2075 net.cpp:157] Top shape: 32 3 150 600 (8640000)
I0321 00:37:30.549806  2075 net.cpp:157] Top shape: 32 3 150 600 (8640000)
I0321 00:37:30.549809  2075 net.cpp:157] Top shape: 32 3 150 600 (8640000)
I0321 00:37:30.549813  2075 net.cpp:157] Top shape: 32 3 150 600 (8640000)
I0321 00:37:30.549814  2075 net.cpp:165] Memory required for data: 241920032
I0321 00:37:30.549818  2075 layer_factory.hpp:77] Creating layer conv_1
I0321 00:37:30.549832  2075 net.cpp:100] Creating Layer conv_1
I0321 00:37:30.549836  2075 net.cpp:434] conv_1 <- data_data_0_split_0
I0321 00:37:30.549841  2075 net.cpp:408] conv_1 -> conv_1
I0321 00:37:30.731312  2075 net.cpp:150] Setting up conv_1
I0321 00:37:30.731350  2075 net.cpp:157] Top shape: 32 64 75 300 (46080000)
I0321 00:37:30.731354  2075 net.cpp:165] Memory required for data: 426240032
I0321 00:37:30.731370  2075 layer_factory.hpp:77] Creating layer bn2a_root
I0321 00:37:30.731393  2075 net.cpp:100] Creating Layer bn2a_root
I0321 00:37:30.731398  2075 net.cpp:434] bn2a_root <- conv_1
I0321 00:37:30.731403  2075 net.cpp:408] bn2a_root -> bn2a_root
I0321 00:37:30.731854  2075 net.cpp:150] Setting up bn2a_root
I0321 00:37:30.731874  2075 net.cpp:157] Top shape: 32 64 75 300 (46080000)
I0321 00:37:30.731878  2075 net.cpp:165] Memory required for data: 610560032
I0321 00:37:30.731887  2075 layer_factory.hpp:77] Creating layer scale2a_root
I0321 00:37:30.731909  2075 net.cpp:100] Creating Layer scale2a_root
I0321 00:37:30.731911  2075 net.cpp:434] scale2a_root <- bn2a_root
I0321 00:37:30.731917  2075 net.cpp:395] scale2a_root -> bn2a_root (in-place)
I0321 00:37:30.731976  2075 layer_factory.hpp:77] Creating layer scale2a_root
I0321 00:37:30.732121  2075 net.cpp:150] Setting up scale2a_root
I0321 00:37:30.732127  2075 net.cpp:157] Top shape: 32 64 75 300 (46080000)
I0321 00:37:30.732141  2075 net.cpp:165] Memory required for data: 794880032
I0321 00:37:30.732146  2075 layer_factory.hpp:77] Creating layer bn2a_root_relu
I0321 00:37:30.732161  2075 net.cpp:100] Creating Layer bn2a_root_relu
I0321 00:37:30.732164  2075 net.cpp:434] bn2a_root_relu <- bn2a_root
I0321 00:37:30.732168  2075 net.cpp:395] bn2a_root_relu -> bn2a_root (in-place)
I0321 00:37:30.732656  2075 net.cpp:150] Setting up bn2a_root_relu
I0321 00:37:30.732664  2075 net.cpp:157] Top shape: 32 64 75 300 (46080000)
I0321 00:37:30.732677  2075 net.cpp:165] Memory required for data: 979200032
I0321 00:37:30.732681  2075 layer_factory.hpp:77] Creating layer bn2a_root_bn2a_root_relu_0_split
I0321 00:37:30.732687  2075 net.cpp:100] Creating Layer bn2a_root_bn2a_root_relu_0_split
I0321 00:37:30.732699  2075 net.cpp:434] bn2a_root_bn2a_root_relu_0_split <- bn2a_root
I0321 00:37:30.732704  2075 net.cpp:408] bn2a_root_bn2a_root_relu_0_split -> bn2a_root_bn2a_root_relu_0_split_0
I0321 00:37:30.732710  2075 net.cpp:408] bn2a_root_bn2a_root_relu_0_split -> bn2a_root_bn2a_root_relu_0_split_1
I0321 00:37:30.732749  2075 net.cpp:150] Setting up bn2a_root_bn2a_root_relu_0_split
I0321 00:37:30.732754  2075 net.cpp:157] Top shape: 32 64 75 300 (46080000)
I0321 00:37:30.732766  2075 net.cpp:157] Top shape: 32 64 75 300 (46080000)
I0321 00:37:30.732769  2075 net.cpp:165] Memory required for data: 1347840032
I0321 00:37:30.732771  2075 layer_factory.hpp:77] Creating layer conv2a_branch2a
I0321 00:37:30.732789  2075 net.cpp:100] Creating Layer conv2a_branch2a
I0321 00:37:30.732791  2075 net.cpp:434] conv2a_branch2a <- bn2a_root_bn2a_root_relu_0_split_0
I0321 00:37:30.732796  2075 net.cpp:408] conv2a_branch2a -> conv2a_branch2a
I0321 00:37:30.734441  2075 net.cpp:150] Setting up conv2a_branch2a
I0321 00:37:30.734462  2075 net.cpp:157] Top shape: 32 64 38 150 (11673600)
I0321 00:37:30.734465  2075 net.cpp:165] Memory required for data: 1394534432
I0321 00:37:30.734470  2075 layer_factory.hpp:77] Creating layer conv2a_proj
I0321 00:37:30.734489  2075 net.cpp:100] Creating Layer conv2a_proj
I0321 00:37:30.734493  2075 net.cpp:434] conv2a_proj <- bn2a_root_bn2a_root_relu_0_split_1
I0321 00:37:30.734498  2075 net.cpp:408] conv2a_proj -> conv2a_proj
I0321 00:37:30.735378  2075 net.cpp:150] Setting up conv2a_proj
I0321 00:37:30.735397  2075 net.cpp:157] Top shape: 32 64 38 150 (11673600)
I0321 00:37:30.735400  2075 net.cpp:165] Memory required for data: 1441228832
I0321 00:37:30.735404  2075 layer_factory.hpp:77] Creating layer bn2a_branch2b
I0321 00:37:30.735410  2075 net.cpp:100] Creating Layer bn2a_branch2b
I0321 00:37:30.735424  2075 net.cpp:434] bn2a_branch2b <- conv2a_branch2a
I0321 00:37:30.735429  2075 net.cpp:408] bn2a_branch2b -> bn2a_branch2b
I0321 00:37:30.735884  2075 net.cpp:150] Setting up bn2a_branch2b
I0321 00:37:30.735894  2075 net.cpp:157] Top shape: 32 64 38 150 (11673600)
I0321 00:37:30.735906  2075 net.cpp:165] Memory required for data: 1487923232
I0321 00:37:30.735916  2075 layer_factory.hpp:77] Creating layer scale2a_branch2b
I0321 00:37:30.735932  2075 net.cpp:100] Creating Layer scale2a_branch2b
I0321 00:37:30.735936  2075 net.cpp:434] scale2a_branch2b <- bn2a_branch2b
I0321 00:37:30.735941  2075 net.cpp:395] scale2a_branch2b -> bn2a_branch2b (in-place)
I0321 00:37:30.735980  2075 layer_factory.hpp:77] Creating layer scale2a_branch2b
I0321 00:37:30.736091  2075 net.cpp:150] Setting up scale2a_branch2b
I0321 00:37:30.736098  2075 net.cpp:157] Top shape: 32 64 38 150 (11673600)
I0321 00:37:30.736109  2075 net.cpp:165] Memory required for data: 1534617632
I0321 00:37:30.736114  2075 layer_factory.hpp:77] Creating layer bn2a_branch2b_relu
I0321 00:37:30.736119  2075 net.cpp:100] Creating Layer bn2a_branch2b_relu
I0321 00:37:30.736122  2075 net.cpp:434] bn2a_branch2b_relu <- bn2a_branch2b
I0321 00:37:30.736126  2075 net.cpp:395] bn2a_branch2b_relu -> bn2a_branch2b (in-place)
I0321 00:37:30.736585  2075 net.cpp:150] Setting up bn2a_branch2b_relu
I0321 00:37:30.736594  2075 net.cpp:157] Top shape: 32 64 38 150 (11673600)
I0321 00:37:30.736608  2075 net.cpp:165] Memory required for data: 1581312032
I0321 00:37:30.736610  2075 layer_factory.hpp:77] Creating layer conv2a_branch2b
I0321 00:37:30.736619  2075 net.cpp:100] Creating Layer conv2a_branch2b
I0321 00:37:30.736623  2075 net.cpp:434] conv2a_branch2b <- bn2a_branch2b
I0321 00:37:30.736627  2075 net.cpp:408] conv2a_branch2b -> conv2a_branch2b
I0321 00:37:30.738806  2075 net.cpp:150] Setting up conv2a_branch2b
I0321 00:37:30.738826  2075 net.cpp:157] Top shape: 32 64 38 150 (11673600)
I0321 00:37:30.738829  2075 net.cpp:165] Memory required for data: 1628006432
I0321 00:37:30.738834  2075 layer_factory.hpp:77] Creating layer res2a
I0321 00:37:30.738840  2075 net.cpp:100] Creating Layer res2a
I0321 00:37:30.738843  2075 net.cpp:434] res2a <- conv2a_proj
I0321 00:37:30.738847  2075 net.cpp:434] res2a <- conv2a_branch2b
I0321 00:37:30.738852  2075 net.cpp:408] res2a -> res2a
I0321 00:37:30.738886  2075 net.cpp:150] Setting up res2a
I0321 00:37:30.738893  2075 net.cpp:157] Top shape: 32 64 38 150 (11673600)
I0321 00:37:30.738904  2075 net.cpp:165] Memory required for data: 1674700832
I0321 00:37:30.738907  2075 layer_factory.hpp:77] Creating layer res2a_res2a_0_split
I0321 00:37:30.738912  2075 net.cpp:100] Creating Layer res2a_res2a_0_split
I0321 00:37:30.738914  2075 net.cpp:434] res2a_res2a_0_split <- res2a
I0321 00:37:30.738919  2075 net.cpp:408] res2a_res2a_0_split -> res2a_res2a_0_split_0
I0321 00:37:30.738924  2075 net.cpp:408] res2a_res2a_0_split -> res2a_res2a_0_split_1
I0321 00:37:30.738955  2075 net.cpp:150] Setting up res2a_res2a_0_split
I0321 00:37:30.738960  2075 net.cpp:157] Top shape: 32 64 38 150 (11673600)
I0321 00:37:30.738972  2075 net.cpp:157] Top shape: 32 64 38 150 (11673600)
I0321 00:37:30.738976  2075 net.cpp:165] Memory required for data: 1768089632
I0321 00:37:30.738977  2075 layer_factory.hpp:77] Creating layer bn2b_branch2a
I0321 00:37:30.738982  2075 net.cpp:100] Creating Layer bn2b_branch2a
I0321 00:37:30.738986  2075 net.cpp:434] bn2b_branch2a <- res2a_res2a_0_split_0
I0321 00:37:30.738989  2075 net.cpp:408] bn2b_branch2a -> bn2b_branch2a
I0321 00:37:30.739135  2075 net.cpp:150] Setting up bn2b_branch2a
I0321 00:37:30.739141  2075 net.cpp:157] Top shape: 32 64 38 150 (11673600)
I0321 00:37:30.739162  2075 net.cpp:165] Memory required for data: 1814784032
I0321 00:37:30.739171  2075 layer_factory.hpp:77] Creating layer scale2b_branch2a
I0321 00:37:30.739181  2075 net.cpp:100] Creating Layer scale2b_branch2a
I0321 00:37:30.739184  2075 net.cpp:434] scale2b_branch2a <- bn2b_branch2a
I0321 00:37:30.739189  2075 net.cpp:395] scale2b_branch2a -> bn2b_branch2a (in-place)
I0321 00:37:30.739218  2075 layer_factory.hpp:77] Creating layer scale2b_branch2a
I0321 00:37:30.739303  2075 net.cpp:150] Setting up scale2b_branch2a
I0321 00:37:30.739310  2075 net.cpp:157] Top shape: 32 64 38 150 (11673600)
I0321 00:37:30.739311  2075 net.cpp:165] Memory required for data: 1861478432
I0321 00:37:30.739316  2075 layer_factory.hpp:77] Creating layer bn2b_branch2a_relu
I0321 00:37:30.739321  2075 net.cpp:100] Creating Layer bn2b_branch2a_relu
I0321 00:37:30.739325  2075 net.cpp:434] bn2b_branch2a_relu <- bn2b_branch2a
I0321 00:37:30.739327  2075 net.cpp:395] bn2b_branch2a_relu -> bn2b_branch2a (in-place)
I0321 00:37:30.739457  2075 net.cpp:150] Setting up bn2b_branch2a_relu
I0321 00:37:30.739464  2075 net.cpp:157] Top shape: 32 64 38 150 (11673600)
I0321 00:37:30.739467  2075 net.cpp:165] Memory required for data: 1908172832
I0321 00:37:30.739470  2075 layer_factory.hpp:77] Creating layer conv2b_branch2a
I0321 00:37:30.739477  2075 net.cpp:100] Creating Layer conv2b_branch2a
I0321 00:37:30.739480  2075 net.cpp:434] conv2b_branch2a <- bn2b_branch2a
I0321 00:37:30.739485  2075 net.cpp:408] conv2b_branch2a -> conv2b_branch2a
I0321 00:37:30.741789  2075 net.cpp:150] Setting up conv2b_branch2a
I0321 00:37:30.741801  2075 net.cpp:157] Top shape: 32 64 38 150 (11673600)
I0321 00:37:30.741804  2075 net.cpp:165] Memory required for data: 1954867232
I0321 00:37:30.741808  2075 layer_factory.hpp:77] Creating layer bn2b_branch2b
I0321 00:37:30.741816  2075 net.cpp:100] Creating Layer bn2b_branch2b
I0321 00:37:30.741819  2075 net.cpp:434] bn2b_branch2b <- conv2b_branch2a
I0321 00:37:30.741823  2075 net.cpp:408] bn2b_branch2b -> bn2b_branch2b
I0321 00:37:30.741976  2075 net.cpp:150] Setting up bn2b_branch2b
I0321 00:37:30.741982  2075 net.cpp:157] Top shape: 32 64 38 150 (11673600)
I0321 00:37:30.741994  2075 net.cpp:165] Memory required for data: 2001561632
I0321 00:37:30.742002  2075 layer_factory.hpp:77] Creating layer scale2b_branch2b
I0321 00:37:30.742017  2075 net.cpp:100] Creating Layer scale2b_branch2b
I0321 00:37:30.742020  2075 net.cpp:434] scale2b_branch2b <- bn2b_branch2b
I0321 00:37:30.742024  2075 net.cpp:395] scale2b_branch2b -> bn2b_branch2b (in-place)
I0321 00:37:30.742064  2075 layer_factory.hpp:77] Creating layer scale2b_branch2b
I0321 00:37:30.742164  2075 net.cpp:150] Setting up scale2b_branch2b
I0321 00:37:30.742171  2075 net.cpp:157] Top shape: 32 64 38 150 (11673600)
I0321 00:37:30.742173  2075 net.cpp:165] Memory required for data: 2048256032
I0321 00:37:30.742178  2075 layer_factory.hpp:77] Creating layer bn2b_branch2b_relu
I0321 00:37:30.742182  2075 net.cpp:100] Creating Layer bn2b_branch2b_relu
I0321 00:37:30.742185  2075 net.cpp:434] bn2b_branch2b_relu <- bn2b_branch2b
I0321 00:37:30.742189  2075 net.cpp:395] bn2b_branch2b_relu -> bn2b_branch2b (in-place)
I0321 00:37:30.742699  2075 net.cpp:150] Setting up bn2b_branch2b_relu
I0321 00:37:30.742709  2075 net.cpp:157] Top shape: 32 64 38 150 (11673600)
I0321 00:37:30.742722  2075 net.cpp:165] Memory required for data: 2094950432
I0321 00:37:30.742724  2075 layer_factory.hpp:77] Creating layer conv2b_branch2b
I0321 00:37:30.742733  2075 net.cpp:100] Creating Layer conv2b_branch2b
I0321 00:37:30.742736  2075 net.cpp:434] conv2b_branch2b <- bn2b_branch2b
I0321 00:37:30.742741  2075 net.cpp:408] conv2b_branch2b -> conv2b_branch2b
I0321 00:37:30.744832  2075 net.cpp:150] Setting up conv2b_branch2b
I0321 00:37:30.744853  2075 net.cpp:157] Top shape: 32 64 38 150 (11673600)
I0321 00:37:30.744856  2075 net.cpp:165] Memory required for data: 2141644832
I0321 00:37:30.744870  2075 layer_factory.hpp:77] Creating layer res2b
I0321 00:37:30.744928  2075 net.cpp:100] Creating Layer res2b
I0321 00:37:30.744932  2075 net.cpp:434] res2b <- res2a_res2a_0_split_1
I0321 00:37:30.744938  2075 net.cpp:434] res2b <- conv2b_branch2b
I0321 00:37:30.744942  2075 net.cpp:408] res2b -> res2b
I0321 00:37:30.744967  2075 net.cpp:150] Setting up res2b
I0321 00:37:30.744973  2075 net.cpp:157] Top shape: 32 64 38 150 (11673600)
I0321 00:37:30.744976  2075 net.cpp:165] Memory required for data: 2188339232
I0321 00:37:30.744978  2075 layer_factory.hpp:77] Creating layer bn3a_root
I0321 00:37:30.744983  2075 net.cpp:100] Creating Layer bn3a_root
I0321 00:37:30.744987  2075 net.cpp:434] bn3a_root <- res2b
I0321 00:37:30.744992  2075 net.cpp:408] bn3a_root -> bn3a_root
I0321 00:37:30.745160  2075 net.cpp:150] Setting up bn3a_root
I0321 00:37:30.745167  2075 net.cpp:157] Top shape: 32 64 38 150 (11673600)
I0321 00:37:30.745179  2075 net.cpp:165] Memory required for data: 2235033632
I0321 00:37:30.745185  2075 layer_factory.hpp:77] Creating layer scale3a_root
I0321 00:37:30.745193  2075 net.cpp:100] Creating Layer scale3a_root
I0321 00:37:30.745194  2075 net.cpp:434] scale3a_root <- bn3a_root
I0321 00:37:30.745198  2075 net.cpp:395] scale3a_root -> bn3a_root (in-place)
I0321 00:37:30.745239  2075 layer_factory.hpp:77] Creating layer scale3a_root
I0321 00:37:30.745352  2075 net.cpp:150] Setting up scale3a_root
I0321 00:37:30.745357  2075 net.cpp:157] Top shape: 32 64 38 150 (11673600)
I0321 00:37:30.745370  2075 net.cpp:165] Memory required for data: 2281728032
I0321 00:37:30.745374  2075 layer_factory.hpp:77] Creating layer bn3a_root_relu
I0321 00:37:30.745379  2075 net.cpp:100] Creating Layer bn3a_root_relu
I0321 00:37:30.745383  2075 net.cpp:434] bn3a_root_relu <- bn3a_root
I0321 00:37:30.745385  2075 net.cpp:395] bn3a_root_relu -> bn3a_root (in-place)
I0321 00:37:30.745918  2075 net.cpp:150] Setting up bn3a_root_relu
I0321 00:37:30.745937  2075 net.cpp:157] Top shape: 32 64 38 150 (11673600)
I0321 00:37:30.745940  2075 net.cpp:165] Memory required for data: 2328422432
I0321 00:37:30.745944  2075 layer_factory.hpp:77] Creating layer bn3a_root_bn3a_root_relu_0_split
I0321 00:37:30.745959  2075 net.cpp:100] Creating Layer bn3a_root_bn3a_root_relu_0_split
I0321 00:37:30.745962  2075 net.cpp:434] bn3a_root_bn3a_root_relu_0_split <- bn3a_root
I0321 00:37:30.745967  2075 net.cpp:408] bn3a_root_bn3a_root_relu_0_split -> bn3a_root_bn3a_root_relu_0_split_0
I0321 00:37:30.745972  2075 net.cpp:408] bn3a_root_bn3a_root_relu_0_split -> bn3a_root_bn3a_root_relu_0_split_1
I0321 00:37:30.746009  2075 net.cpp:150] Setting up bn3a_root_bn3a_root_relu_0_split
I0321 00:37:30.746024  2075 net.cpp:157] Top shape: 32 64 38 150 (11673600)
I0321 00:37:30.746027  2075 net.cpp:157] Top shape: 32 64 38 150 (11673600)
I0321 00:37:30.746029  2075 net.cpp:165] Memory required for data: 2421811232
I0321 00:37:30.746042  2075 layer_factory.hpp:77] Creating layer conv3a_branch2a
I0321 00:37:30.746050  2075 net.cpp:100] Creating Layer conv3a_branch2a
I0321 00:37:30.746053  2075 net.cpp:434] conv3a_branch2a <- bn3a_root_bn3a_root_relu_0_split_0
I0321 00:37:30.746058  2075 net.cpp:408] conv3a_branch2a -> conv3a_branch2a
I0321 00:37:30.748266  2075 net.cpp:150] Setting up conv3a_branch2a
I0321 00:37:30.748291  2075 net.cpp:157] Top shape: 32 256 19 75 (11673600)
I0321 00:37:30.748296  2075 net.cpp:165] Memory required for data: 2468505632
I0321 00:37:30.748301  2075 layer_factory.hpp:77] Creating layer conv3a_proj
I0321 00:37:30.748312  2075 net.cpp:100] Creating Layer conv3a_proj
I0321 00:37:30.748317  2075 net.cpp:434] conv3a_proj <- bn3a_root_bn3a_root_relu_0_split_1
I0321 00:37:30.748324  2075 net.cpp:408] conv3a_proj -> conv3a_proj
I0321 00:37:30.749945  2075 net.cpp:150] Setting up conv3a_proj
I0321 00:37:30.749965  2075 net.cpp:157] Top shape: 32 256 19 75 (11673600)
I0321 00:37:30.749969  2075 net.cpp:165] Memory required for data: 2515200032
I0321 00:37:30.749979  2075 layer_factory.hpp:77] Creating layer bn3a_branch2b
I0321 00:37:30.749991  2075 net.cpp:100] Creating Layer bn3a_branch2b
I0321 00:37:30.750010  2075 net.cpp:434] bn3a_branch2b <- conv3a_branch2a
I0321 00:37:30.750016  2075 net.cpp:408] bn3a_branch2b -> bn3a_branch2b
I0321 00:37:30.750169  2075 net.cpp:150] Setting up bn3a_branch2b
I0321 00:37:30.750175  2075 net.cpp:157] Top shape: 32 256 19 75 (11673600)
I0321 00:37:30.750188  2075 net.cpp:165] Memory required for data: 2561894432
I0321 00:37:30.750193  2075 layer_factory.hpp:77] Creating layer scale3a_branch2b
I0321 00:37:30.750201  2075 net.cpp:100] Creating Layer scale3a_branch2b
I0321 00:37:30.750203  2075 net.cpp:434] scale3a_branch2b <- bn3a_branch2b
I0321 00:37:30.750207  2075 net.cpp:395] scale3a_branch2b -> bn3a_branch2b (in-place)
I0321 00:37:30.750248  2075 layer_factory.hpp:77] Creating layer scale3a_branch2b
I0321 00:37:30.750349  2075 net.cpp:150] Setting up scale3a_branch2b
I0321 00:37:30.750355  2075 net.cpp:157] Top shape: 32 256 19 75 (11673600)
I0321 00:37:30.750366  2075 net.cpp:165] Memory required for data: 2608588832
I0321 00:37:30.750370  2075 layer_factory.hpp:77] Creating layer bn3a_branch2b_relu
I0321 00:37:30.750380  2075 net.cpp:100] Creating Layer bn3a_branch2b_relu
I0321 00:37:30.750382  2075 net.cpp:434] bn3a_branch2b_relu <- bn3a_branch2b
I0321 00:37:30.750385  2075 net.cpp:395] bn3a_branch2b_relu -> bn3a_branch2b (in-place)
I0321 00:37:30.750525  2075 net.cpp:150] Setting up bn3a_branch2b_relu
I0321 00:37:30.750532  2075 net.cpp:157] Top shape: 32 256 19 75 (11673600)
I0321 00:37:30.750545  2075 net.cpp:165] Memory required for data: 2655283232
I0321 00:37:30.750547  2075 layer_factory.hpp:77] Creating layer conv3a_branch2b
I0321 00:37:30.750555  2075 net.cpp:100] Creating Layer conv3a_branch2b
I0321 00:37:30.750558  2075 net.cpp:434] conv3a_branch2b <- bn3a_branch2b
I0321 00:37:30.750562  2075 net.cpp:408] conv3a_branch2b -> conv3a_branch2b
I0321 00:37:30.764550  2075 net.cpp:150] Setting up conv3a_branch2b
I0321 00:37:30.764586  2075 net.cpp:157] Top shape: 32 256 19 75 (11673600)
I0321 00:37:30.764590  2075 net.cpp:165] Memory required for data: 2701977632
I0321 00:37:30.764597  2075 layer_factory.hpp:77] Creating layer res3a
I0321 00:37:30.764616  2075 net.cpp:100] Creating Layer res3a
I0321 00:37:30.764621  2075 net.cpp:434] res3a <- conv3a_proj
I0321 00:37:30.764627  2075 net.cpp:434] res3a <- conv3a_branch2b
I0321 00:37:30.764633  2075 net.cpp:408] res3a -> res3a
I0321 00:37:30.764674  2075 net.cpp:150] Setting up res3a
I0321 00:37:30.764680  2075 net.cpp:157] Top shape: 32 256 19 75 (11673600)
I0321 00:37:30.764683  2075 net.cpp:165] Memory required for data: 2748672032
I0321 00:37:30.764694  2075 layer_factory.hpp:77] Creating layer res3a_res3a_0_split
I0321 00:37:30.764698  2075 net.cpp:100] Creating Layer res3a_res3a_0_split
I0321 00:37:30.764701  2075 net.cpp:434] res3a_res3a_0_split <- res3a
I0321 00:37:30.764714  2075 net.cpp:408] res3a_res3a_0_split -> res3a_res3a_0_split_0
I0321 00:37:30.764724  2075 net.cpp:408] res3a_res3a_0_split -> res3a_res3a_0_split_1
I0321 00:37:30.764758  2075 net.cpp:150] Setting up res3a_res3a_0_split
I0321 00:37:30.764765  2075 net.cpp:157] Top shape: 32 256 19 75 (11673600)
I0321 00:37:30.764767  2075 net.cpp:157] Top shape: 32 256 19 75 (11673600)
I0321 00:37:30.764770  2075 net.cpp:165] Memory required for data: 2842060832
I0321 00:37:30.764781  2075 layer_factory.hpp:77] Creating layer bn3a_branch_root_1x1
I0321 00:37:30.764788  2075 net.cpp:100] Creating Layer bn3a_branch_root_1x1
I0321 00:37:30.764799  2075 net.cpp:434] bn3a_branch_root_1x1 <- res3a_res3a_0_split_0
I0321 00:37:30.764804  2075 net.cpp:408] bn3a_branch_root_1x1 -> bn3a_branch_root_1x1
I0321 00:37:30.764969  2075 net.cpp:150] Setting up bn3a_branch_root_1x1
I0321 00:37:30.764976  2075 net.cpp:157] Top shape: 32 256 19 75 (11673600)
I0321 00:37:30.764988  2075 net.cpp:165] Memory required for data: 2888755232
I0321 00:37:30.764993  2075 layer_factory.hpp:77] Creating layer scale3a_branch_root_1x1
I0321 00:37:30.765009  2075 net.cpp:100] Creating Layer scale3a_branch_root_1x1
I0321 00:37:30.765012  2075 net.cpp:434] scale3a_branch_root_1x1 <- bn3a_branch_root_1x1
I0321 00:37:30.765031  2075 net.cpp:395] scale3a_branch_root_1x1 -> bn3a_branch_root_1x1 (in-place)
I0321 00:37:30.765077  2075 layer_factory.hpp:77] Creating layer scale3a_branch_root_1x1
I0321 00:37:30.765182  2075 net.cpp:150] Setting up scale3a_branch_root_1x1
I0321 00:37:30.765188  2075 net.cpp:157] Top shape: 32 256 19 75 (11673600)
I0321 00:37:30.765199  2075 net.cpp:165] Memory required for data: 2935449632
I0321 00:37:30.765204  2075 layer_factory.hpp:77] Creating layer bn3a_branch_root_1x1_relu
I0321 00:37:30.765209  2075 net.cpp:100] Creating Layer bn3a_branch_root_1x1_relu
I0321 00:37:30.765213  2075 net.cpp:434] bn3a_branch_root_1x1_relu <- bn3a_branch_root_1x1
I0321 00:37:30.765215  2075 net.cpp:395] bn3a_branch_root_1x1_relu -> bn3a_branch_root_1x1 (in-place)
I0321 00:37:30.765370  2075 net.cpp:150] Setting up bn3a_branch_root_1x1_relu
I0321 00:37:30.765377  2075 net.cpp:157] Top shape: 32 256 19 75 (11673600)
I0321 00:37:30.765389  2075 net.cpp:165] Memory required for data: 2982144032
I0321 00:37:30.765393  2075 layer_factory.hpp:77] Creating layer res3a_branch_root_1x1
I0321 00:37:30.765401  2075 net.cpp:100] Creating Layer res3a_branch_root_1x1
I0321 00:37:30.765405  2075 net.cpp:434] res3a_branch_root_1x1 <- bn3a_branch_root_1x1
I0321 00:37:30.765409  2075 net.cpp:408] res3a_branch_root_1x1 -> res3a_branch_root_1x1
I0321 00:37:30.768158  2075 net.cpp:150] Setting up res3a_branch_root_1x1
I0321 00:37:30.768179  2075 net.cpp:157] Top shape: 32 256 19 75 (11673600)
I0321 00:37:30.768183  2075 net.cpp:165] Memory required for data: 3028838432
I0321 00:37:30.768188  2075 layer_factory.hpp:77] Creating layer res3a_branch_root_1x1_res3a_branch_root_1x1_0_split
I0321 00:37:30.768193  2075 net.cpp:100] Creating Layer res3a_branch_root_1x1_res3a_branch_root_1x1_0_split
I0321 00:37:30.768198  2075 net.cpp:434] res3a_branch_root_1x1_res3a_branch_root_1x1_0_split <- res3a_branch_root_1x1
I0321 00:37:30.768203  2075 net.cpp:408] res3a_branch_root_1x1_res3a_branch_root_1x1_0_split -> res3a_branch_root_1x1_res3a_branch_root_1x1_0_split_0
I0321 00:37:30.768209  2075 net.cpp:408] res3a_branch_root_1x1_res3a_branch_root_1x1_0_split -> res3a_branch_root_1x1_res3a_branch_root_1x1_0_split_1
I0321 00:37:30.768216  2075 net.cpp:408] res3a_branch_root_1x1_res3a_branch_root_1x1_0_split -> res3a_branch_root_1x1_res3a_branch_root_1x1_0_split_2
I0321 00:37:30.768262  2075 net.cpp:150] Setting up res3a_branch_root_1x1_res3a_branch_root_1x1_0_split
I0321 00:37:30.768267  2075 net.cpp:157] Top shape: 32 256 19 75 (11673600)
I0321 00:37:30.768280  2075 net.cpp:157] Top shape: 32 256 19 75 (11673600)
I0321 00:37:30.768283  2075 net.cpp:157] Top shape: 32 256 19 75 (11673600)
I0321 00:37:30.768285  2075 net.cpp:165] Memory required for data: 3168921632
I0321 00:37:30.768287  2075 layer_factory.hpp:77] Creating layer bn3a_branch2b_3x3
I0321 00:37:30.768293  2075 net.cpp:100] Creating Layer bn3a_branch2b_3x3
I0321 00:37:30.768296  2075 net.cpp:434] bn3a_branch2b_3x3 <- res3a_branch_root_1x1_res3a_branch_root_1x1_0_split_0
I0321 00:37:30.768301  2075 net.cpp:408] bn3a_branch2b_3x3 -> bn3a_branch2b_3x3
I0321 00:37:30.768451  2075 net.cpp:150] Setting up bn3a_branch2b_3x3
I0321 00:37:30.768456  2075 net.cpp:157] Top shape: 32 256 19 75 (11673600)
I0321 00:37:30.768468  2075 net.cpp:165] Memory required for data: 3215616032
I0321 00:37:30.768474  2075 layer_factory.hpp:77] Creating layer scale3a_branch2b_3x3
I0321 00:37:30.768481  2075 net.cpp:100] Creating Layer scale3a_branch2b_3x3
I0321 00:37:30.768486  2075 net.cpp:434] scale3a_branch2b_3x3 <- bn3a_branch2b_3x3
I0321 00:37:30.768489  2075 net.cpp:395] scale3a_branch2b_3x3 -> bn3a_branch2b_3x3 (in-place)
I0321 00:37:30.768528  2075 layer_factory.hpp:77] Creating layer scale3a_branch2b_3x3
I0321 00:37:30.768627  2075 net.cpp:150] Setting up scale3a_branch2b_3x3
I0321 00:37:30.768633  2075 net.cpp:157] Top shape: 32 256 19 75 (11673600)
I0321 00:37:30.768646  2075 net.cpp:165] Memory required for data: 3262310432
I0321 00:37:30.768649  2075 layer_factory.hpp:77] Creating layer bn3a_branch2b_3x3_relu
I0321 00:37:30.768662  2075 net.cpp:100] Creating Layer bn3a_branch2b_3x3_relu
I0321 00:37:30.768666  2075 net.cpp:434] bn3a_branch2b_3x3_relu <- bn3a_branch2b_3x3
I0321 00:37:30.768671  2075 net.cpp:395] bn3a_branch2b_3x3_relu -> bn3a_branch2b_3x3 (in-place)
I0321 00:37:30.769158  2075 net.cpp:150] Setting up bn3a_branch2b_3x3_relu
I0321 00:37:30.769168  2075 net.cpp:157] Top shape: 32 256 19 75 (11673600)
I0321 00:37:30.769172  2075 net.cpp:165] Memory required for data: 3309004832
I0321 00:37:30.769176  2075 layer_factory.hpp:77] Creating layer res3a_branch2b_3x3
I0321 00:37:30.769183  2075 net.cpp:100] Creating Layer res3a_branch2b_3x3
I0321 00:37:30.769187  2075 net.cpp:434] res3a_branch2b_3x3 <- bn3a_branch2b_3x3
I0321 00:37:30.769193  2075 net.cpp:408] res3a_branch2b_3x3 -> res3a_branch2b_3x3
I0321 00:37:30.782685  2075 net.cpp:150] Setting up res3a_branch2b_3x3
I0321 00:37:30.782722  2075 net.cpp:157] Top shape: 32 256 19 75 (11673600)
I0321 00:37:30.782727  2075 net.cpp:165] Memory required for data: 3355699232
I0321 00:37:30.782743  2075 layer_factory.hpp:77] Creating layer bn3a_branch2c_3x3_a
I0321 00:37:30.782755  2075 net.cpp:100] Creating Layer bn3a_branch2c_3x3_a
I0321 00:37:30.782762  2075 net.cpp:434] bn3a_branch2c_3x3_a <- res3a_branch_root_1x1_res3a_branch_root_1x1_0_split_1
I0321 00:37:30.782769  2075 net.cpp:408] bn3a_branch2c_3x3_a -> bn3a_branch2c_3x3_a
I0321 00:37:30.782948  2075 net.cpp:150] Setting up bn3a_branch2c_3x3_a
I0321 00:37:30.782954  2075 net.cpp:157] Top shape: 32 256 19 75 (11673600)
I0321 00:37:30.782968  2075 net.cpp:165] Memory required for data: 3402393632
I0321 00:37:30.782974  2075 layer_factory.hpp:77] Creating layer scale3a_branch2c_3x3_a
I0321 00:37:30.782981  2075 net.cpp:100] Creating Layer scale3a_branch2c_3x3_a
I0321 00:37:30.782984  2075 net.cpp:434] scale3a_branch2c_3x3_a <- bn3a_branch2c_3x3_a
I0321 00:37:30.782989  2075 net.cpp:395] scale3a_branch2c_3x3_a -> bn3a_branch2c_3x3_a (in-place)
I0321 00:37:30.783032  2075 layer_factory.hpp:77] Creating layer scale3a_branch2c_3x3_a
I0321 00:37:30.783136  2075 net.cpp:150] Setting up scale3a_branch2c_3x3_a
I0321 00:37:30.783143  2075 net.cpp:157] Top shape: 32 256 19 75 (11673600)
I0321 00:37:30.783155  2075 net.cpp:165] Memory required for data: 3449088032
I0321 00:37:30.783159  2075 layer_factory.hpp:77] Creating layer bn3a_branch2c_3x3_a_relu
I0321 00:37:30.783165  2075 net.cpp:100] Creating Layer bn3a_branch2c_3x3_a_relu
I0321 00:37:30.783169  2075 net.cpp:434] bn3a_branch2c_3x3_a_relu <- bn3a_branch2c_3x3_a
I0321 00:37:30.783171  2075 net.cpp:395] bn3a_branch2c_3x3_a_relu -> bn3a_branch2c_3x3_a (in-place)
I0321 00:37:30.783313  2075 net.cpp:150] Setting up bn3a_branch2c_3x3_a_relu
I0321 00:37:30.783329  2075 net.cpp:157] Top shape: 32 256 19 75 (11673600)
I0321 00:37:30.783332  2075 net.cpp:165] Memory required for data: 3495782432
I0321 00:37:30.783335  2075 layer_factory.hpp:77] Creating layer res3a_branch2c_3x3_a
I0321 00:37:30.783344  2075 net.cpp:100] Creating Layer res3a_branch2c_3x3_a
I0321 00:37:30.783347  2075 net.cpp:434] res3a_branch2c_3x3_a <- bn3a_branch2c_3x3_a
I0321 00:37:30.783352  2075 net.cpp:408] res3a_branch2c_3x3_a -> res3a_branch2c_3x3_a
I0321 00:37:30.790884  2075 net.cpp:150] Setting up res3a_branch2c_3x3_a
I0321 00:37:30.790921  2075 net.cpp:157] Top shape: 32 128 19 75 (5836800)
I0321 00:37:30.790925  2075 net.cpp:165] Memory required for data: 3519129632
I0321 00:37:30.790932  2075 layer_factory.hpp:77] Creating layer bn3a_branch2c_3x3_b
I0321 00:37:30.790943  2075 net.cpp:100] Creating Layer bn3a_branch2c_3x3_b
I0321 00:37:30.790949  2075 net.cpp:434] bn3a_branch2c_3x3_b <- res3a_branch2c_3x3_a
I0321 00:37:30.790956  2075 net.cpp:408] bn3a_branch2c_3x3_b -> bn3a_branch2c_3x3_b
I0321 00:37:30.791131  2075 net.cpp:150] Setting up bn3a_branch2c_3x3_b
I0321 00:37:30.791137  2075 net.cpp:157] Top shape: 32 128 19 75 (5836800)
I0321 00:37:30.791151  2075 net.cpp:165] Memory required for data: 3542476832
I0321 00:37:30.791157  2075 layer_factory.hpp:77] Creating layer scale3a_branch2c_3x3_b
I0321 00:37:30.791178  2075 net.cpp:100] Creating Layer scale3a_branch2c_3x3_b
I0321 00:37:30.791182  2075 net.cpp:434] scale3a_branch2c_3x3_b <- bn3a_branch2c_3x3_b
I0321 00:37:30.791185  2075 net.cpp:395] scale3a_branch2c_3x3_b -> bn3a_branch2c_3x3_b (in-place)
I0321 00:37:30.791232  2075 layer_factory.hpp:77] Creating layer scale3a_branch2c_3x3_b
I0321 00:37:30.791360  2075 net.cpp:150] Setting up scale3a_branch2c_3x3_b
I0321 00:37:30.791375  2075 net.cpp:157] Top shape: 32 128 19 75 (5836800)
I0321 00:37:30.791378  2075 net.cpp:165] Memory required for data: 3565824032
I0321 00:37:30.791391  2075 layer_factory.hpp:77] Creating layer bn3a_branch2c_3x3_b_relu
I0321 00:37:30.791396  2075 net.cpp:100] Creating Layer bn3a_branch2c_3x3_b_relu
I0321 00:37:30.791399  2075 net.cpp:434] bn3a_branch2c_3x3_b_relu <- bn3a_branch2c_3x3_b
I0321 00:37:30.791404  2075 net.cpp:395] bn3a_branch2c_3x3_b_relu -> bn3a_branch2c_3x3_b (in-place)
I0321 00:37:30.791550  2075 net.cpp:150] Setting up bn3a_branch2c_3x3_b_relu
I0321 00:37:30.791558  2075 net.cpp:157] Top shape: 32 128 19 75 (5836800)
I0321 00:37:30.791570  2075 net.cpp:165] Memory required for data: 3589171232
I0321 00:37:30.791574  2075 layer_factory.hpp:77] Creating layer res3a_branch2c_3x3_b
I0321 00:37:30.791582  2075 net.cpp:100] Creating Layer res3a_branch2c_3x3_b
I0321 00:37:30.791585  2075 net.cpp:434] res3a_branch2c_3x3_b <- bn3a_branch2c_3x3_b
I0321 00:37:30.791591  2075 net.cpp:408] res3a_branch2c_3x3_b -> res3a_branch2c_3x3_b
I0321 00:37:30.800274  2075 net.cpp:150] Setting up res3a_branch2c_3x3_b
I0321 00:37:30.800310  2075 net.cpp:157] Top shape: 32 256 19 75 (11673600)
I0321 00:37:30.800313  2075 net.cpp:165] Memory required for data: 3635865632
I0321 00:37:30.800320  2075 layer_factory.hpp:77] Creating layer 3a/concat
I0321 00:37:30.800333  2075 net.cpp:100] Creating Layer 3a/concat
I0321 00:37:30.800338  2075 net.cpp:434] 3a/concat <- res3a_branch_root_1x1_res3a_branch_root_1x1_0_split_2
I0321 00:37:30.800343  2075 net.cpp:434] 3a/concat <- res3a_branch2b_3x3
I0321 00:37:30.800348  2075 net.cpp:434] 3a/concat <- res3a_branch2c_3x3_b
I0321 00:37:30.800353  2075 net.cpp:408] 3a/concat -> 3a/concat
I0321 00:37:30.800384  2075 net.cpp:150] Setting up 3a/concat
I0321 00:37:30.800390  2075 net.cpp:157] Top shape: 32 768 19 75 (35020800)
I0321 00:37:30.800393  2075 net.cpp:165] Memory required for data: 3775948832
I0321 00:37:30.800395  2075 layer_factory.hpp:77] Creating layer bn3a_3a/concat_1x1
I0321 00:37:30.800401  2075 net.cpp:100] Creating Layer bn3a_3a/concat_1x1
I0321 00:37:30.800403  2075 net.cpp:434] bn3a_3a/concat_1x1 <- 3a/concat
I0321 00:37:30.800410  2075 net.cpp:408] bn3a_3a/concat_1x1 -> bn3a_3a/concat_1x1
I0321 00:37:30.800900  2075 net.cpp:150] Setting up bn3a_3a/concat_1x1
I0321 00:37:30.800910  2075 net.cpp:157] Top shape: 32 768 19 75 (35020800)
I0321 00:37:30.800923  2075 net.cpp:165] Memory required for data: 3916032032
I0321 00:37:30.800940  2075 layer_factory.hpp:77] Creating layer scale3a_3a/concat_1x1
I0321 00:37:30.800948  2075 net.cpp:100] Creating Layer scale3a_3a/concat_1x1
I0321 00:37:30.800952  2075 net.cpp:434] scale3a_3a/concat_1x1 <- bn3a_3a/concat_1x1
I0321 00:37:30.800957  2075 net.cpp:395] scale3a_3a/concat_1x1 -> bn3a_3a/concat_1x1 (in-place)
I0321 00:37:30.800999  2075 layer_factory.hpp:77] Creating layer scale3a_3a/concat_1x1
I0321 00:37:30.801110  2075 net.cpp:150] Setting up scale3a_3a/concat_1x1
I0321 00:37:30.801115  2075 net.cpp:157] Top shape: 32 768 19 75 (35020800)
I0321 00:37:30.801127  2075 net.cpp:165] Memory required for data: 4056115232
I0321 00:37:30.801132  2075 layer_factory.hpp:77] Creating layer bn3a_3a/concat_1x1_relu
I0321 00:37:30.801137  2075 net.cpp:100] Creating Layer bn3a_3a/concat_1x1_relu
I0321 00:37:30.801141  2075 net.cpp:434] bn3a_3a/concat_1x1_relu <- bn3a_3a/concat_1x1
I0321 00:37:30.801143  2075 net.cpp:395] bn3a_3a/concat_1x1_relu -> bn3a_3a/concat_1x1 (in-place)
I0321 00:37:30.801627  2075 net.cpp:150] Setting up bn3a_3a/concat_1x1_relu
I0321 00:37:30.801637  2075 net.cpp:157] Top shape: 32 768 19 75 (35020800)
I0321 00:37:30.801661  2075 net.cpp:165] Memory required for data: 4196198432
I0321 00:37:30.801664  2075 layer_factory.hpp:77] Creating layer res3a_3a/concat_1x1
I0321 00:37:30.801673  2075 net.cpp:100] Creating Layer res3a_3a/concat_1x1
I0321 00:37:30.801677  2075 net.cpp:434] res3a_3a/concat_1x1 <- bn3a_3a/concat_1x1
I0321 00:37:30.801683  2075 net.cpp:408] res3a_3a/concat_1x1 -> res3a_3a/concat_1x1
I0321 00:37:30.806984  2075 net.cpp:150] Setting up res3a_3a/concat_1x1
I0321 00:37:30.807011  2075 net.cpp:157] Top shape: 32 256 19 75 (11673600)
I0321 00:37:30.807014  2075 net.cpp:165] Memory required for data: 4242892832
I0321 00:37:30.807020  2075 layer_factory.hpp:77] Creating layer inception_3a
I0321 00:37:30.807026  2075 net.cpp:100] Creating Layer inception_3a
I0321 00:37:30.807030  2075 net.cpp:434] inception_3a <- res3a_res3a_0_split_1
I0321 00:37:30.807035  2075 net.cpp:434] inception_3a <- res3a_3a/concat_1x1
I0321 00:37:30.807040  2075 net.cpp:408] inception_3a -> inception_3a
I0321 00:37:30.807062  2075 net.cpp:150] Setting up inception_3a
I0321 00:37:30.807077  2075 net.cpp:157] Top shape: 32 256 19 75 (11673600)
I0321 00:37:30.807080  2075 net.cpp:165] Memory required for data: 4289587232
I0321 00:37:30.807082  2075 layer_factory.hpp:77] Creating layer bn4a_root
I0321 00:37:30.807097  2075 net.cpp:100] Creating Layer bn4a_root
I0321 00:37:30.807101  2075 net.cpp:434] bn4a_root <- inception_3a
I0321 00:37:30.807106  2075 net.cpp:408] bn4a_root -> bn4a_root
I0321 00:37:30.807265  2075 net.cpp:150] Setting up bn4a_root
I0321 00:37:30.807270  2075 net.cpp:157] Top shape: 32 256 19 75 (11673600)
I0321 00:37:30.807282  2075 net.cpp:165] Memory required for data: 4336281632
I0321 00:37:30.807287  2075 layer_factory.hpp:77] Creating layer scale4a_root
I0321 00:37:30.807296  2075 net.cpp:100] Creating Layer scale4a_root
I0321 00:37:30.807298  2075 net.cpp:434] scale4a_root <- bn4a_root
I0321 00:37:30.807302  2075 net.cpp:395] scale4a_root -> bn4a_root (in-place)
I0321 00:37:30.807344  2075 layer_factory.hpp:77] Creating layer scale4a_root
I0321 00:37:30.807449  2075 net.cpp:150] Setting up scale4a_root
I0321 00:37:30.807456  2075 net.cpp:157] Top shape: 32 256 19 75 (11673600)
I0321 00:37:30.807467  2075 net.cpp:165] Memory required for data: 4382976032
I0321 00:37:30.807471  2075 layer_factory.hpp:77] Creating layer bn4a_root_relu
I0321 00:37:30.807477  2075 net.cpp:100] Creating Layer bn4a_root_relu
I0321 00:37:30.807479  2075 net.cpp:434] bn4a_root_relu <- bn4a_root
I0321 00:37:30.807483  2075 net.cpp:395] bn4a_root_relu -> bn4a_root (in-place)
I0321 00:37:30.807626  2075 net.cpp:150] Setting up bn4a_root_relu
I0321 00:37:30.807633  2075 net.cpp:157] Top shape: 32 256 19 75 (11673600)
I0321 00:37:30.807646  2075 net.cpp:165] Memory required for data: 4429670432
I0321 00:37:30.807649  2075 layer_factory.hpp:77] Creating layer bn4a_root_bn4a_root_relu_0_split
I0321 00:37:30.807656  2075 net.cpp:100] Creating Layer bn4a_root_bn4a_root_relu_0_split
I0321 00:37:30.807658  2075 net.cpp:434] bn4a_root_bn4a_root_relu_0_split <- bn4a_root
I0321 00:37:30.807663  2075 net.cpp:408] bn4a_root_bn4a_root_relu_0_split -> bn4a_root_bn4a_root_relu_0_split_0
I0321 00:37:30.807668  2075 net.cpp:408] bn4a_root_bn4a_root_relu_0_split -> bn4a_root_bn4a_root_relu_0_split_1
I0321 00:37:30.807672  2075 net.cpp:408] bn4a_root_bn4a_root_relu_0_split -> bn4a_root_bn4a_root_relu_0_split_2
I0321 00:37:30.807677  2075 net.cpp:408] bn4a_root_bn4a_root_relu_0_split -> bn4a_root_bn4a_root_relu_0_split_3
I0321 00:37:30.807682  2075 net.cpp:408] bn4a_root_bn4a_root_relu_0_split -> bn4a_root_bn4a_root_relu_0_split_4
I0321 00:37:30.807747  2075 net.cpp:150] Setting up bn4a_root_bn4a_root_relu_0_split
I0321 00:37:30.807752  2075 net.cpp:157] Top shape: 32 256 19 75 (11673600)
I0321 00:37:30.807765  2075 net.cpp:157] Top shape: 32 256 19 75 (11673600)
I0321 00:37:30.807767  2075 net.cpp:157] Top shape: 32 256 19 75 (11673600)
I0321 00:37:30.807770  2075 net.cpp:157] Top shape: 32 256 19 75 (11673600)
I0321 00:37:30.807785  2075 net.cpp:157] Top shape: 32 256 19 75 (11673600)
I0321 00:37:30.807787  2075 net.cpp:165] Memory required for data: 4663142432
I0321 00:37:30.807790  2075 layer_factory.hpp:77] Creating layer conv4a_branch2a
I0321 00:37:30.807799  2075 net.cpp:100] Creating Layer conv4a_branch2a
I0321 00:37:30.807802  2075 net.cpp:434] conv4a_branch2a <- bn4a_root_bn4a_root_relu_0_split_0
I0321 00:37:30.807806  2075 net.cpp:408] conv4a_branch2a -> conv4a_branch2a
I0321 00:37:30.812158  2075 net.cpp:150] Setting up conv4a_branch2a
I0321 00:37:30.812191  2075 net.cpp:157] Top shape: 32 256 10 38 (3112960)
I0321 00:37:30.812196  2075 net.cpp:165] Memory required for data: 4675594272
I0321 00:37:30.812202  2075 layer_factory.hpp:77] Creating layer conv4a_proj
I0321 00:37:30.812224  2075 net.cpp:100] Creating Layer conv4a_proj
I0321 00:37:30.812232  2075 net.cpp:434] conv4a_proj <- bn4a_root_bn4a_root_relu_0_split_1
I0321 00:37:30.812239  2075 net.cpp:408] conv4a_proj -> conv4a_proj
I0321 00:37:30.814157  2075 net.cpp:150] Setting up conv4a_proj
I0321 00:37:30.814178  2075 net.cpp:157] Top shape: 32 256 10 38 (3112960)
I0321 00:37:30.814182  2075 net.cpp:165] Memory required for data: 4688046112
I0321 00:37:30.814187  2075 layer_factory.hpp:77] Creating layer bn4a_branch2b
I0321 00:37:30.814193  2075 net.cpp:100] Creating Layer bn4a_branch2b
I0321 00:37:30.814198  2075 net.cpp:434] bn4a_branch2b <- conv4a_branch2a
I0321 00:37:30.814201  2075 net.cpp:408] bn4a_branch2b -> bn4a_branch2b
I0321 00:37:30.814363  2075 net.cpp:150] Setting up bn4a_branch2b
I0321 00:37:30.814369  2075 net.cpp:157] Top shape: 32 256 10 38 (3112960)
I0321 00:37:30.814381  2075 net.cpp:165] Memory required for data: 4700497952
I0321 00:37:30.814388  2075 layer_factory.hpp:77] Creating layer scale4a_branch2b
I0321 00:37:30.814394  2075 net.cpp:100] Creating Layer scale4a_branch2b
I0321 00:37:30.814399  2075 net.cpp:434] scale4a_branch2b <- bn4a_branch2b
I0321 00:37:30.814404  2075 net.cpp:395] scale4a_branch2b -> bn4a_branch2b (in-place)
I0321 00:37:30.814448  2075 layer_factory.hpp:77] Creating layer scale4a_branch2b
I0321 00:37:30.814550  2075 net.cpp:150] Setting up scale4a_branch2b
I0321 00:37:30.814555  2075 net.cpp:157] Top shape: 32 256 10 38 (3112960)
I0321 00:37:30.814568  2075 net.cpp:165] Memory required for data: 4712949792
I0321 00:37:30.814573  2075 layer_factory.hpp:77] Creating layer bn4a_branch2b_relu
I0321 00:37:30.814577  2075 net.cpp:100] Creating Layer bn4a_branch2b_relu
I0321 00:37:30.814580  2075 net.cpp:434] bn4a_branch2b_relu <- bn4a_branch2b
I0321 00:37:30.814584  2075 net.cpp:395] bn4a_branch2b_relu -> bn4a_branch2b (in-place)
I0321 00:37:30.814723  2075 net.cpp:150] Setting up bn4a_branch2b_relu
I0321 00:37:30.814729  2075 net.cpp:157] Top shape: 32 256 10 38 (3112960)
I0321 00:37:30.814743  2075 net.cpp:165] Memory required for data: 4725401632
I0321 00:37:30.814745  2075 layer_factory.hpp:77] Creating layer conv4a_branch2b
I0321 00:37:30.814752  2075 net.cpp:100] Creating Layer conv4a_branch2b
I0321 00:37:30.814755  2075 net.cpp:434] conv4a_branch2b <- bn4a_branch2b
I0321 00:37:30.814760  2075 net.cpp:408] conv4a_branch2b -> conv4a_branch2b
I0321 00:37:30.829027  2075 net.cpp:150] Setting up conv4a_branch2b
I0321 00:37:30.829064  2075 net.cpp:157] Top shape: 32 256 10 38 (3112960)
I0321 00:37:30.829067  2075 net.cpp:165] Memory required for data: 4737853472
I0321 00:37:30.829077  2075 layer_factory.hpp:77] Creating layer res4a
I0321 00:37:30.829087  2075 net.cpp:100] Creating Layer res4a
I0321 00:37:30.829090  2075 net.cpp:434] res4a <- conv4a_proj
I0321 00:37:30.829095  2075 net.cpp:434] res4a <- conv4a_branch2b
I0321 00:37:30.829102  2075 net.cpp:408] res4a -> res4a
I0321 00:37:30.829138  2075 net.cpp:150] Setting up res4a
I0321 00:37:30.829144  2075 net.cpp:157] Top shape: 32 256 10 38 (3112960)
I0321 00:37:30.829155  2075 net.cpp:165] Memory required for data: 4750305312
I0321 00:37:30.829159  2075 layer_factory.hpp:77] Creating layer res4a_res4a_0_split
I0321 00:37:30.829164  2075 net.cpp:100] Creating Layer res4a_res4a_0_split
I0321 00:37:30.829179  2075 net.cpp:434] res4a_res4a_0_split <- res4a
I0321 00:37:30.829182  2075 net.cpp:408] res4a_res4a_0_split -> res4a_res4a_0_split_0
I0321 00:37:30.829187  2075 net.cpp:408] res4a_res4a_0_split -> res4a_res4a_0_split_1
I0321 00:37:30.829226  2075 net.cpp:150] Setting up res4a_res4a_0_split
I0321 00:37:30.829231  2075 net.cpp:157] Top shape: 32 256 10 38 (3112960)
I0321 00:37:30.829243  2075 net.cpp:157] Top shape: 32 256 10 38 (3112960)
I0321 00:37:30.829246  2075 net.cpp:165] Memory required for data: 4775208992
I0321 00:37:30.829248  2075 layer_factory.hpp:77] Creating layer bn4b_branch2a
I0321 00:37:30.829254  2075 net.cpp:100] Creating Layer bn4b_branch2a
I0321 00:37:30.829257  2075 net.cpp:434] bn4b_branch2a <- res4a_res4a_0_split_0
I0321 00:37:30.829262  2075 net.cpp:408] bn4b_branch2a -> bn4b_branch2a
I0321 00:37:30.829427  2075 net.cpp:150] Setting up bn4b_branch2a
I0321 00:37:30.829432  2075 net.cpp:157] Top shape: 32 256 10 38 (3112960)
I0321 00:37:30.829443  2075 net.cpp:165] Memory required for data: 4787660832
I0321 00:37:30.829449  2075 layer_factory.hpp:77] Creating layer scale4b_branch2a
I0321 00:37:30.829457  2075 net.cpp:100] Creating Layer scale4b_branch2a
I0321 00:37:30.829460  2075 net.cpp:434] scale4b_branch2a <- bn4b_branch2a
I0321 00:37:30.829465  2075 net.cpp:395] scale4b_branch2a -> bn4b_branch2a (in-place)
I0321 00:37:30.829511  2075 layer_factory.hpp:77] Creating layer scale4b_branch2a
I0321 00:37:30.829614  2075 net.cpp:150] Setting up scale4b_branch2a
I0321 00:37:30.829620  2075 net.cpp:157] Top shape: 32 256 10 38 (3112960)
I0321 00:37:30.829632  2075 net.cpp:165] Memory required for data: 4800112672
I0321 00:37:30.829637  2075 layer_factory.hpp:77] Creating layer bn4b_branch2a_relu
I0321 00:37:30.829641  2075 net.cpp:100] Creating Layer bn4b_branch2a_relu
I0321 00:37:30.829644  2075 net.cpp:434] bn4b_branch2a_relu <- bn4b_branch2a
I0321 00:37:30.829648  2075 net.cpp:395] bn4b_branch2a_relu -> bn4b_branch2a (in-place)
I0321 00:37:30.830138  2075 net.cpp:150] Setting up bn4b_branch2a_relu
I0321 00:37:30.830148  2075 net.cpp:157] Top shape: 32 256 10 38 (3112960)
I0321 00:37:30.830160  2075 net.cpp:165] Memory required for data: 4812564512
I0321 00:37:30.830163  2075 layer_factory.hpp:77] Creating layer conv4b_branch2a
I0321 00:37:30.830173  2075 net.cpp:100] Creating Layer conv4b_branch2a
I0321 00:37:30.830178  2075 net.cpp:434] conv4b_branch2a <- bn4b_branch2a
I0321 00:37:30.830183  2075 net.cpp:408] conv4b_branch2a -> conv4b_branch2a
I0321 00:37:30.843389  2075 net.cpp:150] Setting up conv4b_branch2a
I0321 00:37:30.843427  2075 net.cpp:157] Top shape: 32 256 10 38 (3112960)
I0321 00:37:30.843431  2075 net.cpp:165] Memory required for data: 4825016352
I0321 00:37:30.843438  2075 layer_factory.hpp:77] Creating layer bn4b_branch2b
I0321 00:37:30.843451  2075 net.cpp:100] Creating Layer bn4b_branch2b
I0321 00:37:30.843456  2075 net.cpp:434] bn4b_branch2b <- conv4b_branch2a
I0321 00:37:30.843462  2075 net.cpp:408] bn4b_branch2b -> bn4b_branch2b
I0321 00:37:30.843691  2075 net.cpp:150] Setting up bn4b_branch2b
I0321 00:37:30.843698  2075 net.cpp:157] Top shape: 32 256 10 38 (3112960)
I0321 00:37:30.843710  2075 net.cpp:165] Memory required for data: 4837468192
I0321 00:37:30.843717  2075 layer_factory.hpp:77] Creating layer scale4b_branch2b
I0321 00:37:30.843726  2075 net.cpp:100] Creating Layer scale4b_branch2b
I0321 00:37:30.843729  2075 net.cpp:434] scale4b_branch2b <- bn4b_branch2b
I0321 00:37:30.843734  2075 net.cpp:395] scale4b_branch2b -> bn4b_branch2b (in-place)
I0321 00:37:30.843782  2075 layer_factory.hpp:77] Creating layer scale4b_branch2b
I0321 00:37:30.843888  2075 net.cpp:150] Setting up scale4b_branch2b
I0321 00:37:30.843894  2075 net.cpp:157] Top shape: 32 256 10 38 (3112960)
I0321 00:37:30.843906  2075 net.cpp:165] Memory required for data: 4849920032
I0321 00:37:30.843910  2075 layer_factory.hpp:77] Creating layer bn4b_branch2b_relu
I0321 00:37:30.843916  2075 net.cpp:100] Creating Layer bn4b_branch2b_relu
I0321 00:37:30.843919  2075 net.cpp:434] bn4b_branch2b_relu <- bn4b_branch2b
I0321 00:37:30.843936  2075 net.cpp:395] bn4b_branch2b_relu -> bn4b_branch2b (in-place)
I0321 00:37:30.844416  2075 net.cpp:150] Setting up bn4b_branch2b_relu
I0321 00:37:30.844435  2075 net.cpp:157] Top shape: 32 256 10 38 (3112960)
I0321 00:37:30.844439  2075 net.cpp:165] Memory required for data: 4862371872
I0321 00:37:30.844441  2075 layer_factory.hpp:77] Creating layer conv4b_branch2b
I0321 00:37:30.844450  2075 net.cpp:100] Creating Layer conv4b_branch2b
I0321 00:37:30.844454  2075 net.cpp:434] conv4b_branch2b <- bn4b_branch2b
I0321 00:37:30.844460  2075 net.cpp:408] conv4b_branch2b -> conv4b_branch2b
I0321 00:37:30.858670  2075 net.cpp:150] Setting up conv4b_branch2b
I0321 00:37:30.858707  2075 net.cpp:157] Top shape: 32 256 10 38 (3112960)
I0321 00:37:30.858711  2075 net.cpp:165] Memory required for data: 4874823712
I0321 00:37:30.858719  2075 layer_factory.hpp:77] Creating layer res4b
I0321 00:37:30.858739  2075 net.cpp:100] Creating Layer res4b
I0321 00:37:30.858744  2075 net.cpp:434] res4b <- res4a_res4a_0_split_1
I0321 00:37:30.858752  2075 net.cpp:434] res4b <- conv4b_branch2b
I0321 00:37:30.858757  2075 net.cpp:408] res4b -> res4b
I0321 00:37:30.858795  2075 net.cpp:150] Setting up res4b
I0321 00:37:30.858810  2075 net.cpp:157] Top shape: 32 256 10 38 (3112960)
I0321 00:37:30.858814  2075 net.cpp:165] Memory required for data: 4887275552
I0321 00:37:30.858815  2075 layer_factory.hpp:77] Creating layer bn_res4b
I0321 00:37:30.858832  2075 net.cpp:100] Creating Layer bn_res4b
I0321 00:37:30.858835  2075 net.cpp:434] bn_res4b <- res4b
I0321 00:37:30.858839  2075 net.cpp:408] bn_res4b -> bn_res4b
I0321 00:37:30.859037  2075 net.cpp:150] Setting up bn_res4b
I0321 00:37:30.859043  2075 net.cpp:157] Top shape: 32 256 10 38 (3112960)
I0321 00:37:30.859056  2075 net.cpp:165] Memory required for data: 4899727392
I0321 00:37:30.859062  2075 layer_factory.hpp:77] Creating layer scale_res4b
I0321 00:37:30.859079  2075 net.cpp:100] Creating Layer scale_res4b
I0321 00:37:30.859082  2075 net.cpp:434] scale_res4b <- bn_res4b
I0321 00:37:30.859086  2075 net.cpp:395] scale_res4b -> bn_res4b (in-place)
I0321 00:37:30.859144  2075 layer_factory.hpp:77] Creating layer scale_res4b
I0321 00:37:30.859272  2075 net.cpp:150] Setting up scale_res4b
I0321 00:37:30.859277  2075 net.cpp:157] Top shape: 32 256 10 38 (3112960)
I0321 00:37:30.859289  2075 net.cpp:165] Memory required for data: 4912179232
I0321 00:37:30.859293  2075 layer_factory.hpp:77] Creating layer bn_res4b_relu
I0321 00:37:30.859308  2075 net.cpp:100] Creating Layer bn_res4b_relu
I0321 00:37:30.859311  2075 net.cpp:434] bn_res4b_relu <- bn_res4b
I0321 00:37:30.859316  2075 net.cpp:395] bn_res4b_relu -> bn_res4b (in-place)
I0321 00:37:30.859480  2075 net.cpp:150] Setting up bn_res4b_relu
I0321 00:37:30.859488  2075 net.cpp:157] Top shape: 32 256 10 38 (3112960)
I0321 00:37:30.859499  2075 net.cpp:165] Memory required for data: 4924631072
I0321 00:37:30.859503  2075 layer_factory.hpp:77] Creating layer bn_res4b_bn_res4b_relu_0_split
I0321 00:37:30.859518  2075 net.cpp:100] Creating Layer bn_res4b_bn_res4b_relu_0_split
I0321 00:37:30.859521  2075 net.cpp:434] bn_res4b_bn_res4b_relu_0_split <- bn_res4b
I0321 00:37:30.859525  2075 net.cpp:408] bn_res4b_bn_res4b_relu_0_split -> bn_res4b_bn_res4b_relu_0_split_0
I0321 00:37:30.859531  2075 net.cpp:408] bn_res4b_bn_res4b_relu_0_split -> bn_res4b_bn_res4b_relu_0_split_1
I0321 00:37:30.859535  2075 net.cpp:408] bn_res4b_bn_res4b_relu_0_split -> bn_res4b_bn_res4b_relu_0_split_2
I0321 00:37:30.859540  2075 net.cpp:408] bn_res4b_bn_res4b_relu_0_split -> bn_res4b_bn_res4b_relu_0_split_3
I0321 00:37:30.859611  2075 net.cpp:150] Setting up bn_res4b_bn_res4b_relu_0_split
I0321 00:37:30.859616  2075 net.cpp:157] Top shape: 32 256 10 38 (3112960)
I0321 00:37:30.859628  2075 net.cpp:157] Top shape: 32 256 10 38 (3112960)
I0321 00:37:30.859632  2075 net.cpp:157] Top shape: 32 256 10 38 (3112960)
I0321 00:37:30.859634  2075 net.cpp:157] Top shape: 32 256 10 38 (3112960)
I0321 00:37:30.859637  2075 net.cpp:165] Memory required for data: 4974438432
I0321 00:37:30.859653  2075 layer_factory.hpp:77] Creating layer conv6_1
I0321 00:37:30.859663  2075 net.cpp:100] Creating Layer conv6_1
I0321 00:37:30.859666  2075 net.cpp:434] conv6_1 <- bn_res4b_bn_res4b_relu_0_split_0
I0321 00:37:30.859673  2075 net.cpp:408] conv6_1 -> conv6_1
I0321 00:37:30.862668  2075 net.cpp:150] Setting up conv6_1
I0321 00:37:30.862702  2075 net.cpp:157] Top shape: 32 256 10 38 (3112960)
I0321 00:37:30.862706  2075 net.cpp:165] Memory required for data: 4986890272
I0321 00:37:30.862713  2075 layer_factory.hpp:77] Creating layer conv6_1_bn
I0321 00:37:30.862725  2075 net.cpp:100] Creating Layer conv6_1_bn
I0321 00:37:30.862730  2075 net.cpp:434] conv6_1_bn <- conv6_1
I0321 00:37:30.862736  2075 net.cpp:395] conv6_1_bn -> conv6_1 (in-place)
I0321 00:37:30.862907  2075 net.cpp:150] Setting up conv6_1_bn
I0321 00:37:30.862913  2075 net.cpp:157] Top shape: 32 256 10 38 (3112960)
I0321 00:37:30.862926  2075 net.cpp:165] Memory required for data: 4999342112
I0321 00:37:30.862932  2075 layer_factory.hpp:77] Creating layer conv6_1_scale
I0321 00:37:30.862941  2075 net.cpp:100] Creating Layer conv6_1_scale
I0321 00:37:30.862943  2075 net.cpp:434] conv6_1_scale <- conv6_1
I0321 00:37:30.862947  2075 net.cpp:395] conv6_1_scale -> conv6_1 (in-place)
I0321 00:37:30.862994  2075 layer_factory.hpp:77] Creating layer conv6_1_scale
I0321 00:37:30.863102  2075 net.cpp:150] Setting up conv6_1_scale
I0321 00:37:30.863107  2075 net.cpp:157] Top shape: 32 256 10 38 (3112960)
I0321 00:37:30.863119  2075 net.cpp:165] Memory required for data: 5011793952
I0321 00:37:30.863124  2075 layer_factory.hpp:77] Creating layer conv6_1_relu
I0321 00:37:30.863131  2075 net.cpp:100] Creating Layer conv6_1_relu
I0321 00:37:30.863132  2075 net.cpp:434] conv6_1_relu <- conv6_1
I0321 00:37:30.863137  2075 net.cpp:395] conv6_1_relu -> conv6_1 (in-place)
I0321 00:37:30.863647  2075 net.cpp:150] Setting up conv6_1_relu
I0321 00:37:30.863670  2075 net.cpp:157] Top shape: 32 256 10 38 (3112960)
I0321 00:37:30.863673  2075 net.cpp:165] Memory required for data: 5024245792
I0321 00:37:30.863677  2075 layer_factory.hpp:77] Creating layer conv6_2
I0321 00:37:30.863685  2075 net.cpp:100] Creating Layer conv6_2
I0321 00:37:30.863688  2075 net.cpp:434] conv6_2 <- conv6_1
I0321 00:37:30.863693  2075 net.cpp:408] conv6_2 -> conv6_2
I0321 00:37:30.888988  2075 net.cpp:150] Setting up conv6_2
I0321 00:37:30.889016  2075 net.cpp:157] Top shape: 32 512 5 19 (1556480)
I0321 00:37:30.889019  2075 net.cpp:165] Memory required for data: 5030471712
I0321 00:37:30.889026  2075 layer_factory.hpp:77] Creating layer conv6_2_bn
I0321 00:37:30.889047  2075 net.cpp:100] Creating Layer conv6_2_bn
I0321 00:37:30.889053  2075 net.cpp:434] conv6_2_bn <- conv6_2
I0321 00:37:30.889058  2075 net.cpp:395] conv6_2_bn -> conv6_2 (in-place)
I0321 00:37:30.889245  2075 net.cpp:150] Setting up conv6_2_bn
I0321 00:37:30.889251  2075 net.cpp:157] Top shape: 32 512 5 19 (1556480)
I0321 00:37:30.889255  2075 net.cpp:165] Memory required for data: 5036697632
I0321 00:37:30.889261  2075 layer_factory.hpp:77] Creating layer conv6_2_scale
I0321 00:37:30.889267  2075 net.cpp:100] Creating Layer conv6_2_scale
I0321 00:37:30.889271  2075 net.cpp:434] conv6_2_scale <- conv6_2
I0321 00:37:30.889283  2075 net.cpp:395] conv6_2_scale -> conv6_2 (in-place)
I0321 00:37:30.889328  2075 layer_factory.hpp:77] Creating layer conv6_2_scale
I0321 00:37:30.889441  2075 net.cpp:150] Setting up conv6_2_scale
I0321 00:37:30.889447  2075 net.cpp:157] Top shape: 32 512 5 19 (1556480)
I0321 00:37:30.889451  2075 net.cpp:165] Memory required for data: 5042923552
I0321 00:37:30.889454  2075 layer_factory.hpp:77] Creating layer conv6_2_relu
I0321 00:37:30.889461  2075 net.cpp:100] Creating Layer conv6_2_relu
I0321 00:37:30.889463  2075 net.cpp:434] conv6_2_relu <- conv6_2
I0321 00:37:30.889467  2075 net.cpp:395] conv6_2_relu -> conv6_2 (in-place)
I0321 00:37:30.889976  2075 net.cpp:150] Setting up conv6_2_relu
I0321 00:37:30.889991  2075 net.cpp:157] Top shape: 32 512 5 19 (1556480)
I0321 00:37:30.890017  2075 net.cpp:165] Memory required for data: 5049149472
I0321 00:37:30.890019  2075 layer_factory.hpp:77] Creating layer conv6_2_conv6_2_relu_0_split
I0321 00:37:30.890025  2075 net.cpp:100] Creating Layer conv6_2_conv6_2_relu_0_split
I0321 00:37:30.890028  2075 net.cpp:434] conv6_2_conv6_2_relu_0_split <- conv6_2
I0321 00:37:30.890034  2075 net.cpp:408] conv6_2_conv6_2_relu_0_split -> conv6_2_conv6_2_relu_0_split_0
I0321 00:37:30.890040  2075 net.cpp:408] conv6_2_conv6_2_relu_0_split -> conv6_2_conv6_2_relu_0_split_1
I0321 00:37:30.890045  2075 net.cpp:408] conv6_2_conv6_2_relu_0_split -> conv6_2_conv6_2_relu_0_split_2
I0321 00:37:30.890050  2075 net.cpp:408] conv6_2_conv6_2_relu_0_split -> conv6_2_conv6_2_relu_0_split_3
I0321 00:37:30.890130  2075 net.cpp:150] Setting up conv6_2_conv6_2_relu_0_split
I0321 00:37:30.890135  2075 net.cpp:157] Top shape: 32 512 5 19 (1556480)
I0321 00:37:30.890147  2075 net.cpp:157] Top shape: 32 512 5 19 (1556480)
I0321 00:37:30.890149  2075 net.cpp:157] Top shape: 32 512 5 19 (1556480)
I0321 00:37:30.890152  2075 net.cpp:157] Top shape: 32 512 5 19 (1556480)
I0321 00:37:30.890164  2075 net.cpp:165] Memory required for data: 5074053152
I0321 00:37:30.890167  2075 layer_factory.hpp:77] Creating layer conv7_1
I0321 00:37:30.890177  2075 net.cpp:100] Creating Layer conv7_1
I0321 00:37:30.890179  2075 net.cpp:434] conv7_1 <- conv6_2_conv6_2_relu_0_split_0
I0321 00:37:30.890184  2075 net.cpp:408] conv7_1 -> conv7_1
I0321 00:37:30.892714  2075 net.cpp:150] Setting up conv7_1
I0321 00:37:30.892735  2075 net.cpp:157] Top shape: 32 128 5 19 (389120)
I0321 00:37:30.892738  2075 net.cpp:165] Memory required for data: 5075609632
I0321 00:37:30.892742  2075 layer_factory.hpp:77] Creating layer conv7_1_bn
I0321 00:37:30.892748  2075 net.cpp:100] Creating Layer conv7_1_bn
I0321 00:37:30.892761  2075 net.cpp:434] conv7_1_bn <- conv7_1
I0321 00:37:30.892766  2075 net.cpp:395] conv7_1_bn -> conv7_1 (in-place)
I0321 00:37:30.892941  2075 net.cpp:150] Setting up conv7_1_bn
I0321 00:37:30.892947  2075 net.cpp:157] Top shape: 32 128 5 19 (389120)
I0321 00:37:30.892959  2075 net.cpp:165] Memory required for data: 5077166112
I0321 00:37:30.892966  2075 layer_factory.hpp:77] Creating layer conv7_1_scale
I0321 00:37:30.892971  2075 net.cpp:100] Creating Layer conv7_1_scale
I0321 00:37:30.892982  2075 net.cpp:434] conv7_1_scale <- conv7_1
I0321 00:37:30.892987  2075 net.cpp:395] conv7_1_scale -> conv7_1 (in-place)
I0321 00:37:30.893038  2075 layer_factory.hpp:77] Creating layer conv7_1_scale
I0321 00:37:30.893146  2075 net.cpp:150] Setting up conv7_1_scale
I0321 00:37:30.893151  2075 net.cpp:157] Top shape: 32 128 5 19 (389120)
I0321 00:37:30.893163  2075 net.cpp:165] Memory required for data: 5078722592
I0321 00:37:30.893167  2075 layer_factory.hpp:77] Creating layer conv7_1_relu
I0321 00:37:30.893172  2075 net.cpp:100] Creating Layer conv7_1_relu
I0321 00:37:30.893175  2075 net.cpp:434] conv7_1_relu <- conv7_1
I0321 00:37:30.893178  2075 net.cpp:395] conv7_1_relu -> conv7_1 (in-place)
I0321 00:37:30.893316  2075 net.cpp:150] Setting up conv7_1_relu
I0321 00:37:30.893322  2075 net.cpp:157] Top shape: 32 128 5 19 (389120)
I0321 00:37:30.893334  2075 net.cpp:165] Memory required for data: 5080279072
I0321 00:37:30.893337  2075 layer_factory.hpp:77] Creating layer conv7_2
I0321 00:37:30.893344  2075 net.cpp:100] Creating Layer conv7_2
I0321 00:37:30.893347  2075 net.cpp:434] conv7_2 <- conv7_1
I0321 00:37:30.893352  2075 net.cpp:408] conv7_2 -> conv7_2
I0321 00:37:30.900573  2075 net.cpp:150] Setting up conv7_2
I0321 00:37:30.900598  2075 net.cpp:157] Top shape: 32 256 3 10 (245760)
I0321 00:37:30.900600  2075 net.cpp:165] Memory required for data: 5081262112
I0321 00:37:30.900605  2075 layer_factory.hpp:77] Creating layer conv7_2_bn
I0321 00:37:30.900612  2075 net.cpp:100] Creating Layer conv7_2_bn
I0321 00:37:30.900616  2075 net.cpp:434] conv7_2_bn <- conv7_2
I0321 00:37:30.900620  2075 net.cpp:395] conv7_2_bn -> conv7_2 (in-place)
I0321 00:37:30.900789  2075 net.cpp:150] Setting up conv7_2_bn
I0321 00:37:30.900804  2075 net.cpp:157] Top shape: 32 256 3 10 (245760)
I0321 00:37:30.900815  2075 net.cpp:165] Memory required for data: 5082245152
I0321 00:37:30.900821  2075 layer_factory.hpp:77] Creating layer conv7_2_scale
I0321 00:37:30.900827  2075 net.cpp:100] Creating Layer conv7_2_scale
I0321 00:37:30.900833  2075 net.cpp:434] conv7_2_scale <- conv7_2
I0321 00:37:30.900840  2075 net.cpp:395] conv7_2_scale -> conv7_2 (in-place)
I0321 00:37:30.900885  2075 layer_factory.hpp:77] Creating layer conv7_2_scale
I0321 00:37:30.900985  2075 net.cpp:150] Setting up conv7_2_scale
I0321 00:37:30.900991  2075 net.cpp:157] Top shape: 32 256 3 10 (245760)
I0321 00:37:30.900993  2075 net.cpp:165] Memory required for data: 5083228192
I0321 00:37:30.900998  2075 layer_factory.hpp:77] Creating layer conv7_2_relu
I0321 00:37:30.901002  2075 net.cpp:100] Creating Layer conv7_2_relu
I0321 00:37:30.901005  2075 net.cpp:434] conv7_2_relu <- conv7_2
I0321 00:37:30.901010  2075 net.cpp:395] conv7_2_relu -> conv7_2 (in-place)
I0321 00:37:30.901499  2075 net.cpp:150] Setting up conv7_2_relu
I0321 00:37:30.901509  2075 net.cpp:157] Top shape: 32 256 3 10 (245760)
I0321 00:37:30.901521  2075 net.cpp:165] Memory required for data: 5084211232
I0321 00:37:30.901525  2075 layer_factory.hpp:77] Creating layer conv7_2_conv7_2_relu_0_split
I0321 00:37:30.901530  2075 net.cpp:100] Creating Layer conv7_2_conv7_2_relu_0_split
I0321 00:37:30.901533  2075 net.cpp:434] conv7_2_conv7_2_relu_0_split <- conv7_2
I0321 00:37:30.901538  2075 net.cpp:408] conv7_2_conv7_2_relu_0_split -> conv7_2_conv7_2_relu_0_split_0
I0321 00:37:30.901545  2075 net.cpp:408] conv7_2_conv7_2_relu_0_split -> conv7_2_conv7_2_relu_0_split_1
I0321 00:37:30.901548  2075 net.cpp:408] conv7_2_conv7_2_relu_0_split -> conv7_2_conv7_2_relu_0_split_2
I0321 00:37:30.901553  2075 net.cpp:408] conv7_2_conv7_2_relu_0_split -> conv7_2_conv7_2_relu_0_split_3
I0321 00:37:30.901614  2075 net.cpp:150] Setting up conv7_2_conv7_2_relu_0_split
I0321 00:37:30.901620  2075 net.cpp:157] Top shape: 32 256 3 10 (245760)
I0321 00:37:30.901633  2075 net.cpp:157] Top shape: 32 256 3 10 (245760)
I0321 00:37:30.901636  2075 net.cpp:157] Top shape: 32 256 3 10 (245760)
I0321 00:37:30.901638  2075 net.cpp:157] Top shape: 32 256 3 10 (245760)
I0321 00:37:30.901641  2075 net.cpp:165] Memory required for data: 5088143392
I0321 00:37:30.901643  2075 layer_factory.hpp:77] Creating layer conv8_1
I0321 00:37:30.901651  2075 net.cpp:100] Creating Layer conv8_1
I0321 00:37:30.901655  2075 net.cpp:434] conv8_1 <- conv7_2_conv7_2_relu_0_split_0
I0321 00:37:30.901660  2075 net.cpp:408] conv8_1 -> conv8_1
I0321 00:37:30.903532  2075 net.cpp:150] Setting up conv8_1
I0321 00:37:30.903553  2075 net.cpp:157] Top shape: 32 128 3 10 (122880)
I0321 00:37:30.903555  2075 net.cpp:165] Memory required for data: 5088634912
I0321 00:37:30.903560  2075 layer_factory.hpp:77] Creating layer conv8_1_bn
I0321 00:37:30.903566  2075 net.cpp:100] Creating Layer conv8_1_bn
I0321 00:37:30.903569  2075 net.cpp:434] conv8_1_bn <- conv8_1
I0321 00:37:30.903573  2075 net.cpp:395] conv8_1_bn -> conv8_1 (in-place)
I0321 00:37:30.903736  2075 net.cpp:150] Setting up conv8_1_bn
I0321 00:37:30.903743  2075 net.cpp:157] Top shape: 32 128 3 10 (122880)
I0321 00:37:30.903754  2075 net.cpp:165] Memory required for data: 5089126432
I0321 00:37:30.903761  2075 layer_factory.hpp:77] Creating layer conv8_1_scale
I0321 00:37:30.903766  2075 net.cpp:100] Creating Layer conv8_1_scale
I0321 00:37:30.903769  2075 net.cpp:434] conv8_1_scale <- conv8_1
I0321 00:37:30.903774  2075 net.cpp:395] conv8_1_scale -> conv8_1 (in-place)
I0321 00:37:30.903815  2075 layer_factory.hpp:77] Creating layer conv8_1_scale
I0321 00:37:30.903923  2075 net.cpp:150] Setting up conv8_1_scale
I0321 00:37:30.903929  2075 net.cpp:157] Top shape: 32 128 3 10 (122880)
I0321 00:37:30.903941  2075 net.cpp:165] Memory required for data: 5089617952
I0321 00:37:30.903961  2075 layer_factory.hpp:77] Creating layer conv8_1_relu
I0321 00:37:30.903966  2075 net.cpp:100] Creating Layer conv8_1_relu
I0321 00:37:30.903977  2075 net.cpp:434] conv8_1_relu <- conv8_1
I0321 00:37:30.903981  2075 net.cpp:395] conv8_1_relu -> conv8_1 (in-place)
I0321 00:37:30.904464  2075 net.cpp:150] Setting up conv8_1_relu
I0321 00:37:30.904472  2075 net.cpp:157] Top shape: 32 128 3 10 (122880)
I0321 00:37:30.904485  2075 net.cpp:165] Memory required for data: 5090109472
I0321 00:37:30.904489  2075 layer_factory.hpp:77] Creating layer conv8_2
I0321 00:37:30.904496  2075 net.cpp:100] Creating Layer conv8_2
I0321 00:37:30.904500  2075 net.cpp:434] conv8_2 <- conv8_1
I0321 00:37:30.904506  2075 net.cpp:408] conv8_2 -> conv8_2
I0321 00:37:30.911731  2075 net.cpp:150] Setting up conv8_2
I0321 00:37:30.911756  2075 net.cpp:157] Top shape: 32 256 1 8 (65536)
I0321 00:37:30.911759  2075 net.cpp:165] Memory required for data: 5090371616
I0321 00:37:30.911765  2075 layer_factory.hpp:77] Creating layer conv8_2_bn
I0321 00:37:30.911772  2075 net.cpp:100] Creating Layer conv8_2_bn
I0321 00:37:30.911777  2075 net.cpp:434] conv8_2_bn <- conv8_2
I0321 00:37:30.911782  2075 net.cpp:395] conv8_2_bn -> conv8_2 (in-place)
I0321 00:37:30.911953  2075 net.cpp:150] Setting up conv8_2_bn
I0321 00:37:30.911959  2075 net.cpp:157] Top shape: 32 256 1 8 (65536)
I0321 00:37:30.911972  2075 net.cpp:165] Memory required for data: 5090633760
I0321 00:37:30.911978  2075 layer_factory.hpp:77] Creating layer conv8_2_scale
I0321 00:37:30.911984  2075 net.cpp:100] Creating Layer conv8_2_scale
I0321 00:37:30.911988  2075 net.cpp:434] conv8_2_scale <- conv8_2
I0321 00:37:30.911990  2075 net.cpp:395] conv8_2_scale -> conv8_2 (in-place)
I0321 00:37:30.912035  2075 layer_factory.hpp:77] Creating layer conv8_2_scale
I0321 00:37:30.912144  2075 net.cpp:150] Setting up conv8_2_scale
I0321 00:37:30.912149  2075 net.cpp:157] Top shape: 32 256 1 8 (65536)
I0321 00:37:30.912161  2075 net.cpp:165] Memory required for data: 5090895904
I0321 00:37:30.912166  2075 layer_factory.hpp:77] Creating layer conv8_2_relu
I0321 00:37:30.912171  2075 net.cpp:100] Creating Layer conv8_2_relu
I0321 00:37:30.912174  2075 net.cpp:434] conv8_2_relu <- conv8_2
I0321 00:37:30.912178  2075 net.cpp:395] conv8_2_relu -> conv8_2 (in-place)
I0321 00:37:30.912315  2075 net.cpp:150] Setting up conv8_2_relu
I0321 00:37:30.912322  2075 net.cpp:157] Top shape: 32 256 1 8 (65536)
I0321 00:37:30.912334  2075 net.cpp:165] Memory required for data: 5091158048
I0321 00:37:30.912338  2075 layer_factory.hpp:77] Creating layer conv8_2_conv8_2_relu_0_split
I0321 00:37:30.912344  2075 net.cpp:100] Creating Layer conv8_2_conv8_2_relu_0_split
I0321 00:37:30.912348  2075 net.cpp:434] conv8_2_conv8_2_relu_0_split <- conv8_2
I0321 00:37:30.912351  2075 net.cpp:408] conv8_2_conv8_2_relu_0_split -> conv8_2_conv8_2_relu_0_split_0
I0321 00:37:30.912356  2075 net.cpp:408] conv8_2_conv8_2_relu_0_split -> conv8_2_conv8_2_relu_0_split_1
I0321 00:37:30.912360  2075 net.cpp:408] conv8_2_conv8_2_relu_0_split -> conv8_2_conv8_2_relu_0_split_2
I0321 00:37:30.912415  2075 net.cpp:150] Setting up conv8_2_conv8_2_relu_0_split
I0321 00:37:30.912420  2075 net.cpp:157] Top shape: 32 256 1 8 (65536)
I0321 00:37:30.912433  2075 net.cpp:157] Top shape: 32 256 1 8 (65536)
I0321 00:37:30.912436  2075 net.cpp:157] Top shape: 32 256 1 8 (65536)
I0321 00:37:30.912438  2075 net.cpp:165] Memory required for data: 5091944480
I0321 00:37:30.912441  2075 layer_factory.hpp:77] Creating layer bn4a_root_relu_mbox_loc
I0321 00:37:30.912448  2075 net.cpp:100] Creating Layer bn4a_root_relu_mbox_loc
I0321 00:37:30.912452  2075 net.cpp:434] bn4a_root_relu_mbox_loc <- bn4a_root_bn4a_root_relu_0_split_2
I0321 00:37:30.912458  2075 net.cpp:408] bn4a_root_relu_mbox_loc -> bn4a_root_relu_mbox_loc
I0321 00:37:30.915218  2075 net.cpp:150] Setting up bn4a_root_relu_mbox_loc
I0321 00:37:30.915244  2075 net.cpp:157] Top shape: 32 16 19 75 (729600)
I0321 00:37:30.915247  2075 net.cpp:165] Memory required for data: 5094862880
I0321 00:37:30.915254  2075 layer_factory.hpp:77] Creating layer bn4a_root_relu_mbox_loc_bn
I0321 00:37:30.915264  2075 net.cpp:100] Creating Layer bn4a_root_relu_mbox_loc_bn
I0321 00:37:30.915279  2075 net.cpp:434] bn4a_root_relu_mbox_loc_bn <- bn4a_root_relu_mbox_loc
I0321 00:37:30.915284  2075 net.cpp:395] bn4a_root_relu_mbox_loc_bn -> bn4a_root_relu_mbox_loc (in-place)
I0321 00:37:30.915477  2075 net.cpp:150] Setting up bn4a_root_relu_mbox_loc_bn
I0321 00:37:30.915483  2075 net.cpp:157] Top shape: 32 16 19 75 (729600)
I0321 00:37:30.915495  2075 net.cpp:165] Memory required for data: 5097781280
I0321 00:37:30.915501  2075 layer_factory.hpp:77] Creating layer bn4a_root_relu_mbox_loc_scale
I0321 00:37:30.915509  2075 net.cpp:100] Creating Layer bn4a_root_relu_mbox_loc_scale
I0321 00:37:30.915513  2075 net.cpp:434] bn4a_root_relu_mbox_loc_scale <- bn4a_root_relu_mbox_loc
I0321 00:37:30.915516  2075 net.cpp:395] bn4a_root_relu_mbox_loc_scale -> bn4a_root_relu_mbox_loc (in-place)
I0321 00:37:30.915560  2075 layer_factory.hpp:77] Creating layer bn4a_root_relu_mbox_loc_scale
I0321 00:37:30.915683  2075 net.cpp:150] Setting up bn4a_root_relu_mbox_loc_scale
I0321 00:37:30.915689  2075 net.cpp:157] Top shape: 32 16 19 75 (729600)
I0321 00:37:30.915701  2075 net.cpp:165] Memory required for data: 5100699680
I0321 00:37:30.915706  2075 layer_factory.hpp:77] Creating layer bn4a_root_relu_mbox_loc_perm
I0321 00:37:30.915716  2075 net.cpp:100] Creating Layer bn4a_root_relu_mbox_loc_perm
I0321 00:37:30.915720  2075 net.cpp:434] bn4a_root_relu_mbox_loc_perm <- bn4a_root_relu_mbox_loc
I0321 00:37:30.915724  2075 net.cpp:408] bn4a_root_relu_mbox_loc_perm -> bn4a_root_relu_mbox_loc_perm
I0321 00:37:30.915819  2075 net.cpp:150] Setting up bn4a_root_relu_mbox_loc_perm
I0321 00:37:30.915824  2075 net.cpp:157] Top shape: 32 19 75 16 (729600)
I0321 00:37:30.915837  2075 net.cpp:165] Memory required for data: 5103618080
I0321 00:37:30.915839  2075 layer_factory.hpp:77] Creating layer bn4a_root_relu_mbox_loc_flat
I0321 00:37:30.915846  2075 net.cpp:100] Creating Layer bn4a_root_relu_mbox_loc_flat
I0321 00:37:30.915849  2075 net.cpp:434] bn4a_root_relu_mbox_loc_flat <- bn4a_root_relu_mbox_loc_perm
I0321 00:37:30.915853  2075 net.cpp:408] bn4a_root_relu_mbox_loc_flat -> bn4a_root_relu_mbox_loc_flat
I0321 00:37:30.915884  2075 net.cpp:150] Setting up bn4a_root_relu_mbox_loc_flat
I0321 00:37:30.915891  2075 net.cpp:157] Top shape: 32 22800 (729600)
I0321 00:37:30.915904  2075 net.cpp:165] Memory required for data: 5106536480
I0321 00:37:30.915905  2075 layer_factory.hpp:77] Creating layer bn4a_root_relu_mbox_conf
I0321 00:37:30.915913  2075 net.cpp:100] Creating Layer bn4a_root_relu_mbox_conf
I0321 00:37:30.915916  2075 net.cpp:434] bn4a_root_relu_mbox_conf <- bn4a_root_bn4a_root_relu_0_split_3
I0321 00:37:30.915920  2075 net.cpp:408] bn4a_root_relu_mbox_conf -> bn4a_root_relu_mbox_conf
I0321 00:37:30.919580  2075 net.cpp:150] Setting up bn4a_root_relu_mbox_conf
I0321 00:37:30.919607  2075 net.cpp:157] Top shape: 32 40 19 75 (1824000)
I0321 00:37:30.919610  2075 net.cpp:165] Memory required for data: 5113832480
I0321 00:37:30.919616  2075 layer_factory.hpp:77] Creating layer bn4a_root_relu_mbox_conf_bn
I0321 00:37:30.919625  2075 net.cpp:100] Creating Layer bn4a_root_relu_mbox_conf_bn
I0321 00:37:30.919628  2075 net.cpp:434] bn4a_root_relu_mbox_conf_bn <- bn4a_root_relu_mbox_conf
I0321 00:37:30.919634  2075 net.cpp:395] bn4a_root_relu_mbox_conf_bn -> bn4a_root_relu_mbox_conf (in-place)
I0321 00:37:30.919828  2075 net.cpp:150] Setting up bn4a_root_relu_mbox_conf_bn
I0321 00:37:30.919836  2075 net.cpp:157] Top shape: 32 40 19 75 (1824000)
I0321 00:37:30.919847  2075 net.cpp:165] Memory required for data: 5121128480
I0321 00:37:30.919853  2075 layer_factory.hpp:77] Creating layer bn4a_root_relu_mbox_conf_scale
I0321 00:37:30.919859  2075 net.cpp:100] Creating Layer bn4a_root_relu_mbox_conf_scale
I0321 00:37:30.919863  2075 net.cpp:434] bn4a_root_relu_mbox_conf_scale <- bn4a_root_relu_mbox_conf
I0321 00:37:30.919868  2075 net.cpp:395] bn4a_root_relu_mbox_conf_scale -> bn4a_root_relu_mbox_conf (in-place)
I0321 00:37:30.919914  2075 layer_factory.hpp:77] Creating layer bn4a_root_relu_mbox_conf_scale
I0321 00:37:30.920048  2075 net.cpp:150] Setting up bn4a_root_relu_mbox_conf_scale
I0321 00:37:30.920055  2075 net.cpp:157] Top shape: 32 40 19 75 (1824000)
I0321 00:37:30.920066  2075 net.cpp:165] Memory required for data: 5128424480
I0321 00:37:30.920071  2075 layer_factory.hpp:77] Creating layer bn4a_root_relu_mbox_conf_perm
I0321 00:37:30.920078  2075 net.cpp:100] Creating Layer bn4a_root_relu_mbox_conf_perm
I0321 00:37:30.920081  2075 net.cpp:434] bn4a_root_relu_mbox_conf_perm <- bn4a_root_relu_mbox_conf
I0321 00:37:30.920086  2075 net.cpp:408] bn4a_root_relu_mbox_conf_perm -> bn4a_root_relu_mbox_conf_perm
I0321 00:37:30.920168  2075 net.cpp:150] Setting up bn4a_root_relu_mbox_conf_perm
I0321 00:37:30.920173  2075 net.cpp:157] Top shape: 32 19 75 40 (1824000)
I0321 00:37:30.920176  2075 net.cpp:165] Memory required for data: 5135720480
I0321 00:37:30.920178  2075 layer_factory.hpp:77] Creating layer bn4a_root_relu_mbox_conf_flat
I0321 00:37:30.920183  2075 net.cpp:100] Creating Layer bn4a_root_relu_mbox_conf_flat
I0321 00:37:30.920186  2075 net.cpp:434] bn4a_root_relu_mbox_conf_flat <- bn4a_root_relu_mbox_conf_perm
I0321 00:37:30.920191  2075 net.cpp:408] bn4a_root_relu_mbox_conf_flat -> bn4a_root_relu_mbox_conf_flat
I0321 00:37:30.920212  2075 net.cpp:150] Setting up bn4a_root_relu_mbox_conf_flat
I0321 00:37:30.920217  2075 net.cpp:157] Top shape: 32 57000 (1824000)
I0321 00:37:30.920219  2075 net.cpp:165] Memory required for data: 5143016480
I0321 00:37:30.920222  2075 layer_factory.hpp:77] Creating layer bn4a_root_relu_mbox_priorbox
I0321 00:37:30.920231  2075 net.cpp:100] Creating Layer bn4a_root_relu_mbox_priorbox
I0321 00:37:30.920235  2075 net.cpp:434] bn4a_root_relu_mbox_priorbox <- bn4a_root_bn4a_root_relu_0_split_4
I0321 00:37:30.920240  2075 net.cpp:434] bn4a_root_relu_mbox_priorbox <- data_data_0_split_1
I0321 00:37:30.920244  2075 net.cpp:408] bn4a_root_relu_mbox_priorbox -> bn4a_root_relu_mbox_priorbox
I0321 00:37:30.920275  2075 net.cpp:150] Setting up bn4a_root_relu_mbox_priorbox
I0321 00:37:30.920281  2075 net.cpp:157] Top shape: 1 2 22800 (45600)
I0321 00:37:30.920284  2075 net.cpp:165] Memory required for data: 5143198880
I0321 00:37:30.920285  2075 layer_factory.hpp:77] Creating layer bn_res4b_relu_mbox_loc
I0321 00:37:30.920294  2075 net.cpp:100] Creating Layer bn_res4b_relu_mbox_loc
I0321 00:37:30.920297  2075 net.cpp:434] bn_res4b_relu_mbox_loc <- bn_res4b_bn_res4b_relu_0_split_1
I0321 00:37:30.920301  2075 net.cpp:408] bn_res4b_relu_mbox_loc -> bn_res4b_relu_mbox_loc
I0321 00:37:30.923034  2075 net.cpp:150] Setting up bn_res4b_relu_mbox_loc
I0321 00:37:30.923053  2075 net.cpp:157] Top shape: 32 24 10 38 (291840)
I0321 00:37:30.923056  2075 net.cpp:165] Memory required for data: 5144366240
I0321 00:37:30.923063  2075 layer_factory.hpp:77] Creating layer bn_res4b_relu_mbox_loc_bn
I0321 00:37:30.923070  2075 net.cpp:100] Creating Layer bn_res4b_relu_mbox_loc_bn
I0321 00:37:30.923074  2075 net.cpp:434] bn_res4b_relu_mbox_loc_bn <- bn_res4b_relu_mbox_loc
I0321 00:37:30.923080  2075 net.cpp:395] bn_res4b_relu_mbox_loc_bn -> bn_res4b_relu_mbox_loc (in-place)
I0321 00:37:30.923260  2075 net.cpp:150] Setting up bn_res4b_relu_mbox_loc_bn
I0321 00:37:30.923266  2075 net.cpp:157] Top shape: 32 24 10 38 (291840)
I0321 00:37:30.923269  2075 net.cpp:165] Memory required for data: 5145533600
I0321 00:37:30.923275  2075 layer_factory.hpp:77] Creating layer bn_res4b_relu_mbox_loc_scale
I0321 00:37:30.923285  2075 net.cpp:100] Creating Layer bn_res4b_relu_mbox_loc_scale
I0321 00:37:30.923287  2075 net.cpp:434] bn_res4b_relu_mbox_loc_scale <- bn_res4b_relu_mbox_loc
I0321 00:37:30.923291  2075 net.cpp:395] bn_res4b_relu_mbox_loc_scale -> bn_res4b_relu_mbox_loc (in-place)
I0321 00:37:30.923339  2075 layer_factory.hpp:77] Creating layer bn_res4b_relu_mbox_loc_scale
I0321 00:37:30.923460  2075 net.cpp:150] Setting up bn_res4b_relu_mbox_loc_scale
I0321 00:37:30.923466  2075 net.cpp:157] Top shape: 32 24 10 38 (291840)
I0321 00:37:30.923478  2075 net.cpp:165] Memory required for data: 5146700960
I0321 00:37:30.923483  2075 layer_factory.hpp:77] Creating layer bn_res4b_relu_mbox_loc_perm
I0321 00:37:30.923501  2075 net.cpp:100] Creating Layer bn_res4b_relu_mbox_loc_perm
I0321 00:37:30.923506  2075 net.cpp:434] bn_res4b_relu_mbox_loc_perm <- bn_res4b_relu_mbox_loc
I0321 00:37:30.923509  2075 net.cpp:408] bn_res4b_relu_mbox_loc_perm -> bn_res4b_relu_mbox_loc_perm
I0321 00:37:30.923593  2075 net.cpp:150] Setting up bn_res4b_relu_mbox_loc_perm
I0321 00:37:30.923599  2075 net.cpp:157] Top shape: 32 10 38 24 (291840)
I0321 00:37:30.923600  2075 net.cpp:165] Memory required for data: 5147868320
I0321 00:37:30.923604  2075 layer_factory.hpp:77] Creating layer bn_res4b_relu_mbox_loc_flat
I0321 00:37:30.923609  2075 net.cpp:100] Creating Layer bn_res4b_relu_mbox_loc_flat
I0321 00:37:30.923611  2075 net.cpp:434] bn_res4b_relu_mbox_loc_flat <- bn_res4b_relu_mbox_loc_perm
I0321 00:37:30.923616  2075 net.cpp:408] bn_res4b_relu_mbox_loc_flat -> bn_res4b_relu_mbox_loc_flat
I0321 00:37:30.923638  2075 net.cpp:150] Setting up bn_res4b_relu_mbox_loc_flat
I0321 00:37:30.923643  2075 net.cpp:157] Top shape: 32 9120 (291840)
I0321 00:37:30.923646  2075 net.cpp:165] Memory required for data: 5149035680
I0321 00:37:30.923648  2075 layer_factory.hpp:77] Creating layer bn_res4b_relu_mbox_conf
I0321 00:37:30.923656  2075 net.cpp:100] Creating Layer bn_res4b_relu_mbox_conf
I0321 00:37:30.923660  2075 net.cpp:434] bn_res4b_relu_mbox_conf <- bn_res4b_bn_res4b_relu_0_split_2
I0321 00:37:30.923665  2075 net.cpp:408] bn_res4b_relu_mbox_conf -> bn_res4b_relu_mbox_conf
I0321 00:37:30.927948  2075 net.cpp:150] Setting up bn_res4b_relu_mbox_conf
I0321 00:37:30.927971  2075 net.cpp:157] Top shape: 32 60 10 38 (729600)
I0321 00:37:30.927974  2075 net.cpp:165] Memory required for data: 5151954080
I0321 00:37:30.927979  2075 layer_factory.hpp:77] Creating layer bn_res4b_relu_mbox_conf_bn
I0321 00:37:30.927999  2075 net.cpp:100] Creating Layer bn_res4b_relu_mbox_conf_bn
I0321 00:37:30.928004  2075 net.cpp:434] bn_res4b_relu_mbox_conf_bn <- bn_res4b_relu_mbox_conf
I0321 00:37:30.928009  2075 net.cpp:395] bn_res4b_relu_mbox_conf_bn -> bn_res4b_relu_mbox_conf (in-place)
I0321 00:37:30.928200  2075 net.cpp:150] Setting up bn_res4b_relu_mbox_conf_bn
I0321 00:37:30.928206  2075 net.cpp:157] Top shape: 32 60 10 38 (729600)
I0321 00:37:30.928220  2075 net.cpp:165] Memory required for data: 5154872480
I0321 00:37:30.928225  2075 layer_factory.hpp:77] Creating layer bn_res4b_relu_mbox_conf_scale
I0321 00:37:30.928231  2075 net.cpp:100] Creating Layer bn_res4b_relu_mbox_conf_scale
I0321 00:37:30.928234  2075 net.cpp:434] bn_res4b_relu_mbox_conf_scale <- bn_res4b_relu_mbox_conf
I0321 00:37:30.928239  2075 net.cpp:395] bn_res4b_relu_mbox_conf_scale -> bn_res4b_relu_mbox_conf (in-place)
I0321 00:37:30.928284  2075 layer_factory.hpp:77] Creating layer bn_res4b_relu_mbox_conf_scale
I0321 00:37:30.928402  2075 net.cpp:150] Setting up bn_res4b_relu_mbox_conf_scale
I0321 00:37:30.928408  2075 net.cpp:157] Top shape: 32 60 10 38 (729600)
I0321 00:37:30.928419  2075 net.cpp:165] Memory required for data: 5157790880
I0321 00:37:30.928424  2075 layer_factory.hpp:77] Creating layer bn_res4b_relu_mbox_conf_perm
I0321 00:37:30.928431  2075 net.cpp:100] Creating Layer bn_res4b_relu_mbox_conf_perm
I0321 00:37:30.928434  2075 net.cpp:434] bn_res4b_relu_mbox_conf_perm <- bn_res4b_relu_mbox_conf
I0321 00:37:30.928439  2075 net.cpp:408] bn_res4b_relu_mbox_conf_perm -> bn_res4b_relu_mbox_conf_perm
I0321 00:37:30.928527  2075 net.cpp:150] Setting up bn_res4b_relu_mbox_conf_perm
I0321 00:37:30.928532  2075 net.cpp:157] Top shape: 32 10 38 60 (729600)
I0321 00:37:30.928544  2075 net.cpp:165] Memory required for data: 5160709280
I0321 00:37:30.928547  2075 layer_factory.hpp:77] Creating layer bn_res4b_relu_mbox_conf_flat
I0321 00:37:30.928551  2075 net.cpp:100] Creating Layer bn_res4b_relu_mbox_conf_flat
I0321 00:37:30.928555  2075 net.cpp:434] bn_res4b_relu_mbox_conf_flat <- bn_res4b_relu_mbox_conf_perm
I0321 00:37:30.928558  2075 net.cpp:408] bn_res4b_relu_mbox_conf_flat -> bn_res4b_relu_mbox_conf_flat
I0321 00:37:30.928591  2075 net.cpp:150] Setting up bn_res4b_relu_mbox_conf_flat
I0321 00:37:30.928606  2075 net.cpp:157] Top shape: 32 22800 (729600)
I0321 00:37:30.928608  2075 net.cpp:165] Memory required for data: 5163627680
I0321 00:37:30.928611  2075 layer_factory.hpp:77] Creating layer bn_res4b_relu_mbox_priorbox
I0321 00:37:30.928627  2075 net.cpp:100] Creating Layer bn_res4b_relu_mbox_priorbox
I0321 00:37:30.928630  2075 net.cpp:434] bn_res4b_relu_mbox_priorbox <- bn_res4b_bn_res4b_relu_0_split_3
I0321 00:37:30.928634  2075 net.cpp:434] bn_res4b_relu_mbox_priorbox <- data_data_0_split_2
I0321 00:37:30.928638  2075 net.cpp:408] bn_res4b_relu_mbox_priorbox -> bn_res4b_relu_mbox_priorbox
I0321 00:37:30.928673  2075 net.cpp:150] Setting up bn_res4b_relu_mbox_priorbox
I0321 00:37:30.928678  2075 net.cpp:157] Top shape: 1 2 9120 (18240)
I0321 00:37:30.928690  2075 net.cpp:165] Memory required for data: 5163700640
I0321 00:37:30.928692  2075 layer_factory.hpp:77] Creating layer conv6_2_mbox_loc
I0321 00:37:30.928701  2075 net.cpp:100] Creating Layer conv6_2_mbox_loc
I0321 00:37:30.928705  2075 net.cpp:434] conv6_2_mbox_loc <- conv6_2_conv6_2_relu_0_split_1
I0321 00:37:30.928709  2075 net.cpp:408] conv6_2_mbox_loc -> conv6_2_mbox_loc
I0321 00:37:30.932422  2075 net.cpp:150] Setting up conv6_2_mbox_loc
I0321 00:37:30.932445  2075 net.cpp:157] Top shape: 32 24 5 19 (72960)
I0321 00:37:30.932447  2075 net.cpp:165] Memory required for data: 5163992480
I0321 00:37:30.932452  2075 layer_factory.hpp:77] Creating layer conv6_2_mbox_loc_bn
I0321 00:37:30.932459  2075 net.cpp:100] Creating Layer conv6_2_mbox_loc_bn
I0321 00:37:30.932463  2075 net.cpp:434] conv6_2_mbox_loc_bn <- conv6_2_mbox_loc
I0321 00:37:30.932468  2075 net.cpp:395] conv6_2_mbox_loc_bn -> conv6_2_mbox_loc (in-place)
I0321 00:37:30.932657  2075 net.cpp:150] Setting up conv6_2_mbox_loc_bn
I0321 00:37:30.932663  2075 net.cpp:157] Top shape: 32 24 5 19 (72960)
I0321 00:37:30.932675  2075 net.cpp:165] Memory required for data: 5164284320
I0321 00:37:30.932683  2075 layer_factory.hpp:77] Creating layer conv6_2_mbox_loc_scale
I0321 00:37:30.932689  2075 net.cpp:100] Creating Layer conv6_2_mbox_loc_scale
I0321 00:37:30.932692  2075 net.cpp:434] conv6_2_mbox_loc_scale <- conv6_2_mbox_loc
I0321 00:37:30.932695  2075 net.cpp:395] conv6_2_mbox_loc_scale -> conv6_2_mbox_loc (in-place)
I0321 00:37:30.932741  2075 layer_factory.hpp:77] Creating layer conv6_2_mbox_loc_scale
I0321 00:37:30.932860  2075 net.cpp:150] Setting up conv6_2_mbox_loc_scale
I0321 00:37:30.932867  2075 net.cpp:157] Top shape: 32 24 5 19 (72960)
I0321 00:37:30.932878  2075 net.cpp:165] Memory required for data: 5164576160
I0321 00:37:30.932883  2075 layer_factory.hpp:77] Creating layer conv6_2_mbox_loc_perm
I0321 00:37:30.932888  2075 net.cpp:100] Creating Layer conv6_2_mbox_loc_perm
I0321 00:37:30.932890  2075 net.cpp:434] conv6_2_mbox_loc_perm <- conv6_2_mbox_loc
I0321 00:37:30.932895  2075 net.cpp:408] conv6_2_mbox_loc_perm -> conv6_2_mbox_loc_perm
I0321 00:37:30.932983  2075 net.cpp:150] Setting up conv6_2_mbox_loc_perm
I0321 00:37:30.932989  2075 net.cpp:157] Top shape: 32 5 19 24 (72960)
I0321 00:37:30.933001  2075 net.cpp:165] Memory required for data: 5164868000
I0321 00:37:30.933003  2075 layer_factory.hpp:77] Creating layer conv6_2_mbox_loc_flat
I0321 00:37:30.933009  2075 net.cpp:100] Creating Layer conv6_2_mbox_loc_flat
I0321 00:37:30.933012  2075 net.cpp:434] conv6_2_mbox_loc_flat <- conv6_2_mbox_loc_perm
I0321 00:37:30.933015  2075 net.cpp:408] conv6_2_mbox_loc_flat -> conv6_2_mbox_loc_flat
I0321 00:37:30.933037  2075 net.cpp:150] Setting up conv6_2_mbox_loc_flat
I0321 00:37:30.933050  2075 net.cpp:157] Top shape: 32 2280 (72960)
I0321 00:37:30.933053  2075 net.cpp:165] Memory required for data: 5165159840
I0321 00:37:30.933055  2075 layer_factory.hpp:77] Creating layer conv6_2_mbox_conf
I0321 00:37:30.933071  2075 net.cpp:100] Creating Layer conv6_2_mbox_conf
I0321 00:37:30.933074  2075 net.cpp:434] conv6_2_mbox_conf <- conv6_2_conv6_2_relu_0_split_2
I0321 00:37:30.933080  2075 net.cpp:408] conv6_2_mbox_conf -> conv6_2_mbox_conf
I0321 00:37:30.940374  2075 net.cpp:150] Setting up conv6_2_mbox_conf
I0321 00:37:30.940407  2075 net.cpp:157] Top shape: 32 60 5 19 (182400)
I0321 00:37:30.940410  2075 net.cpp:165] Memory required for data: 5165889440
I0321 00:37:30.940418  2075 layer_factory.hpp:77] Creating layer conv6_2_mbox_conf_bn
I0321 00:37:30.940428  2075 net.cpp:100] Creating Layer conv6_2_mbox_conf_bn
I0321 00:37:30.940433  2075 net.cpp:434] conv6_2_mbox_conf_bn <- conv6_2_mbox_conf
I0321 00:37:30.940438  2075 net.cpp:395] conv6_2_mbox_conf_bn -> conv6_2_mbox_conf (in-place)
I0321 00:37:30.940635  2075 net.cpp:150] Setting up conv6_2_mbox_conf_bn
I0321 00:37:30.940642  2075 net.cpp:157] Top shape: 32 60 5 19 (182400)
I0321 00:37:30.940654  2075 net.cpp:165] Memory required for data: 5166619040
I0321 00:37:30.940659  2075 layer_factory.hpp:77] Creating layer conv6_2_mbox_conf_scale
I0321 00:37:30.940667  2075 net.cpp:100] Creating Layer conv6_2_mbox_conf_scale
I0321 00:37:30.940671  2075 net.cpp:434] conv6_2_mbox_conf_scale <- conv6_2_mbox_conf
I0321 00:37:30.940677  2075 net.cpp:395] conv6_2_mbox_conf_scale -> conv6_2_mbox_conf (in-place)
I0321 00:37:30.940727  2075 layer_factory.hpp:77] Creating layer conv6_2_mbox_conf_scale
I0321 00:37:30.940848  2075 net.cpp:150] Setting up conv6_2_mbox_conf_scale
I0321 00:37:30.940855  2075 net.cpp:157] Top shape: 32 60 5 19 (182400)
I0321 00:37:30.940865  2075 net.cpp:165] Memory required for data: 5167348640
I0321 00:37:30.940871  2075 layer_factory.hpp:77] Creating layer conv6_2_mbox_conf_perm
I0321 00:37:30.940876  2075 net.cpp:100] Creating Layer conv6_2_mbox_conf_perm
I0321 00:37:30.940878  2075 net.cpp:434] conv6_2_mbox_conf_perm <- conv6_2_mbox_conf
I0321 00:37:30.940886  2075 net.cpp:408] conv6_2_mbox_conf_perm -> conv6_2_mbox_conf_perm
I0321 00:37:30.940979  2075 net.cpp:150] Setting up conv6_2_mbox_conf_perm
I0321 00:37:30.940984  2075 net.cpp:157] Top shape: 32 5 19 60 (182400)
I0321 00:37:30.940996  2075 net.cpp:165] Memory required for data: 5168078240
I0321 00:37:30.940999  2075 layer_factory.hpp:77] Creating layer conv6_2_mbox_conf_flat
I0321 00:37:30.941004  2075 net.cpp:100] Creating Layer conv6_2_mbox_conf_flat
I0321 00:37:30.941006  2075 net.cpp:434] conv6_2_mbox_conf_flat <- conv6_2_mbox_conf_perm
I0321 00:37:30.941011  2075 net.cpp:408] conv6_2_mbox_conf_flat -> conv6_2_mbox_conf_flat
I0321 00:37:30.941031  2075 net.cpp:150] Setting up conv6_2_mbox_conf_flat
I0321 00:37:30.941037  2075 net.cpp:157] Top shape: 32 5700 (182400)
I0321 00:37:30.941040  2075 net.cpp:165] Memory required for data: 5168807840
I0321 00:37:30.941042  2075 layer_factory.hpp:77] Creating layer conv6_2_mbox_priorbox
I0321 00:37:30.941049  2075 net.cpp:100] Creating Layer conv6_2_mbox_priorbox
I0321 00:37:30.941053  2075 net.cpp:434] conv6_2_mbox_priorbox <- conv6_2_conv6_2_relu_0_split_3
I0321 00:37:30.941057  2075 net.cpp:434] conv6_2_mbox_priorbox <- data_data_0_split_3
I0321 00:37:30.941063  2075 net.cpp:408] conv6_2_mbox_priorbox -> conv6_2_mbox_priorbox
I0321 00:37:30.941089  2075 net.cpp:150] Setting up conv6_2_mbox_priorbox
I0321 00:37:30.941094  2075 net.cpp:157] Top shape: 1 2 2280 (4560)
I0321 00:37:30.941097  2075 net.cpp:165] Memory required for data: 5168826080
I0321 00:37:30.941099  2075 layer_factory.hpp:77] Creating layer conv7_2_mbox_loc
I0321 00:37:30.941108  2075 net.cpp:100] Creating Layer conv7_2_mbox_loc
I0321 00:37:30.941112  2075 net.cpp:434] conv7_2_mbox_loc <- conv7_2_conv7_2_relu_0_split_1
I0321 00:37:30.941118  2075 net.cpp:408] conv7_2_mbox_loc -> conv7_2_mbox_loc
I0321 00:37:30.944038  2075 net.cpp:150] Setting up conv7_2_mbox_loc
I0321 00:37:30.944066  2075 net.cpp:157] Top shape: 32 24 3 10 (23040)
I0321 00:37:30.944069  2075 net.cpp:165] Memory required for data: 5168918240
I0321 00:37:30.944084  2075 layer_factory.hpp:77] Creating layer conv7_2_mbox_loc_bn
I0321 00:37:30.944093  2075 net.cpp:100] Creating Layer conv7_2_mbox_loc_bn
I0321 00:37:30.944097  2075 net.cpp:434] conv7_2_mbox_loc_bn <- conv7_2_mbox_loc
I0321 00:37:30.944104  2075 net.cpp:395] conv7_2_mbox_loc_bn -> conv7_2_mbox_loc (in-place)
I0321 00:37:30.944357  2075 net.cpp:150] Setting up conv7_2_mbox_loc_bn
I0321 00:37:30.944365  2075 net.cpp:157] Top shape: 32 24 3 10 (23040)
I0321 00:37:30.944377  2075 net.cpp:165] Memory required for data: 5169010400
I0321 00:37:30.944383  2075 layer_factory.hpp:77] Creating layer conv7_2_mbox_loc_scale
I0321 00:37:30.944393  2075 net.cpp:100] Creating Layer conv7_2_mbox_loc_scale
I0321 00:37:30.944396  2075 net.cpp:434] conv7_2_mbox_loc_scale <- conv7_2_mbox_loc
I0321 00:37:30.944401  2075 net.cpp:395] conv7_2_mbox_loc_scale -> conv7_2_mbox_loc (in-place)
I0321 00:37:30.944440  2075 layer_factory.hpp:77] Creating layer conv7_2_mbox_loc_scale
I0321 00:37:30.944571  2075 net.cpp:150] Setting up conv7_2_mbox_loc_scale
I0321 00:37:30.944591  2075 net.cpp:157] Top shape: 32 24 3 10 (23040)
I0321 00:37:30.944600  2075 net.cpp:165] Memory required for data: 5169102560
I0321 00:37:30.944612  2075 layer_factory.hpp:77] Creating layer conv7_2_mbox_loc_perm
I0321 00:37:30.944625  2075 net.cpp:100] Creating Layer conv7_2_mbox_loc_perm
I0321 00:37:30.944635  2075 net.cpp:434] conv7_2_mbox_loc_perm <- conv7_2_mbox_loc
I0321 00:37:30.944648  2075 net.cpp:408] conv7_2_mbox_loc_perm -> conv7_2_mbox_loc_perm
I0321 00:37:30.944747  2075 net.cpp:150] Setting up conv7_2_mbox_loc_perm
I0321 00:37:30.944762  2075 net.cpp:157] Top shape: 32 3 10 24 (23040)
I0321 00:37:30.944772  2075 net.cpp:165] Memory required for data: 5169194720
I0321 00:37:30.944782  2075 layer_factory.hpp:77] Creating layer conv7_2_mbox_loc_flat
I0321 00:37:30.944793  2075 net.cpp:100] Creating Layer conv7_2_mbox_loc_flat
I0321 00:37:30.944803  2075 net.cpp:434] conv7_2_mbox_loc_flat <- conv7_2_mbox_loc_perm
I0321 00:37:30.944816  2075 net.cpp:408] conv7_2_mbox_loc_flat -> conv7_2_mbox_loc_flat
I0321 00:37:30.944851  2075 net.cpp:150] Setting up conv7_2_mbox_loc_flat
I0321 00:37:30.944865  2075 net.cpp:157] Top shape: 32 720 (23040)
I0321 00:37:30.944875  2075 net.cpp:165] Memory required for data: 5169286880
I0321 00:37:30.944885  2075 layer_factory.hpp:77] Creating layer conv7_2_mbox_conf
I0321 00:37:30.944900  2075 net.cpp:100] Creating Layer conv7_2_mbox_conf
I0321 00:37:30.944911  2075 net.cpp:434] conv7_2_mbox_conf <- conv7_2_conv7_2_relu_0_split_2
I0321 00:37:30.944923  2075 net.cpp:408] conv7_2_mbox_conf -> conv7_2_mbox_conf
I0321 00:37:30.949916  2075 net.cpp:150] Setting up conv7_2_mbox_conf
I0321 00:37:30.949949  2075 net.cpp:157] Top shape: 32 60 3 10 (57600)
I0321 00:37:30.949952  2075 net.cpp:165] Memory required for data: 5169517280
I0321 00:37:30.949960  2075 layer_factory.hpp:77] Creating layer conv7_2_mbox_conf_bn
I0321 00:37:30.949970  2075 net.cpp:100] Creating Layer conv7_2_mbox_conf_bn
I0321 00:37:30.949976  2075 net.cpp:434] conv7_2_mbox_conf_bn <- conv7_2_mbox_conf
I0321 00:37:30.949982  2075 net.cpp:395] conv7_2_mbox_conf_bn -> conv7_2_mbox_conf (in-place)
I0321 00:37:30.950238  2075 net.cpp:150] Setting up conv7_2_mbox_conf_bn
I0321 00:37:30.950247  2075 net.cpp:157] Top shape: 32 60 3 10 (57600)
I0321 00:37:30.950258  2075 net.cpp:165] Memory required for data: 5169747680
I0321 00:37:30.950264  2075 layer_factory.hpp:77] Creating layer conv7_2_mbox_conf_scale
I0321 00:37:30.950274  2075 net.cpp:100] Creating Layer conv7_2_mbox_conf_scale
I0321 00:37:30.950278  2075 net.cpp:434] conv7_2_mbox_conf_scale <- conv7_2_mbox_conf
I0321 00:37:30.950283  2075 net.cpp:395] conv7_2_mbox_conf_scale -> conv7_2_mbox_conf (in-place)
I0321 00:37:30.950331  2075 layer_factory.hpp:77] Creating layer conv7_2_mbox_conf_scale
I0321 00:37:30.950453  2075 net.cpp:150] Setting up conv7_2_mbox_conf_scale
I0321 00:37:30.950459  2075 net.cpp:157] Top shape: 32 60 3 10 (57600)
I0321 00:37:30.950471  2075 net.cpp:165] Memory required for data: 5169978080
I0321 00:37:30.950475  2075 layer_factory.hpp:77] Creating layer conv7_2_mbox_conf_perm
I0321 00:37:30.950481  2075 net.cpp:100] Creating Layer conv7_2_mbox_conf_perm
I0321 00:37:30.950484  2075 net.cpp:434] conv7_2_mbox_conf_perm <- conv7_2_mbox_conf
I0321 00:37:30.950510  2075 net.cpp:408] conv7_2_mbox_conf_perm -> conv7_2_mbox_conf_perm
I0321 00:37:30.950613  2075 net.cpp:150] Setting up conv7_2_mbox_conf_perm
I0321 00:37:30.950618  2075 net.cpp:157] Top shape: 32 3 10 60 (57600)
I0321 00:37:30.950630  2075 net.cpp:165] Memory required for data: 5170208480
I0321 00:37:30.950634  2075 layer_factory.hpp:77] Creating layer conv7_2_mbox_conf_flat
I0321 00:37:30.950639  2075 net.cpp:100] Creating Layer conv7_2_mbox_conf_flat
I0321 00:37:30.950641  2075 net.cpp:434] conv7_2_mbox_conf_flat <- conv7_2_mbox_conf_perm
I0321 00:37:30.950646  2075 net.cpp:408] conv7_2_mbox_conf_flat -> conv7_2_mbox_conf_flat
I0321 00:37:30.950677  2075 net.cpp:150] Setting up conv7_2_mbox_conf_flat
I0321 00:37:30.950682  2075 net.cpp:157] Top shape: 32 1800 (57600)
I0321 00:37:30.950693  2075 net.cpp:165] Memory required for data: 5170438880
I0321 00:37:30.950696  2075 layer_factory.hpp:77] Creating layer conv7_2_mbox_priorbox
I0321 00:37:30.950702  2075 net.cpp:100] Creating Layer conv7_2_mbox_priorbox
I0321 00:37:30.950706  2075 net.cpp:434] conv7_2_mbox_priorbox <- conv7_2_conv7_2_relu_0_split_3
I0321 00:37:30.950709  2075 net.cpp:434] conv7_2_mbox_priorbox <- data_data_0_split_4
I0321 00:37:30.950714  2075 net.cpp:408] conv7_2_mbox_priorbox -> conv7_2_mbox_priorbox
I0321 00:37:30.950750  2075 net.cpp:150] Setting up conv7_2_mbox_priorbox
I0321 00:37:30.950757  2075 net.cpp:157] Top shape: 1 2 720 (1440)
I0321 00:37:30.950767  2075 net.cpp:165] Memory required for data: 5170444640
I0321 00:37:30.950770  2075 layer_factory.hpp:77] Creating layer conv8_2_mbox_loc
I0321 00:37:30.950778  2075 net.cpp:100] Creating Layer conv8_2_mbox_loc
I0321 00:37:30.950781  2075 net.cpp:434] conv8_2_mbox_loc <- conv8_2_conv8_2_relu_0_split_0
I0321 00:37:30.950785  2075 net.cpp:408] conv8_2_mbox_loc -> conv8_2_mbox_loc
I0321 00:37:30.953095  2075 net.cpp:150] Setting up conv8_2_mbox_loc
I0321 00:37:30.953115  2075 net.cpp:157] Top shape: 32 16 1 8 (4096)
I0321 00:37:30.953119  2075 net.cpp:165] Memory required for data: 5170461024
I0321 00:37:30.953124  2075 layer_factory.hpp:77] Creating layer conv8_2_mbox_loc_bn
I0321 00:37:30.953130  2075 net.cpp:100] Creating Layer conv8_2_mbox_loc_bn
I0321 00:37:30.953133  2075 net.cpp:434] conv8_2_mbox_loc_bn <- conv8_2_mbox_loc
I0321 00:37:30.953137  2075 net.cpp:395] conv8_2_mbox_loc_bn -> conv8_2_mbox_loc (in-place)
I0321 00:37:30.953327  2075 net.cpp:150] Setting up conv8_2_mbox_loc_bn
I0321 00:37:30.953335  2075 net.cpp:157] Top shape: 32 16 1 8 (4096)
I0321 00:37:30.953346  2075 net.cpp:165] Memory required for data: 5170477408
I0321 00:37:30.953352  2075 layer_factory.hpp:77] Creating layer conv8_2_mbox_loc_scale
I0321 00:37:30.953359  2075 net.cpp:100] Creating Layer conv8_2_mbox_loc_scale
I0321 00:37:30.953362  2075 net.cpp:434] conv8_2_mbox_loc_scale <- conv8_2_mbox_loc
I0321 00:37:30.953366  2075 net.cpp:395] conv8_2_mbox_loc_scale -> conv8_2_mbox_loc (in-place)
I0321 00:37:30.953410  2075 layer_factory.hpp:77] Creating layer conv8_2_mbox_loc_scale
I0321 00:37:30.953529  2075 net.cpp:150] Setting up conv8_2_mbox_loc_scale
I0321 00:37:30.953536  2075 net.cpp:157] Top shape: 32 16 1 8 (4096)
I0321 00:37:30.953547  2075 net.cpp:165] Memory required for data: 5170493792
I0321 00:37:30.953552  2075 layer_factory.hpp:77] Creating layer conv8_2_mbox_loc_perm
I0321 00:37:30.953557  2075 net.cpp:100] Creating Layer conv8_2_mbox_loc_perm
I0321 00:37:30.953559  2075 net.cpp:434] conv8_2_mbox_loc_perm <- conv8_2_mbox_loc
I0321 00:37:30.953567  2075 net.cpp:408] conv8_2_mbox_loc_perm -> conv8_2_mbox_loc_perm
I0321 00:37:30.953656  2075 net.cpp:150] Setting up conv8_2_mbox_loc_perm
I0321 00:37:30.953661  2075 net.cpp:157] Top shape: 32 1 8 16 (4096)
I0321 00:37:30.953673  2075 net.cpp:165] Memory required for data: 5170510176
I0321 00:37:30.953676  2075 layer_factory.hpp:77] Creating layer conv8_2_mbox_loc_flat
I0321 00:37:30.953680  2075 net.cpp:100] Creating Layer conv8_2_mbox_loc_flat
I0321 00:37:30.953682  2075 net.cpp:434] conv8_2_mbox_loc_flat <- conv8_2_mbox_loc_perm
I0321 00:37:30.953696  2075 net.cpp:408] conv8_2_mbox_loc_flat -> conv8_2_mbox_loc_flat
I0321 00:37:30.953719  2075 net.cpp:150] Setting up conv8_2_mbox_loc_flat
I0321 00:37:30.953734  2075 net.cpp:157] Top shape: 32 128 (4096)
I0321 00:37:30.953737  2075 net.cpp:165] Memory required for data: 5170526560
I0321 00:37:30.953739  2075 layer_factory.hpp:77] Creating layer conv8_2_mbox_conf
I0321 00:37:30.953755  2075 net.cpp:100] Creating Layer conv8_2_mbox_conf
I0321 00:37:30.953758  2075 net.cpp:434] conv8_2_mbox_conf <- conv8_2_conv8_2_relu_0_split_1
I0321 00:37:30.953763  2075 net.cpp:408] conv8_2_mbox_conf -> conv8_2_mbox_conf
I0321 00:37:30.957190  2075 net.cpp:150] Setting up conv8_2_mbox_conf
I0321 00:37:30.957212  2075 net.cpp:157] Top shape: 32 40 1 8 (10240)
I0321 00:37:30.957216  2075 net.cpp:165] Memory required for data: 5170567520
I0321 00:37:30.957221  2075 layer_factory.hpp:77] Creating layer conv8_2_mbox_conf_bn
I0321 00:37:30.957227  2075 net.cpp:100] Creating Layer conv8_2_mbox_conf_bn
I0321 00:37:30.957231  2075 net.cpp:434] conv8_2_mbox_conf_bn <- conv8_2_mbox_conf
I0321 00:37:30.957236  2075 net.cpp:395] conv8_2_mbox_conf_bn -> conv8_2_mbox_conf (in-place)
I0321 00:37:30.957423  2075 net.cpp:150] Setting up conv8_2_mbox_conf_bn
I0321 00:37:30.957429  2075 net.cpp:157] Top shape: 32 40 1 8 (10240)
I0321 00:37:30.957442  2075 net.cpp:165] Memory required for data: 5170608480
I0321 00:37:30.957448  2075 layer_factory.hpp:77] Creating layer conv8_2_mbox_conf_scale
I0321 00:37:30.957453  2075 net.cpp:100] Creating Layer conv8_2_mbox_conf_scale
I0321 00:37:30.957458  2075 net.cpp:434] conv8_2_mbox_conf_scale <- conv8_2_mbox_conf
I0321 00:37:30.957463  2075 net.cpp:395] conv8_2_mbox_conf_scale -> conv8_2_mbox_conf (in-place)
I0321 00:37:30.957500  2075 layer_factory.hpp:77] Creating layer conv8_2_mbox_conf_scale
I0321 00:37:30.957604  2075 net.cpp:150] Setting up conv8_2_mbox_conf_scale
I0321 00:37:30.957612  2075 net.cpp:157] Top shape: 32 40 1 8 (10240)
I0321 00:37:30.957613  2075 net.cpp:165] Memory required for data: 5170649440
I0321 00:37:30.957617  2075 layer_factory.hpp:77] Creating layer conv8_2_mbox_conf_perm
I0321 00:37:30.957633  2075 net.cpp:100] Creating Layer conv8_2_mbox_conf_perm
I0321 00:37:30.957638  2075 net.cpp:434] conv8_2_mbox_conf_perm <- conv8_2_mbox_conf
I0321 00:37:30.957643  2075 net.cpp:408] conv8_2_mbox_conf_perm -> conv8_2_mbox_conf_perm
I0321 00:37:30.957741  2075 net.cpp:150] Setting up conv8_2_mbox_conf_perm
I0321 00:37:30.957747  2075 net.cpp:157] Top shape: 32 1 8 40 (10240)
I0321 00:37:30.957759  2075 net.cpp:165] Memory required for data: 5170690400
I0321 00:37:30.957762  2075 layer_factory.hpp:77] Creating layer conv8_2_mbox_conf_flat
I0321 00:37:30.957767  2075 net.cpp:100] Creating Layer conv8_2_mbox_conf_flat
I0321 00:37:30.957769  2075 net.cpp:434] conv8_2_mbox_conf_flat <- conv8_2_mbox_conf_perm
I0321 00:37:30.957773  2075 net.cpp:408] conv8_2_mbox_conf_flat -> conv8_2_mbox_conf_flat
I0321 00:37:30.957794  2075 net.cpp:150] Setting up conv8_2_mbox_conf_flat
I0321 00:37:30.957799  2075 net.cpp:157] Top shape: 32 320 (10240)
I0321 00:37:30.957810  2075 net.cpp:165] Memory required for data: 5170731360
I0321 00:37:30.957813  2075 layer_factory.hpp:77] Creating layer conv8_2_mbox_priorbox
I0321 00:37:30.957829  2075 net.cpp:100] Creating Layer conv8_2_mbox_priorbox
I0321 00:37:30.957833  2075 net.cpp:434] conv8_2_mbox_priorbox <- conv8_2_conv8_2_relu_0_split_2
I0321 00:37:30.957836  2075 net.cpp:434] conv8_2_mbox_priorbox <- data_data_0_split_5
I0321 00:37:30.957841  2075 net.cpp:408] conv8_2_mbox_priorbox -> conv8_2_mbox_priorbox
I0321 00:37:30.957864  2075 net.cpp:150] Setting up conv8_2_mbox_priorbox
I0321 00:37:30.957870  2075 net.cpp:157] Top shape: 1 2 128 (256)
I0321 00:37:30.957880  2075 net.cpp:165] Memory required for data: 5170732384
I0321 00:37:30.957882  2075 layer_factory.hpp:77] Creating layer mbox_loc
I0321 00:37:30.957898  2075 net.cpp:100] Creating Layer mbox_loc
I0321 00:37:30.957902  2075 net.cpp:434] mbox_loc <- bn4a_root_relu_mbox_loc_flat
I0321 00:37:30.957907  2075 net.cpp:434] mbox_loc <- bn_res4b_relu_mbox_loc_flat
I0321 00:37:30.957921  2075 net.cpp:434] mbox_loc <- conv6_2_mbox_loc_flat
I0321 00:37:30.957924  2075 net.cpp:434] mbox_loc <- conv7_2_mbox_loc_flat
I0321 00:37:30.957927  2075 net.cpp:434] mbox_loc <- conv8_2_mbox_loc_flat
I0321 00:37:30.957933  2075 net.cpp:408] mbox_loc -> mbox_loc
I0321 00:37:30.957965  2075 net.cpp:150] Setting up mbox_loc
I0321 00:37:30.957970  2075 net.cpp:157] Top shape: 32 35048 (1121536)
I0321 00:37:30.957983  2075 net.cpp:165] Memory required for data: 5175218528
I0321 00:37:30.957995  2075 layer_factory.hpp:77] Creating layer mbox_conf
I0321 00:37:30.958012  2075 net.cpp:100] Creating Layer mbox_conf
I0321 00:37:30.958016  2075 net.cpp:434] mbox_conf <- bn4a_root_relu_mbox_conf_flat
I0321 00:37:30.958020  2075 net.cpp:434] mbox_conf <- bn_res4b_relu_mbox_conf_flat
I0321 00:37:30.958024  2075 net.cpp:434] mbox_conf <- conv6_2_mbox_conf_flat
I0321 00:37:30.958036  2075 net.cpp:434] mbox_conf <- conv7_2_mbox_conf_flat
I0321 00:37:30.958039  2075 net.cpp:434] mbox_conf <- conv8_2_mbox_conf_flat
I0321 00:37:30.958042  2075 net.cpp:408] mbox_conf -> mbox_conf
I0321 00:37:30.958065  2075 net.cpp:150] Setting up mbox_conf
I0321 00:37:30.958070  2075 net.cpp:157] Top shape: 32 87620 (2803840)
I0321 00:37:30.958073  2075 net.cpp:165] Memory required for data: 5186433888
I0321 00:37:30.958076  2075 layer_factory.hpp:77] Creating layer mbox_priorbox
I0321 00:37:30.958079  2075 net.cpp:100] Creating Layer mbox_priorbox
I0321 00:37:30.958083  2075 net.cpp:434] mbox_priorbox <- bn4a_root_relu_mbox_priorbox
I0321 00:37:30.958086  2075 net.cpp:434] mbox_priorbox <- bn_res4b_relu_mbox_priorbox
I0321 00:37:30.958089  2075 net.cpp:434] mbox_priorbox <- conv6_2_mbox_priorbox
I0321 00:37:30.958092  2075 net.cpp:434] mbox_priorbox <- conv7_2_mbox_priorbox
I0321 00:37:30.958096  2075 net.cpp:434] mbox_priorbox <- conv8_2_mbox_priorbox
I0321 00:37:30.958101  2075 net.cpp:408] mbox_priorbox -> mbox_priorbox
I0321 00:37:30.958122  2075 net.cpp:150] Setting up mbox_priorbox
I0321 00:37:30.958127  2075 net.cpp:157] Top shape: 1 2 35048 (70096)
I0321 00:37:30.958130  2075 net.cpp:165] Memory required for data: 5186714272
I0321 00:37:30.958132  2075 layer_factory.hpp:77] Creating layer mbox_loss
I0321 00:37:30.958145  2075 net.cpp:100] Creating Layer mbox_loss
I0321 00:37:30.958148  2075 net.cpp:434] mbox_loss <- mbox_loc
I0321 00:37:30.958153  2075 net.cpp:434] mbox_loss <- mbox_conf
I0321 00:37:30.958154  2075 net.cpp:434] mbox_loss <- mbox_priorbox
…
  phase: TEST
}
layer {
  name: "data"
  type: "AnnotatedData"
  top: "data"
  top: "label"
  include {
    phase: TEST
  }
  transform_param {
    mean_value: 96
    mean_value: 99
    mean_value: 94
    resize_param {
      prob: 1
      resize_mode: WARP
      height: 150
      width: 600
      interp_mode: LINEAR
    }
  }
  data_param {
    source: "/home/byeonghak/data/KITTI/KITTI_val_lmdb"
    batch_size: 1
    backend: LMDB
  }
  annotated_data_param {
    batch_sampler {
    }
    label_map_file: "data/KITTI/labelmap_kitti.prototxt"
  }
}
layer {
  name: "conv_1"
  type: "Convolution"
  bottom: "data"
  top: "conv_1"
  param {
    lr_mult: 1
    decay_mult: 1
  }
  convolution_param {
    num_output: 64
    bias_term: false
    pad: 1
    kernel_size: 3
    stride: 2
    weight_filler {
      type: "gaussian"
      std: 0.01
    }
  }
}
layer {
  name: "bn2a_root"
  type: "BatchNorm"
  bottom: "conv_1"
  top: "bn2a_root"
  batch_norm_param {
    eps: 0.001
  }
}
layer {
  name: "scale2a_root"
  type: "Scale"
  bottom: "bn2a_root"
  top: "bn2a_root"
  param {
    lr_mult: 1
    decay_mult: 0
  }
  param {
    lr_mult: 1
    decay_mult: 0
  }
  scale_param {
    filler {
      type: "constant"
      value: 1
    }
    bias_term: true
    bias_filler {
      type: "constant"
      value: 0
    }
  }
}
layer {
  name: "bn2a_root_relu"
  type: "ReLU"
  bottom: "bn2a_root"
  top: "bn2a_root"
}
layer {
  name: "conv2a_branch2a"
  type: "Convolution"
  bottom: "bn2a_root"
  top: "conv2a_branch2a"
  param {
    lr_mult: 1
    decay_mult: 1
  }
  convolution_param {
    num_output: 64
    bias_term: false
    pad: 1
    kernel_size: 3
    stride: 2
    weight_filler {
      type: "xavier"
      std: 0.01
    }
  }
}
layer {
  name: "conv2a_proj"
  type: "Convolution"
  bottom: "bn2a_root"
  top: "conv2a_proj"
  param {
    lr_mult: 1
    decay_mult: 1
  }
  convolution_param {
    num_output: 64
    bias_term: false
    pad: 0
    kernel_size: 1
    stride: 2
    weight_filler {
      type: "xavier"
      std: 0.01
    }
  }
}
layer {
  name: "bn2a_branch2b"
  type: "BatchNorm"
  bottom: "conv2a_branch2a"
  top: "bn2a_branch2b"
  batch_norm_param {
    eps: 0.001
  }
}
layer {
  name: "scale2a_branch2b"
  type: "Scale"
  bottom: "bn2a_branch2b"
  top: "bn2a_branch2b"
  param {
    lr_mult: 1
    decay_mult: 0
  }
  param {
    lr_mult: 1
    decay_mult: 0
  }
  scale_param {
    filler {
      type: "constant"
      value: 1
    }
    bias_term: true
    bias_filler {
      type: "constant"
      value: 0
    }
  }
}
layer {
  name: "bn2a_branch2b_relu"
  type: "ReLU"
  bottom: "bn2a_branch2b"
  top: "bn2a_branch2b"
}
layer {
  name: "conv2a_branch2b"
  type: "Convolution"
  bottom: "bn2a_branch2b"
  top: "conv2a_branch2b"
  param {
    lr_mult: 1
    decay_mult: 1
  }
  convolution_param {
    num_output: 64
    bias_term: false
    pad: 1
    kernel_size: 3
    stride: 1
    weight_filler {
      type: "gaussian"
      std: 0.01
    }
  }
}
layer {
  name: "res2a"
  type: "Eltwise"
  bottom: "conv2a_proj"
  bottom: "conv2a_branch2b"
  top: "res2a"
}
layer {
  name: "bn2b_branch2a"
  type: "BatchNorm"
  bottom: "res2a"
  top: "bn2b_branch2a"
  batch_norm_param {
    eps: 0.001
  }
}
layer {
  name: "scale2b_branch2a"
  type: "Scale"
  bottom: "bn2b_branch2a"
  top: "bn2b_branch2a"
  param {
    lr_mult: 1
    decay_mult: 0
  }
  param {
    lr_mult: 1
    decay_mult: 0
  }
  scale_param {
    filler {
      type: "constant"
      value: 1
    }
    bias_term: true
    bias_filler {
      type: "constant"
      value: 0
    }
  }
}
layer {
  name: "bn2b_branch2a_relu"
  type: "ReLU"
  bottom: "bn2b_branch2a"
  top: "bn2b_branch2a"
}
layer {
  name: "conv2b_branch2a"
  type: "Convolution"
  bottom: "bn2b_branch2a"
  top: "conv2b_branch2a"
  param {
    lr_mult: 1
    decay_mult: 1
  }
  convolution_param {
    num_output: 64
    bias_term: false
    pad: 1
    kernel_size: 3
    stride: 1
    weight_filler {
      type: "gaussian"
      std: 0.01
    }
  }
}
layer {
  name: "bn2b_branch2b"
  type: "BatchNorm"
  bottom: "conv2b_branch2a"
  top: "bn2b_branch2b"
  batch_norm_param {
    eps: 0.001
  }
}
layer {
  name: "scale2b_branch2b"
  type: "Scale"
  bottom: "bn2b_branch2b"
  top: "bn2b_branch2b"
  param {
    lr_mult: 1
    decay_mult: 0
  }
  param {
    lr_mult: 1
    decay_mult: 0
  }
  scale_param {
    filler {
      type: "constant"
      value: 1
    }
    bias_term: true
    bias_filler {
      type: "constant"
      value: 0
    }
  }
}
layer {
  name: "bn2b_branch2b_relu"
  type: "ReLU"
  bottom: "bn2b_branch2b"
  top: "bn2b_branch2b"
}
layer {
  name: "conv2b_branch2b"
  type: "Convolution"
  bottom: "bn2b_branch2b"
  top: "conv2b_branch2b"
  param {
    lr_mult: 1
    decay_mult: 1
  }
  convolution_param {
    num_output: 64
    bias_term: false
    pad: 1
    kernel_size: 3
    stride: 1
    weight_filler {
      type: "gaussian"
      std: 0.01
    }
  }
}
layer {
  name: "res2b"
  type: "Eltwise"
  bottom: "res2a"
  bottom: "conv2b_branch2b"
  top: "res2b"
}
layer {
  name: "bn3a_root"
  type: "BatchNorm"
  bottom: "res2b"
  top: "bn3a_root"
  batch_norm_param {
    eps: 0.001
  }
}
layer {
  name: "scale3a_root"
  type: "Scale"
  bottom: "bn3a_root"
  top: "bn3a_root"
  param {
    lr_mult: 1
    decay_mult: 0
  }
  param {
    lr_mult: 1
    decay_mult: 0
  }
  scale_param {
    filler {
      type: "constant"
      value: 1
    }
    bias_term: true
    bias_filler {
      type: "constant"
      value: 0
    }
  }
}
layer {
  name: "bn3a_root_relu"
  type: "ReLU"
  bottom: "bn3a_root"
  top: "bn3a_root"
}
layer {
  name: "conv3a_branch2a"
  type: "Convolution"
  bottom: "bn3a_root"
  top: "conv3a_branch2a"
  param {
    lr_mult: 1
    decay_mult: 1
  }
  convolution_param {
    num_output: 256
    bias_term: false
    pad: 1
    kernel_size: 3
    stride: 2
    weight_filler {
      type: "xavier"
      std: 0.01
    }
  }
}
layer {
  name: "conv3a_proj"
  type: "Convolution"
  bottom: "bn3a_root"
  top: "conv3a_proj"
  param {
    lr_mult: 1
    decay_mult: 1
  }
  convolution_param {
    num_output: 256
    bias_term: false
    pad: 0
    kernel_size: 1
    stride: 2
    weight_filler {
      type: "xavier"
      std: 0.01
    }
  }
}
layer {
  name: "bn3a_branch2b"
  type: "BatchNorm"
  bottom: "conv3a_branch2a"
  top: "bn3a_branch2b"
  batch_norm_param {
    eps: 0.001
  }
}
layer {
  name: "scale3a_branch2b"
  type: "Scale"
  bottom: "bn3a_branch2b"
  top: "bn3a_branch2b"
  param {
    lr_mult: 1
    decay_mult: 0
  }
  param {
    lr_mult: 1
    decay_mult: 0
  }
  scale_param {
    filler {
      type: "constant"
      value: 1
    }
    bias_term: true
    bias_filler {
      type: "constant"
      value: 0
    }
  }
}
layer {
  name: "bn3a_branch2b_relu"
  type: "ReLU"
  bottom: "bn3a_branch2b"
  top: "bn3a_branch2b"
}
layer {
  name: "conv3a_branch2b"
  type: "Convolution"
  bottom: "bn3a_branch2b"
  top: "conv3a_branch2b"
  param {
    lr_mult: 1
    decay_mult: 1
  }
  convolution_param {
    num_output: 256
    bias_term: false
    pad: 1
    kernel_size: 3
    stride: 1
    weight_filler {
      type: "gaussian"
      std: 0.01
    }
  }
}
layer {
  name: "res3a"
  type: "Eltwise"
  bottom: "conv3a_proj"
  bottom: "conv3a_branch2b"
  top: "res3a"
}
layer {
  name: "bn3a_branch_root_1x1"
  type: "BatchNorm"
  bottom: "res3a"
  top: "bn3a_branch_root_1x1"
  batch_norm_param {
    eps: 0.001
  }
}
layer {
  name: "scale3a_branch_root_1x1"
  type: "Scale"
  bottom: "bn3a_branch_root_1x1"
  top: "bn3a_branch_root_1x1"
  param {
    lr_mult: 1
    decay_mult: 0
  }
  param {
    lr_mult: 1
    decay_mult: 0
  }
  scale_param {
    filler {
      type: "constant"
      value: 1
    }
    bias_term: true
    bias_filler {
      type: "constant"
      value: 0
    }
  }
}
layer {
  name: "bn3a_branch_root_1x1_relu"
  type: "ReLU"
  bottom: "bn3a_branch_root_1x1"
  top: "bn3a_branch_root_1x1"
}
layer {
  name: "res3a_branch_root_1x1"
  type: "Convolution"
  bottom: "bn3a_branch_root_1x1"
  top: "res3a_branch_root_1x1"
  param {
    lr_mult: 1
    decay_mult: 1
  }
  convolution_param {
    num_output: 256
    bias_term: false
    pad: 0
    kernel_size: 1
    stride: 1
    weight_filler {
      type: "gaussian"
      std: 0.01
    }
  }
}
layer {
  name: "bn3a_branch2b_3x3"
  type: "BatchNorm"
  bottom: "res3a_branch_root_1x1"
  top: "bn3a_branch2b_3x3"
  batch_norm_param {
    eps: 0.001
  }
}
layer {
  name: "scale3a_branch2b_3x3"
  type: "Scale"
  bottom: "bn3a_branch2b_3x3"
  top: "bn3a_branch2b_3x3"
  param {
    lr_mult: 1
    decay_mult: 0
  }
  param {
    lr_mult: 1
    decay_mult: 0
  }
  scale_param {
    filler {
      type: "constant"
      value: 1
    }
    bias_term: true
    bias_filler {
      type: "constant"
      value: 0
    }
  }
}
layer {
  name: "bn3a_branch2b_3x3_relu"
  type: "ReLU"
  bottom: "bn3a_branch2b_3x3"
  top: "bn3a_branch2b_3x3"
}
layer {
  name: "res3a_branch2b_3x3"
  type: "Convolution"
  bottom: "bn3a_branch2b_3x3"
  top: "res3a_branch2b_3x3"
  param {
    lr_mult: 1
    decay_mult: 1
  }
  convolution_param {
    num_output: 256
    bias_term: false
    pad: 1
    kernel_size: 3
    stride: 1
    weight_filler {
      type: "gaussian"
      std: 0.01
    }
  }
}
layer {
  name: "bn3a_branch2c_3x3_a"
  type: "BatchNorm"
  bottom: "res3a_branch_root_1x1"
  top: "bn3a_branch2c_3x3_a"
  batch_norm_param {
    eps: 0.001
  }
}
layer {
  name: "scale3a_branch2c_3x3_a"
  type: "Scale"
  bottom: "bn3a_branch2c_3x3_a"
  top: "bn3a_branch2c_3x3_a"
  param {
    lr_mult: 1
    decay_mult: 0
  }
  param {
    lr_mult: 1
    decay_mult: 0
  }
  scale_param {
    filler {
      type: "constant"
      value: 1
    }
    bias_term: true
    bias_filler {
      type: "constant"
      value: 0
    }
  }
}
layer {
  name: "bn3a_branch2c_3x3_a_relu"
  type: "ReLU"
  bottom: "bn3a_branch2c_3x3_a"
  top: "bn3a_branch2c_3x3_a"
}
layer {
  name: "res3a_branch2c_3x3_a"
  type: "Convolution"
  bottom: "bn3a_branch2c_3x3_a"
  top: "res3a_branch2c_3x3_a"
  param {
    lr_mult: 1
    decay_mult: 1
  }
  convolution_param {
    num_output: 128
    bias_term: false
    pad: 1
    kernel_size: 3
    stride: 1
    weight_filler {
      type: "gaussian"
      std: 0.01
    }
  }
}
layer {
  name: "bn3a_branch2c_3x3_b"
  type: "BatchNorm"
  bottom: "res3a_branch2c_3x3_a"
  top: "bn3a_branch2c_3x3_b"
  batch_norm_param {
    eps: 0.001
  }
}
layer {
  name: "scale3a_branch2c_3x3_b"
  type: "Scale"
  bottom: "bn3a_branch2c_3x3_b"
  top: "bn3a_branch2c_3x3_b"
  param {
    lr_mult: 1
    decay_mult: 0
  }
  param {
    lr_mult: 1
    decay_mult: 0
  }
  scale_param {
    filler {
      type: "constant"
      value: 1
    }
    bias_term: true
    bias_filler {
      type: "constant"
      value: 0
    }
  }
}
layer {
  name: "bn3a_branch2c_3x3_b_relu"
  type: "ReLU"
  bottom: "bn3a_branch2c_3x3_b"
  top: "bn3a_branch2c_3x3_b"
}
layer {
  name: "res3a_branch2c_3x3_b"
  type: "Convolution"
  bottom: "bn3a_branch2c_3x3_b"
  top: "res3a_branch2c_3x3_b"
  param {
    lr_mult: 1
    decay_mult: 1
  }
  convolution_param {
    num_output: 256
    bias_term: false
    pad: 1
    kernel_size: 3
    stride: 1
    weight_filler {
      type: "gaussian"
      std: 0.01
    }
  }
}
layer {
  name: "3a/concat"
  type: "Concat"
  bottom: "res3a_branch_root_1x1"
  bottom: "res3a_branch2b_3x3"
  bottom: "res3a_branch2c_3x3_b"
  top: "3a/concat"
  concat_param {
    axis: 1
  }
}
layer {
  name: "bn3a_3a/concat_1x1"
  type: "BatchNorm"
  bottom: "3a/concat"
  top: "bn3a_3a/concat_1x1"
  batch_norm_param {
    eps: 0.001
  }
}
layer {
  name: "scale3a_3a/concat_1x1"
  type: "Scale"
  bottom: "bn3a_3a/concat_1x1"
  top: "bn3a_3a/concat_1x1"
  param {
    lr_mult: 1
    decay_mult: 0
  }
  param {
    lr_mult: 1
    decay_mult: 0
  }
  scale_param {
    filler {
      type: "constant"
      value: 1
    }
    bias_term: true
    bias_filler {
      type: "constant"
      value: 0
    }
  }
}
layer {
  name: "bn3a_3a/concat_1x1_relu"
  type: "ReLU"
  bottom: "bn3a_3a/concat_1x1"
  top: "bn3a_3a/concat_1x1"
}
layer {
  name: "res3a_3a/concat_1x1"
  type: "Convolution"
  bottom: "bn3a_3a/concat_1x1"
  top: "res3a_3a/concat_1x1"
  param {
    lr_mult: 1
    decay_mult: 1
  }
  convolution_param {
    num_output: 256
    bias_term: false
    pad: 0
    kernel_size: 1
    stride: 1
    weight_filler {
      type: "gaussian"
      std: 0.01
    }
  }
}
layer {
  name: "inception_3a"
  type: "Eltwise"
  bottom: "res3a"
  bottom: "res3a_3a/concat_1x1"
  top: "inception_3a"
}
layer {
  name: "bn4a_root"
  type: "BatchNorm"
  bottom: "inception_3a"
  top: "bn4a_root"
  batch_norm_param {
    eps: 0.001
  }
}
layer {
  name: "scale4a_root"
  type: "Scale"
  bottom: "bn4a_root"
  top: "bn4a_root"
  param {
    lr_mult: 1
    decay_mult: 0
  }
  param {
    lr_mult: 1
    decay_mult: 0
  }
  scale_param {
    filler {
      type: "constant"
      value: 1
    }
    bias_term: true
    bias_filler {
      type: "constant"
      value: 0
    }
  }
}
layer {
  name: "bn4a_root_relu"
  type: "ReLU"
  bottom: "bn4a_root"
  top: "bn4a_root"
}
layer {
  name: "conv4a_branch2a"
  type: "Convolution"
  bottom: "bn4a_root"
  top: "conv4a_branch2a"
  param {
    lr_mult: 1
    decay_mult: 1
  }
  convolution_param {
    num_output: 256
    bias_term: false
    pad: 1
    kernel_size: 3
    stride: 2
    weight_filler {
      type: "xavier"
      std: 0.01
    }
  }
}
layer {
  name: "conv4a_proj"
  type: "Convolution"
  bottom: "bn4a_root"
  top: "conv4a_proj"
  param {
    lr_mult: 1
    decay_mult: 1
  }
  convolution_param {
    num_output: 256
    bias_term: false
    pad: 0
    kernel_size: 1
    stride: 2
    weight_filler {
      type: "xavier"
      std: 0.01
    }
  }
}
layer {
  name: "bn4a_branch2b"
  type: "BatchNorm"
  bottom: "conv4a_branch2a"
  top: "bn4a_branch2b"
  batch_norm_param {
    eps: 0.001
  }
}
layer {
  name: "scale4a_branch2b"
  type: "Scale"
  bottom: "bn4a_branch2b"
  top: "bn4a_branch2b"
  param {
    lr_mult: 1
    decay_mult: 0
  }
  param {
    lr_mult: 1
    decay_mult: 0
  }
  scale_param {
    filler {
      type: "constant"
      value: 1
    }
    bias_term: true
    bias_filler {
      type: "constant"
      value: 0
    }
  }
}
layer {
  name: "bn4a_branch2b_relu"
  type: "ReLU"
  bottom: "bn4a_branch2b"
  top: "bn4a_branch2b"
}
layer {
  name: "conv4a_branch2b"
  type: "Convolution"
  bottom: "bn4a_branch2b"
  top: "conv4a_branch2b"
  param {
    lr_mult: 1
    decay_mult: 1
  }
  convolution_param {
    num_output: 256
    bias_term: false
    pad: 1
    kernel_size: 3
    stride: 1
    weight_filler {
      type: "gaussian"
      std: 0.01
    }
  }
}
layer {
  name: "res4a"
  type: "Eltwise"
  bottom: "conv4a_proj"
  bottom: "conv4a_branch2b"
  top: "res4a"
}
layer {
  name: "bn4b_branch2a"
  type: "BatchNorm"
  bottom: "res4a"
  top: "bn4b_branch2a"
  batch_norm_param {
    eps: 0.001
  }
}
layer {
  name: "scale4b_branch2a"
  type: "Scale"
  bottom: "bn4b_branch2a"
  top: "bn4b_branch2a"
  param {
    lr_mult: 1
    decay_mult: 0
  }
  param {
    lr_mult: 1
    decay_mult: 0
  }
  scale_param {
    filler {
      type: "constant"
      value: 1
    }
    bias_term: true
    bias_filler {
      type: "constant"
      value: 0
    }
  }
}
layer {
  name: "bn4b_branch2a_relu"
  type: "ReLU"
  bottom: "bn4b_branch2a"
  top: "bn4b_branch2a"
}
layer {
  name: "conv4b_branch2a"
  type: "Convolution"
  bottom: "bn4b_branch2a"
  top: "conv4b_branch2a"
  param {
    lr_mult: 1
    decay_mult: 1
  }
  convolution_param {
    num_output: 256
    bias_term: false
    pad: 1
    kernel_size: 3
    stride: 1
    weight_filler {
      type: "gaussian"
      std: 0.01
    }
  }
}
layer {
  name: "bn4b_branch2b"
  type: "BatchNorm"
  bottom: "conv4b_branch2a"
  top: "bn4b_branch2b"
  batch_norm_param {
    eps: 0.001
  }
}
layer {
  name: "scale4b_branch2b"
  type: "Scale"
  bottom: "bn4b_branch2b"
  top: "bn4b_branch2b"
  param {
    lr_mult: 1
    decay_mult: 0
  }
  param {
    lr_mult: 1
    decay_mult: 0
  }
  scale_param {
    filler {
      type: "constant"
      value: 1
    }
    bias_term: true
    bias_filler {
      type: "constant"
      value: 0
    }
  }
}
layer {
  name: "bn4b_branch2b_relu"
  type: "ReLU"
  bottom: "bn4b_branch2b"
  top: "bn4b_branch2b"
}
layer {
  name: "conv4b_branch2b"
  type: "Convolution"
  bottom: "bn4b_branch2b"
  top: "conv4b_branch2b"
  param {
    lr_mult: 1
    decay_mult: 1
  }
  convolution_param {
    num_output: 256
    bias_term: false
    pad: 1
    kernel_size: 3
    stride: 1
    weight_filler {
      type: "gaussian"
      std: 0.01
    }
  }
}
layer {
  name: "res4b"
  type: "Eltwise"
  bottom: "res4a"
  bottom: "conv4b_branch2b"
  top: "res4b"
}
layer {
  name: "bn_res4b"
  type: "BatchNorm"
  bottom: "res4b"
  top: "bn_res4b"
  batch_norm_param {
    eps: 0.001
  }
}
layer {
  name: "scale_res4b"
  type: "Scale"
  bottom: "bn_res4b"
  top: "bn_res4b"
  param {
    lr_mult: 1
    decay_mult: 0
  }
  param {
    lr_mult: 1
    decay_mult: 0
  }
  scale_param {
    filler {
      type: "constant"
      value: 1
    }
    bias_term: true
    bias_filler {
      type: "constant"
      value: 0
    }
  }
}
layer {
  name: "bn_res4b_relu"
  type: "ReLU"
  bottom: "bn_res4b"
  top: "bn_res4b"
}
layer {
  name: "conv6_1"
  type: "Convolution"
  bottom: "bn_res4b"
  top: "conv6_1"
  param {
    lr_mult: 1
    decay_mult: 1
  }
  convolution_param {
    num_output: 256
    bias_term: false
    pad: 0
    kernel_size: 1
    stride: 1
    weight_filler {
      type: "gaussian"
      std: 0.01
    }
  }
}
layer {
  name: "conv6_1_bn"
  type: "BatchNorm"
  bottom: "conv6_1"
  top: "conv6_1"
  batch_norm_param {
    moving_average_fraction: 0.999
    eps: 0.001
  }
}
layer {
  name: "conv6_1_scale"
  type: "Scale"
  bottom: "conv6_1"
  top: "conv6_1"
  param {
    lr_mult: 1
    decay_mult: 0
  }
  param {
    lr_mult: 1
    decay_mult: 0
  }
  scale_param {
    filler {
      type: "constant"
      value: 1
    }
    bias_term: true
    bias_filler {
      type: "constant"
      value: 0
    }
  }
}
layer {
  name: "conv6_1_relu"
  type: "ReLU"
  bottom: "conv6_1"
  top: "conv6_1"
}
layer {
  name: "conv6_2"
  type: "Convolution"
  bottom: "conv6_1"
  top: "conv6_2"
  param {
    lr_mult: 1
    decay_mult: 1
  }
  convolution_param {
    num_output: 512
    bias_term: false
    pad: 1
    kernel_size: 3
    stride: 2
    weight_filler {
      type: "gaussian"
      std: 0.01
    }
  }
}
layer {
  name: "conv6_2_bn"
  type: "BatchNorm"
  bottom: "conv6_2"
  top: "conv6_2"
  batch_norm_param {
    moving_average_fraction: 0.999
    eps: 0.001
  }
}
layer {
  name: "conv6_2_scale"
  type: "Scale"
  bottom: "conv6_2"
  top: "conv6_2"
  param {
    lr_mult: 1
    decay_mult: 0
  }
  param {
    lr_mult: 1
    decay_mult: 0
  }
  scale_param {
    filler {
      type: "constant"
      value: 1
    }
    bias_term: true
    bias_filler {
      type: "constant"
      value: 0
    }
  }
}
layer {
  name: "conv6_2_relu"
  type: "ReLU"
  bottom: "conv6_2"
  top: "conv6_2"
}
layer {
  name: "conv7_1"
  type: "Convolution"
  bottom: "conv6_2"
  top: "conv7_1"
  param {
    lr_mult: 1
    decay_mult: 1
  }
  convolution_param {
    num_output: 128
    bias_term: false
    pad: 0
    kernel_size: 1
    stride: 1
    weight_filler {
      type: "gaussian"
      std: 0.01
    }
  }
}
layer {
  name: "conv7_1_bn"
  type: "BatchNorm"
  bottom: "conv7_1"
  top: "conv7_1"
  batch_norm_param {
    moving_average_fraction: 0.999
    eps: 0.001
  }
}
layer {
  name: "conv7_1_scale"
  type: "Scale"
  bottom: "conv7_1"
  top: "conv7_1"
  param {
    lr_mult: 1
    decay_mult: 0
  }
  param {
    lr_mult: 1
    decay_mult: 0
  }
  scale_param {
    filler {
      type: "constant"
      value: 1
    }
    bias_term: true
    bias_filler {
…
I0321 00:37:31.147133  2075 layer_factory.hpp:77] Creating layer conv6_2_conv6_2_relu_0_split
I0321 00:37:31.147140  2075 net.cpp:100] Creating Layer conv6_2_conv6_2_relu_0_split
I0321 00:37:31.147143  2075 net.cpp:434] conv6_2_conv6_2_relu_0_split <- conv6_2
I0321 00:37:31.147147  2075 net.cpp:408] conv6_2_conv6_2_relu_0_split -> conv6_2_conv6_2_relu_0_split_0
I0321 00:37:31.147153  2075 net.cpp:408] conv6_2_conv6_2_relu_0_split -> conv6_2_conv6_2_relu_0_split_1
I0321 00:37:31.147161  2075 net.cpp:408] conv6_2_conv6_2_relu_0_split -> conv6_2_conv6_2_relu_0_split_2
I0321 00:37:31.147166  2075 net.cpp:408] conv6_2_conv6_2_relu_0_split -> conv6_2_conv6_2_relu_0_split_3
I0321 00:37:31.147215  2075 net.cpp:150] Setting up conv6_2_conv6_2_relu_0_split
I0321 00:37:31.147222  2075 net.cpp:157] Top shape: 1 512 5 19 (48640)
I0321 00:37:31.147224  2075 net.cpp:157] Top shape: 1 512 5 19 (48640)
I0321 00:37:31.147228  2075 net.cpp:157] Top shape: 1 512 5 19 (48640)
I0321 00:37:31.147230  2075 net.cpp:157] Top shape: 1 512 5 19 (48640)
I0321 00:37:31.147233  2075 net.cpp:165] Memory required for data: 158564384
I0321 00:37:31.147235  2075 layer_factory.hpp:77] Creating layer conv7_1
I0321 00:37:31.147243  2075 net.cpp:100] Creating Layer conv7_1
I0321 00:37:31.147248  2075 net.cpp:434] conv7_1 <- conv6_2_conv6_2_relu_0_split_0
I0321 00:37:31.147253  2075 net.cpp:408] conv7_1 -> conv7_1
I0321 00:37:31.150236  2075 net.cpp:150] Setting up conv7_1
I0321 00:37:31.150249  2075 net.cpp:157] Top shape: 1 128 5 19 (12160)
I0321 00:37:31.150261  2075 net.cpp:165] Memory required for data: 158613024
I0321 00:37:31.150266  2075 layer_factory.hpp:77] Creating layer conv7_1_bn
I0321 00:37:31.150274  2075 net.cpp:100] Creating Layer conv7_1_bn
I0321 00:37:31.150276  2075 net.cpp:434] conv7_1_bn <- conv7_1
I0321 00:37:31.150280  2075 net.cpp:395] conv7_1_bn -> conv7_1 (in-place)
I0321 00:37:31.150427  2075 net.cpp:150] Setting up conv7_1_bn
I0321 00:37:31.150434  2075 net.cpp:157] Top shape: 1 128 5 19 (12160)
I0321 00:37:31.150445  2075 net.cpp:165] Memory required for data: 158661664
I0321 00:37:31.150451  2075 layer_factory.hpp:77] Creating layer conv7_1_scale
I0321 00:37:31.150457  2075 net.cpp:100] Creating Layer conv7_1_scale
I0321 00:37:31.150460  2075 net.cpp:434] conv7_1_scale <- conv7_1
I0321 00:37:31.150465  2075 net.cpp:395] conv7_1_scale -> conv7_1 (in-place)
I0321 00:37:31.150501  2075 layer_factory.hpp:77] Creating layer conv7_1_scale
I0321 00:37:31.150595  2075 net.cpp:150] Setting up conv7_1_scale
I0321 00:37:31.150600  2075 net.cpp:157] Top shape: 1 128 5 19 (12160)
I0321 00:37:31.150612  2075 net.cpp:165] Memory required for data: 158710304
I0321 00:37:31.150617  2075 layer_factory.hpp:77] Creating layer conv7_1_relu
I0321 00:37:31.150622  2075 net.cpp:100] Creating Layer conv7_1_relu
I0321 00:37:31.150625  2075 net.cpp:434] conv7_1_relu <- conv7_1
I0321 00:37:31.150629  2075 net.cpp:395] conv7_1_relu -> conv7_1 (in-place)
I0321 00:37:31.151144  2075 net.cpp:150] Setting up conv7_1_relu
I0321 00:37:31.151154  2075 net.cpp:157] Top shape: 1 128 5 19 (12160)
I0321 00:37:31.151167  2075 net.cpp:165] Memory required for data: 158758944
I0321 00:37:31.151170  2075 layer_factory.hpp:77] Creating layer conv7_2
I0321 00:37:31.151187  2075 net.cpp:100] Creating Layer conv7_2
I0321 00:37:31.151191  2075 net.cpp:434] conv7_2 <- conv7_1
I0321 00:37:31.151197  2075 net.cpp:408] conv7_2 -> conv7_2
I0321 00:37:31.158677  2075 net.cpp:150] Setting up conv7_2
I0321 00:37:31.158722  2075 net.cpp:157] Top shape: 1 256 3 10 (7680)
I0321 00:37:31.158725  2075 net.cpp:165] Memory required for data: 158789664
I0321 00:37:31.158733  2075 layer_factory.hpp:77] Creating layer conv7_2_bn
I0321 00:37:31.158743  2075 net.cpp:100] Creating Layer conv7_2_bn
I0321 00:37:31.158749  2075 net.cpp:434] conv7_2_bn <- conv7_2
I0321 00:37:31.158756  2075 net.cpp:395] conv7_2_bn -> conv7_2 (in-place)
I0321 00:37:31.158917  2075 net.cpp:150] Setting up conv7_2_bn
I0321 00:37:31.158923  2075 net.cpp:157] Top shape: 1 256 3 10 (7680)
I0321 00:37:31.158936  2075 net.cpp:165] Memory required for data: 158820384
I0321 00:37:31.158941  2075 layer_factory.hpp:77] Creating layer conv7_2_scale
I0321 00:37:31.158948  2075 net.cpp:100] Creating Layer conv7_2_scale
I0321 00:37:31.158953  2075 net.cpp:434] conv7_2_scale <- conv7_2
I0321 00:37:31.158958  2075 net.cpp:395] conv7_2_scale -> conv7_2 (in-place)
I0321 00:37:31.158987  2075 layer_factory.hpp:77] Creating layer conv7_2_scale
I0321 00:37:31.159075  2075 net.cpp:150] Setting up conv7_2_scale
I0321 00:37:31.159081  2075 net.cpp:157] Top shape: 1 256 3 10 (7680)
I0321 00:37:31.159085  2075 net.cpp:165] Memory required for data: 158851104
I0321 00:37:31.159090  2075 layer_factory.hpp:77] Creating layer conv7_2_relu
I0321 00:37:31.159095  2075 net.cpp:100] Creating Layer conv7_2_relu
I0321 00:37:31.159098  2075 net.cpp:434] conv7_2_relu <- conv7_2
I0321 00:37:31.159101  2075 net.cpp:395] conv7_2_relu -> conv7_2 (in-place)
I0321 00:37:31.159680  2075 net.cpp:150] Setting up conv7_2_relu
I0321 00:37:31.159692  2075 net.cpp:157] Top shape: 1 256 3 10 (7680)
I0321 00:37:31.159694  2075 net.cpp:165] Memory required for data: 158881824
I0321 00:37:31.159698  2075 layer_factory.hpp:77] Creating layer conv7_2_conv7_2_relu_0_split
I0321 00:37:31.159703  2075 net.cpp:100] Creating Layer conv7_2_conv7_2_relu_0_split
I0321 00:37:31.159708  2075 net.cpp:434] conv7_2_conv7_2_relu_0_split <- conv7_2
I0321 00:37:31.159711  2075 net.cpp:408] conv7_2_conv7_2_relu_0_split -> conv7_2_conv7_2_relu_0_split_0
I0321 00:37:31.159718  2075 net.cpp:408] conv7_2_conv7_2_relu_0_split -> conv7_2_conv7_2_relu_0_split_1
I0321 00:37:31.159723  2075 net.cpp:408] conv7_2_conv7_2_relu_0_split -> conv7_2_conv7_2_relu_0_split_2
I0321 00:37:31.159728  2075 net.cpp:408] conv7_2_conv7_2_relu_0_split -> conv7_2_conv7_2_relu_0_split_3
I0321 00:37:31.159780  2075 net.cpp:150] Setting up conv7_2_conv7_2_relu_0_split
I0321 00:37:31.159785  2075 net.cpp:157] Top shape: 1 256 3 10 (7680)
I0321 00:37:31.159787  2075 net.cpp:157] Top shape: 1 256 3 10 (7680)
I0321 00:37:31.159790  2075 net.cpp:157] Top shape: 1 256 3 10 (7680)
I0321 00:37:31.159793  2075 net.cpp:157] Top shape: 1 256 3 10 (7680)
I0321 00:37:31.159795  2075 net.cpp:165] Memory required for data: 159004704
I0321 00:37:31.159797  2075 layer_factory.hpp:77] Creating layer conv8_1
I0321 00:37:31.159806  2075 net.cpp:100] Creating Layer conv8_1
I0321 00:37:31.159809  2075 net.cpp:434] conv8_1 <- conv7_2_conv7_2_relu_0_split_0
I0321 00:37:31.159816  2075 net.cpp:408] conv8_1 -> conv8_1
I0321 00:37:31.161980  2075 net.cpp:150] Setting up conv8_1
I0321 00:37:31.162014  2075 net.cpp:157] Top shape: 1 128 3 10 (3840)
I0321 00:37:31.162019  2075 net.cpp:165] Memory required for data: 159020064
I0321 00:37:31.162024  2075 layer_factory.hpp:77] Creating layer conv8_1_bn
I0321 00:37:31.162034  2075 net.cpp:100] Creating Layer conv8_1_bn
I0321 00:37:31.162036  2075 net.cpp:434] conv8_1_bn <- conv8_1
I0321 00:37:31.162042  2075 net.cpp:395] conv8_1_bn -> conv8_1 (in-place)
I0321 00:37:31.162199  2075 net.cpp:150] Setting up conv8_1_bn
I0321 00:37:31.162204  2075 net.cpp:157] Top shape: 1 128 3 10 (3840)
I0321 00:37:31.162215  2075 net.cpp:165] Memory required for data: 159035424
I0321 00:37:31.162221  2075 layer_factory.hpp:77] Creating layer conv8_1_scale
I0321 00:37:31.162242  2075 net.cpp:100] Creating Layer conv8_1_scale
I0321 00:37:31.162247  2075 net.cpp:434] conv8_1_scale <- conv8_1
I0321 00:37:31.162251  2075 net.cpp:395] conv8_1_scale -> conv8_1 (in-place)
I0321 00:37:31.162292  2075 layer_factory.hpp:77] Creating layer conv8_1_scale
I0321 00:37:31.162392  2075 net.cpp:150] Setting up conv8_1_scale
I0321 00:37:31.162398  2075 net.cpp:157] Top shape: 1 128 3 10 (3840)
I0321 00:37:31.162410  2075 net.cpp:165] Memory required for data: 159050784
I0321 00:37:31.162430  2075 layer_factory.hpp:77] Creating layer conv8_1_relu
I0321 00:37:31.162436  2075 net.cpp:100] Creating Layer conv8_1_relu
I0321 00:37:31.162439  2075 net.cpp:434] conv8_1_relu <- conv8_1
I0321 00:37:31.162443  2075 net.cpp:395] conv8_1_relu -> conv8_1 (in-place)
I0321 00:37:31.162663  2075 net.cpp:150] Setting up conv8_1_relu
I0321 00:37:31.162672  2075 net.cpp:157] Top shape: 1 128 3 10 (3840)
I0321 00:37:31.162675  2075 net.cpp:165] Memory required for data: 159066144
I0321 00:37:31.162678  2075 layer_factory.hpp:77] Creating layer conv8_2
I0321 00:37:31.162688  2075 net.cpp:100] Creating Layer conv8_2
I0321 00:37:31.162691  2075 net.cpp:434] conv8_2 <- conv8_1
I0321 00:37:31.162698  2075 net.cpp:408] conv8_2 -> conv8_2
I0321 00:37:31.170500  2075 net.cpp:150] Setting up conv8_2
I0321 00:37:31.170528  2075 net.cpp:157] Top shape: 1 256 1 8 (2048)
I0321 00:37:31.170532  2075 net.cpp:165] Memory required for data: 159074336
I0321 00:37:31.170539  2075 layer_factory.hpp:77] Creating layer conv8_2_bn
I0321 00:37:31.170552  2075 net.cpp:100] Creating Layer conv8_2_bn
I0321 00:37:31.170557  2075 net.cpp:434] conv8_2_bn <- conv8_2
I0321 00:37:31.170562  2075 net.cpp:395] conv8_2_bn -> conv8_2 (in-place)
I0321 00:37:31.170719  2075 net.cpp:150] Setting up conv8_2_bn
I0321 00:37:31.170725  2075 net.cpp:157] Top shape: 1 256 1 8 (2048)
I0321 00:37:31.170728  2075 net.cpp:165] Memory required for data: 159082528
I0321 00:37:31.170734  2075 layer_factory.hpp:77] Creating layer conv8_2_scale
I0321 00:37:31.170743  2075 net.cpp:100] Creating Layer conv8_2_scale
I0321 00:37:31.170747  2075 net.cpp:434] conv8_2_scale <- conv8_2
I0321 00:37:31.170753  2075 net.cpp:395] conv8_2_scale -> conv8_2 (in-place)
I0321 00:37:31.170783  2075 layer_factory.hpp:77] Creating layer conv8_2_scale
I0321 00:37:31.170866  2075 net.cpp:150] Setting up conv8_2_scale
I0321 00:37:31.170872  2075 net.cpp:157] Top shape: 1 256 1 8 (2048)
I0321 00:37:31.170876  2075 net.cpp:165] Memory required for data: 159090720
I0321 00:37:31.170879  2075 layer_factory.hpp:77] Creating layer conv8_2_relu
I0321 00:37:31.170886  2075 net.cpp:100] Creating Layer conv8_2_relu
I0321 00:37:31.170888  2075 net.cpp:434] conv8_2_relu <- conv8_2
I0321 00:37:31.170893  2075 net.cpp:395] conv8_2_relu -> conv8_2 (in-place)
I0321 00:37:31.171463  2075 net.cpp:150] Setting up conv8_2_relu
I0321 00:37:31.171475  2075 net.cpp:157] Top shape: 1 256 1 8 (2048)
I0321 00:37:31.171478  2075 net.cpp:165] Memory required for data: 159098912
I0321 00:37:31.171483  2075 layer_factory.hpp:77] Creating layer conv8_2_conv8_2_relu_0_split
I0321 00:37:31.171489  2075 net.cpp:100] Creating Layer conv8_2_conv8_2_relu_0_split
I0321 00:37:31.171492  2075 net.cpp:434] conv8_2_conv8_2_relu_0_split <- conv8_2
I0321 00:37:31.171499  2075 net.cpp:408] conv8_2_conv8_2_relu_0_split -> conv8_2_conv8_2_relu_0_split_0
I0321 00:37:31.171505  2075 net.cpp:408] conv8_2_conv8_2_relu_0_split -> conv8_2_conv8_2_relu_0_split_1
I0321 00:37:31.171511  2075 net.cpp:408] conv8_2_conv8_2_relu_0_split -> conv8_2_conv8_2_relu_0_split_2
I0321 00:37:31.171560  2075 net.cpp:150] Setting up conv8_2_conv8_2_relu_0_split
I0321 00:37:31.171566  2075 net.cpp:157] Top shape: 1 256 1 8 (2048)
I0321 00:37:31.171568  2075 net.cpp:157] Top shape: 1 256 1 8 (2048)
I0321 00:37:31.171571  2075 net.cpp:157] Top shape: 1 256 1 8 (2048)
I0321 00:37:31.171573  2075 net.cpp:165] Memory required for data: 159123488
I0321 00:37:31.171576  2075 layer_factory.hpp:77] Creating layer bn4a_root_relu_mbox_loc
I0321 00:37:31.171602  2075 net.cpp:100] Creating Layer bn4a_root_relu_mbox_loc
I0321 00:37:31.171607  2075 net.cpp:434] bn4a_root_relu_mbox_loc <- bn4a_root_bn4a_root_relu_0_split_2
I0321 00:37:31.171612  2075 net.cpp:408] bn4a_root_relu_mbox_loc -> bn4a_root_relu_mbox_loc
I0321 00:37:31.173904  2075 net.cpp:150] Setting up bn4a_root_relu_mbox_loc
I0321 00:37:31.173931  2075 net.cpp:157] Top shape: 1 16 19 75 (22800)
I0321 00:37:31.173934  2075 net.cpp:165] Memory required for data: 159214688
I0321 00:37:31.173941  2075 layer_factory.hpp:77] Creating layer bn4a_root_relu_mbox_loc_bn
I0321 00:37:31.173951  2075 net.cpp:100] Creating Layer bn4a_root_relu_mbox_loc_bn
I0321 00:37:31.173955  2075 net.cpp:434] bn4a_root_relu_mbox_loc_bn <- bn4a_root_relu_mbox_loc
I0321 00:37:31.173960  2075 net.cpp:395] bn4a_root_relu_mbox_loc_bn -> bn4a_root_relu_mbox_loc (in-place)
I0321 00:37:31.174190  2075 net.cpp:150] Setting up bn4a_root_relu_mbox_loc_bn
I0321 00:37:31.174197  2075 net.cpp:157] Top shape: 1 16 19 75 (22800)
I0321 00:37:31.174201  2075 net.cpp:165] Memory required for data: 159305888
I0321 00:37:31.174206  2075 layer_factory.hpp:77] Creating layer bn4a_root_relu_mbox_loc_scale
I0321 00:37:31.174216  2075 net.cpp:100] Creating Layer bn4a_root_relu_mbox_loc_scale
I0321 00:37:31.174221  2075 net.cpp:434] bn4a_root_relu_mbox_loc_scale <- bn4a_root_relu_mbox_loc
I0321 00:37:31.174226  2075 net.cpp:395] bn4a_root_relu_mbox_loc_scale -> bn4a_root_relu_mbox_loc (in-place)
I0321 00:37:31.174258  2075 layer_factory.hpp:77] Creating layer bn4a_root_relu_mbox_loc_scale
I0321 00:37:31.174372  2075 net.cpp:150] Setting up bn4a_root_relu_mbox_loc_scale
I0321 00:37:31.174378  2075 net.cpp:157] Top shape: 1 16 19 75 (22800)
I0321 00:37:31.174381  2075 net.cpp:165] Memory required for data: 159397088
I0321 00:37:31.174386  2075 layer_factory.hpp:77] Creating layer bn4a_root_relu_mbox_loc_perm
I0321 00:37:31.174393  2075 net.cpp:100] Creating Layer bn4a_root_relu_mbox_loc_perm
I0321 00:37:31.174397  2075 net.cpp:434] bn4a_root_relu_mbox_loc_perm <- bn4a_root_relu_mbox_loc
I0321 00:37:31.174402  2075 net.cpp:408] bn4a_root_relu_mbox_loc_perm -> bn4a_root_relu_mbox_loc_perm
I0321 00:37:31.174476  2075 net.cpp:150] Setting up bn4a_root_relu_mbox_loc_perm
I0321 00:37:31.174482  2075 net.cpp:157] Top shape: 1 19 75 16 (22800)
I0321 00:37:31.174485  2075 net.cpp:165] Memory required for data: 159488288
I0321 00:37:31.174489  2075 layer_factory.hpp:77] Creating layer bn4a_root_relu_mbox_loc_flat
I0321 00:37:31.174494  2075 net.cpp:100] Creating Layer bn4a_root_relu_mbox_loc_flat
I0321 00:37:31.174496  2075 net.cpp:434] bn4a_root_relu_mbox_loc_flat <- bn4a_root_relu_mbox_loc_perm
I0321 00:37:31.174501  2075 net.cpp:408] bn4a_root_relu_mbox_loc_flat -> bn4a_root_relu_mbox_loc_flat
I0321 00:37:31.174518  2075 net.cpp:150] Setting up bn4a_root_relu_mbox_loc_flat
I0321 00:37:31.174525  2075 net.cpp:157] Top shape: 1 22800 (22800)
I0321 00:37:31.174528  2075 net.cpp:165] Memory required for data: 159579488
I0321 00:37:31.174531  2075 layer_factory.hpp:77] Creating layer bn4a_root_relu_mbox_conf
I0321 00:37:31.174537  2075 net.cpp:100] Creating Layer bn4a_root_relu_mbox_conf
I0321 00:37:31.174541  2075 net.cpp:434] bn4a_root_relu_mbox_conf <- bn4a_root_bn4a_root_relu_0_split_3
I0321 00:37:31.174546  2075 net.cpp:408] bn4a_root_relu_mbox_conf -> bn4a_root_relu_mbox_conf
I0321 00:37:31.178161  2075 net.cpp:150] Setting up bn4a_root_relu_mbox_conf
I0321 00:37:31.178176  2075 net.cpp:157] Top shape: 1 40 19 75 (57000)
I0321 00:37:31.178179  2075 net.cpp:165] Memory required for data: 159807488
I0321 00:37:31.178184  2075 layer_factory.hpp:77] Creating layer bn4a_root_relu_mbox_conf_bn
I0321 00:37:31.178191  2075 net.cpp:100] Creating Layer bn4a_root_relu_mbox_conf_bn
I0321 00:37:31.178205  2075 net.cpp:434] bn4a_root_relu_mbox_conf_bn <- bn4a_root_relu_mbox_conf
I0321 00:37:31.178210  2075 net.cpp:395] bn4a_root_relu_mbox_conf_bn -> bn4a_root_relu_mbox_conf (in-place)
I0321 00:37:31.178397  2075 net.cpp:150] Setting up bn4a_root_relu_mbox_conf_bn
I0321 00:37:31.178413  2075 net.cpp:157] Top shape: 1 40 19 75 (57000)
I0321 00:37:31.178417  2075 net.cpp:165] Memory required for data: 160035488
I0321 00:37:31.178424  2075 layer_factory.hpp:77] Creating layer bn4a_root_relu_mbox_conf_scale
I0321 00:37:31.178431  2075 net.cpp:100] Creating Layer bn4a_root_relu_mbox_conf_scale
I0321 00:37:31.178434  2075 net.cpp:434] bn4a_root_relu_mbox_conf_scale <- bn4a_root_relu_mbox_conf
I0321 00:37:31.178439  2075 net.cpp:395] bn4a_root_relu_mbox_conf_scale -> bn4a_root_relu_mbox_conf (in-place)
I0321 00:37:31.178479  2075 layer_factory.hpp:77] Creating layer bn4a_root_relu_mbox_conf_scale
I0321 00:37:31.178604  2075 net.cpp:150] Setting up bn4a_root_relu_mbox_conf_scale
I0321 00:37:31.178611  2075 net.cpp:157] Top shape: 1 40 19 75 (57000)
I0321 00:37:31.178622  2075 net.cpp:165] Memory required for data: 160263488
I0321 00:37:31.178627  2075 layer_factory.hpp:77] Creating layer bn4a_root_relu_mbox_conf_perm
I0321 00:37:31.178634  2075 net.cpp:100] Creating Layer bn4a_root_relu_mbox_conf_perm
I0321 00:37:31.178637  2075 net.cpp:434] bn4a_root_relu_mbox_conf_perm <- bn4a_root_relu_mbox_conf
I0321 00:37:31.178642  2075 net.cpp:408] bn4a_root_relu_mbox_conf_perm -> bn4a_root_relu_mbox_conf_perm
I0321 00:37:31.178722  2075 net.cpp:150] Setting up bn4a_root_relu_mbox_conf_perm
I0321 00:37:31.178727  2075 net.cpp:157] Top shape: 1 19 75 40 (57000)
I0321 00:37:31.178740  2075 net.cpp:165] Memory required for data: 160491488
I0321 00:37:31.178742  2075 layer_factory.hpp:77] Creating layer bn4a_root_relu_mbox_conf_flat
I0321 00:37:31.178746  2075 net.cpp:100] Creating Layer bn4a_root_relu_mbox_conf_flat
I0321 00:37:31.178750  2075 net.cpp:434] bn4a_root_relu_mbox_conf_flat <- bn4a_root_relu_mbox_conf_perm
I0321 00:37:31.178755  2075 net.cpp:408] bn4a_root_relu_mbox_conf_flat -> bn4a_root_relu_mbox_conf_flat
I0321 00:37:31.178771  2075 net.cpp:150] Setting up bn4a_root_relu_mbox_conf_flat
I0321 00:37:31.178786  2075 net.cpp:157] Top shape: 1 57000 (57000)
I0321 00:37:31.178787  2075 net.cpp:165] Memory required for data: 160719488
I0321 00:37:31.178791  2075 layer_factory.hpp:77] Creating layer bn4a_root_relu_mbox_priorbox
I0321 00:37:31.178807  2075 net.cpp:100] Creating Layer bn4a_root_relu_mbox_priorbox
I0321 00:37:31.178809  2075 net.cpp:434] bn4a_root_relu_mbox_priorbox <- bn4a_root_bn4a_root_relu_0_split_4
I0321 00:37:31.178813  2075 net.cpp:434] bn4a_root_relu_mbox_priorbox <- data_data_0_split_1
I0321 00:37:31.178818  2075 net.cpp:408] bn4a_root_relu_mbox_priorbox -> bn4a_root_relu_mbox_priorbox
I0321 00:37:31.178848  2075 net.cpp:150] Setting up bn4a_root_relu_mbox_priorbox
I0321 00:37:31.178853  2075 net.cpp:157] Top shape: 1 2 22800 (45600)
I0321 00:37:31.178865  2075 net.cpp:165] Memory required for data: 160901888
I0321 00:37:31.178867  2075 layer_factory.hpp:77] Creating layer bn_res4b_relu_mbox_loc
I0321 00:37:31.178876  2075 net.cpp:100] Creating Layer bn_res4b_relu_mbox_loc
I0321 00:37:31.178879  2075 net.cpp:434] bn_res4b_relu_mbox_loc <- bn_res4b_bn_res4b_relu_0_split_1
I0321 00:37:31.178884  2075 net.cpp:408] bn_res4b_relu_mbox_loc -> bn_res4b_relu_mbox_loc
I0321 00:37:31.181964  2075 net.cpp:150] Setting up bn_res4b_relu_mbox_loc
I0321 00:37:31.181977  2075 net.cpp:157] Top shape: 1 24 10 38 (9120)
I0321 00:37:31.181988  2075 net.cpp:165] Memory required for data: 160938368
I0321 00:37:31.181993  2075 layer_factory.hpp:77] Creating layer bn_res4b_relu_mbox_loc_bn
I0321 00:37:31.181998  2075 net.cpp:100] Creating Layer bn_res4b_relu_mbox_loc_bn
I0321 00:37:31.182001  2075 net.cpp:434] bn_res4b_relu_mbox_loc_bn <- bn_res4b_relu_mbox_loc
I0321 00:37:31.182006  2075 net.cpp:395] bn_res4b_relu_mbox_loc_bn -> bn_res4b_relu_mbox_loc (in-place)
I0321 00:37:31.182173  2075 net.cpp:150] Setting up bn_res4b_relu_mbox_loc_bn
I0321 00:37:31.182179  2075 net.cpp:157] Top shape: 1 24 10 38 (9120)
I0321 00:37:31.182193  2075 net.cpp:165] Memory required for data: 160974848
I0321 00:37:31.182198  2075 layer_factory.hpp:77] Creating layer bn_res4b_relu_mbox_loc_scale
I0321 00:37:31.182212  2075 net.cpp:100] Creating Layer bn_res4b_relu_mbox_loc_scale
I0321 00:37:31.182215  2075 net.cpp:434] bn_res4b_relu_mbox_loc_scale <- bn_res4b_relu_mbox_loc
I0321 00:37:31.182220  2075 net.cpp:395] bn_res4b_relu_mbox_loc_scale -> bn_res4b_relu_mbox_loc (in-place)
I0321 00:37:31.182260  2075 layer_factory.hpp:77] Creating layer bn_res4b_relu_mbox_loc_scale
I0321 00:37:31.182375  2075 net.cpp:150] Setting up bn_res4b_relu_mbox_loc_scale
I0321 00:37:31.182381  2075 net.cpp:157] Top shape: 1 24 10 38 (9120)
I0321 00:37:31.182394  2075 net.cpp:165] Memory required for data: 161011328
I0321 00:37:31.182399  2075 layer_factory.hpp:77] Creating layer bn_res4b_relu_mbox_loc_perm
I0321 00:37:31.182402  2075 net.cpp:100] Creating Layer bn_res4b_relu_mbox_loc_perm
I0321 00:37:31.182405  2075 net.cpp:434] bn_res4b_relu_mbox_loc_perm <- bn_res4b_relu_mbox_loc
I0321 00:37:31.182410  2075 net.cpp:408] bn_res4b_relu_mbox_loc_perm -> bn_res4b_relu_mbox_loc_perm
I0321 00:37:31.182492  2075 net.cpp:150] Setting up bn_res4b_relu_mbox_loc_perm
I0321 00:37:31.182497  2075 net.cpp:157] Top shape: 1 10 38 24 (9120)
I0321 00:37:31.182509  2075 net.cpp:165] Memory required for data: 161047808
I0321 00:37:31.182512  2075 layer_factory.hpp:77] Creating layer bn_res4b_relu_mbox_loc_flat
I0321 00:37:31.182517  2075 net.cpp:100] Creating Layer bn_res4b_relu_mbox_loc_flat
I0321 00:37:31.182519  2075 net.cpp:434] bn_res4b_relu_mbox_loc_flat <- bn_res4b_relu_mbox_loc_perm
I0321 00:37:31.182524  2075 net.cpp:408] bn_res4b_relu_mbox_loc_flat -> bn_res4b_relu_mbox_loc_flat
I0321 00:37:31.182549  2075 net.cpp:150] Setting up bn_res4b_relu_mbox_loc_flat
I0321 00:37:31.182554  2075 net.cpp:157] Top shape: 1 9120 (9120)
I0321 00:37:31.182555  2075 net.cpp:165] Memory required for data: 161084288
I0321 00:37:31.182557  2075 layer_factory.hpp:77] Creating layer bn_res4b_relu_mbox_conf
I0321 00:37:31.182565  2075 net.cpp:100] Creating Layer bn_res4b_relu_mbox_conf
I0321 00:37:31.182569  2075 net.cpp:434] bn_res4b_relu_mbox_conf <- bn_res4b_bn_res4b_relu_0_split_2
I0321 00:37:31.182574  2075 net.cpp:408] bn_res4b_relu_mbox_conf -> bn_res4b_relu_mbox_conf
I0321 00:37:31.187325  2075 net.cpp:150] Setting up bn_res4b_relu_mbox_conf
I0321 00:37:31.187345  2075 net.cpp:157] Top shape: 1 60 10 38 (22800)
I0321 00:37:31.187348  2075 net.cpp:165] Memory required for data: 161175488
I0321 00:37:31.187355  2075 layer_factory.hpp:77] Creating layer bn_res4b_relu_mbox_conf_bn
I0321 00:37:31.187377  2075 net.cpp:100] Creating Layer bn_res4b_relu_mbox_conf_bn
I0321 00:37:31.187383  2075 net.cpp:434] bn_res4b_relu_mbox_conf_bn <- bn_res4b_relu_mbox_conf
I0321 00:37:31.187388  2075 net.cpp:395] bn_res4b_relu_mbox_conf_bn -> bn_res4b_relu_mbox_conf (in-place)
I0321 00:37:31.187572  2075 net.cpp:150] Setting up bn_res4b_relu_mbox_conf_bn
I0321 00:37:31.187577  2075 net.cpp:157] Top shape: 1 60 10 38 (22800)
I0321 00:37:31.187580  2075 net.cpp:165] Memory required for data: 161266688
I0321 00:37:31.187587  2075 layer_factory.hpp:77] Creating layer bn_res4b_relu_mbox_conf_scale
I0321 00:37:31.187594  2075 net.cpp:100] Creating Layer bn_res4b_relu_mbox_conf_scale
I0321 00:37:31.187597  2075 net.cpp:434] bn_res4b_relu_mbox_conf_scale <- bn_res4b_relu_mbox_conf
I0321 00:37:31.187602  2075 net.cpp:395] bn_res4b_relu_mbox_conf_scale -> bn_res4b_relu_mbox_conf (in-place)
I0321 00:37:31.187634  2075 layer_factory.hpp:77] Creating layer bn_res4b_relu_mbox_conf_scale
I0321 00:37:31.187736  2075 net.cpp:150] Setting up bn_res4b_relu_mbox_conf_scale
I0321 00:37:31.187741  2075 net.cpp:157] Top shape: 1 60 10 38 (22800)
I0321 00:37:31.187742  2075 net.cpp:165] Memory required for data: 161357888
I0321 00:37:31.187747  2075 layer_factory.hpp:77] Creating layer bn_res4b_relu_mbox_conf_perm
I0321 00:37:31.187754  2075 net.cpp:100] Creating Layer bn_res4b_relu_mbox_conf_perm
I0321 00:37:31.187757  2075 net.cpp:434] bn_res4b_relu_mbox_conf_perm <- bn_res4b_relu_mbox_conf
I0321 00:37:31.187762  2075 net.cpp:408] bn_res4b_relu_mbox_conf_perm -> bn_res4b_relu_mbox_conf_perm
I0321 00:37:31.187849  2075 net.cpp:150] Setting up bn_res4b_relu_mbox_conf_perm
I0321 00:37:31.187855  2075 net.cpp:157] Top shape: 1 10 38 60 (22800)
I0321 00:37:31.187857  2075 net.cpp:165] Memory required for data: 161449088
I0321 00:37:31.187860  2075 layer_factory.hpp:77] Creating layer bn_res4b_relu_mbox_conf_flat
I0321 00:37:31.187865  2075 net.cpp:100] Creating Layer bn_res4b_relu_mbox_conf_flat
I0321 00:37:31.187867  2075 net.cpp:434] bn_res4b_relu_mbox_conf_flat <- bn_res4b_relu_mbox_conf_perm
I0321 00:37:31.187872  2075 net.cpp:408] bn_res4b_relu_mbox_conf_flat -> bn_res4b_relu_mbox_conf_flat
I0321 00:37:31.187889  2075 net.cpp:150] Setting up bn_res4b_relu_mbox_conf_flat
I0321 00:37:31.187893  2075 net.cpp:157] Top shape: 1 22800 (22800)
I0321 00:37:31.187896  2075 net.cpp:165] Memory required for data: 161540288
I0321 00:37:31.187898  2075 layer_factory.hpp:77] Creating layer bn_res4b_relu_mbox_priorbox
I0321 00:37:31.187906  2075 net.cpp:100] Creating Layer bn_res4b_relu_mbox_priorbox
I0321 00:37:31.187909  2075 net.cpp:434] bn_res4b_relu_mbox_priorbox <- bn_res4b_bn_res4b_relu_0_split_3
I0321 00:37:31.187914  2075 net.cpp:434] bn_res4b_relu_mbox_priorbox <- data_data_0_split_2
I0321 00:37:31.187919  2075 net.cpp:408] bn_res4b_relu_mbox_priorbox -> bn_res4b_relu_mbox_priorbox
I0321 00:37:31.187943  2075 net.cpp:150] Setting up bn_res4b_relu_mbox_priorbox
I0321 00:37:31.187947  2075 net.cpp:157] Top shape: 1 2 9120 (18240)
I0321 00:37:31.187950  2075 net.cpp:165] Memory required for data: 161613248
I0321 00:37:31.187952  2075 layer_factory.hpp:77] Creating layer conv6_2_mbox_loc
I0321 00:37:31.187961  2075 net.cpp:100] Creating Layer conv6_2_mbox_loc
I0321 00:37:31.187965  2075 net.cpp:434] conv6_2_mbox_loc <- conv6_2_conv6_2_relu_0_split_1
I0321 00:37:31.187970  2075 net.cpp:408] conv6_2_mbox_loc -> conv6_2_mbox_loc
I0321 00:37:31.192230  2075 net.cpp:150] Setting up conv6_2_mbox_loc
I0321 00:37:31.192265  2075 net.cpp:157] Top shape: 1 24 5 19 (2280)
I0321 00:37:31.192268  2075 net.cpp:165] Memory required for data: 161622368
I0321 00:37:31.192276  2075 layer_factory.hpp:77] Creating layer conv6_2_mbox_loc_bn
I0321 00:37:31.192287  2075 net.cpp:100] Creating Layer conv6_2_mbox_loc_bn
I0321 00:37:31.192292  2075 net.cpp:434] conv6_2_mbox_loc_bn <- conv6_2_mbox_loc
I0321 00:37:31.192297  2075 net.cpp:395] conv6_2_mbox_loc_bn -> conv6_2_mbox_loc (in-place)
I0321 00:37:31.192469  2075 net.cpp:150] Setting up conv6_2_mbox_loc_bn
I0321 00:37:31.192476  2075 net.cpp:157] Top shape: 1 24 5 19 (2280)
I0321 00:37:31.192487  2075 net.cpp:165] Memory required for data: 161631488
I0321 00:37:31.192493  2075 layer_factory.hpp:77] Creating layer conv6_2_mbox_loc_scale
I0321 00:37:31.192502  2075 net.cpp:100] Creating Layer conv6_2_mbox_loc_scale
I0321 00:37:31.192505  2075 net.cpp:434] conv6_2_mbox_loc_scale <- conv6_2_mbox_loc
I0321 00:37:31.192509  2075 net.cpp:395] conv6_2_mbox_loc_scale -> conv6_2_mbox_loc (in-place)
I0321 00:37:31.192549  2075 layer_factory.hpp:77] Creating layer conv6_2_mbox_loc_scale
I0321 00:37:31.192656  2075 net.cpp:150] Setting up conv6_2_mbox_loc_scale
I0321 00:37:31.192662  2075 net.cpp:157] Top shape: 1 24 5 19 (2280)
I0321 00:37:31.192674  2075 net.cpp:165] Memory required for data: 161640608
I0321 00:37:31.192678  2075 layer_factory.hpp:77] Creating layer conv6_2_mbox_loc_perm
I0321 00:37:31.192685  2075 net.cpp:100] Creating Layer conv6_2_mbox_loc_perm
I0321 00:37:31.192688  2075 net.cpp:434] conv6_2_mbox_loc_perm <- conv6_2_mbox_loc
I0321 00:37:31.192692  2075 net.cpp:408] conv6_2_mbox_loc_perm -> conv6_2_mbox_loc_perm
I0321 00:37:31.192772  2075 net.cpp:150] Setting up conv6_2_mbox_loc_perm
I0321 00:37:31.192777  2075 net.cpp:157] Top shape: 1 5 19 24 (2280)
I0321 00:37:31.192790  2075 net.cpp:165] Memory required for data: 161649728
I0321 00:37:31.192792  2075 layer_factory.hpp:77] Creating layer conv6_2_mbox_loc_flat
I0321 00:37:31.192797  2075 net.cpp:100] Creating Layer conv6_2_mbox_loc_flat
I0321 00:37:31.192800  2075 net.cpp:434] conv6_2_mbox_loc_flat <- conv6_2_mbox_loc_perm
I0321 00:37:31.192828  2075 net.cpp:408] conv6_2_mbox_loc_flat -> conv6_2_mbox_loc_flat
I0321 00:37:31.192857  2075 net.cpp:150] Setting up conv6_2_mbox_loc_flat
I0321 00:37:31.192862  2075 net.cpp:157] Top shape: 1 2280 (2280)
I0321 00:37:31.192865  2075 net.cpp:165] Memory required for data: 161658848
I0321 00:37:31.192868  2075 layer_factory.hpp:77] Creating layer conv6_2_mbox_conf
I0321 00:37:31.192879  2075 net.cpp:100] Creating Layer conv6_2_mbox_conf
I0321 00:37:31.192883  2075 net.cpp:434] conv6_2_mbox_conf <- conv6_2_conv6_2_relu_0_split_2
I0321 00:37:31.192888  2075 net.cpp:408] conv6_2_mbox_conf -> conv6_2_mbox_conf
I0321 00:37:31.200666  2075 net.cpp:150] Setting up conv6_2_mbox_conf
I0321 00:37:31.200703  2075 net.cpp:157] Top shape: 1 60 5 19 (5700)
I0321 00:37:31.200706  2075 net.cpp:165] Memory required for data: 161681648
I0321 00:37:31.200716  2075 layer_factory.hpp:77] Creating layer conv6_2_mbox_conf_bn
I0321 00:37:31.200728  2075 net.cpp:100] Creating Layer conv6_2_mbox_conf_bn
I0321 00:37:31.200734  2075 net.cpp:434] conv6_2_mbox_conf_bn <- conv6_2_mbox_conf
I0321 00:37:31.200742  2075 net.cpp:395] conv6_2_mbox_conf_bn -> conv6_2_mbox_conf (in-place)
I0321 00:37:31.200945  2075 net.cpp:150] Setting up conv6_2_mbox_conf_bn
I0321 00:37:31.200951  2075 net.cpp:157] Top shape: 1 60 5 19 (5700)
I0321 00:37:31.200963  2075 net.cpp:165] Memory required for data: 161704448
I0321 00:37:31.200971  2075 layer_factory.hpp:77] Creating layer conv6_2_mbox_conf_scale
I0321 00:37:31.200979  2075 net.cpp:100] Creating Layer conv6_2_mbox_conf_scale
I0321 00:37:31.200984  2075 net.cpp:434] conv6_2_mbox_conf_scale <- conv6_2_mbox_conf
I0321 00:37:31.200987  2075 net.cpp:395] conv6_2_mbox_conf_scale -> conv6_2_mbox_conf (in-place)
I0321 00:37:31.201028  2075 layer_factory.hpp:77] Creating layer conv6_2_mbox_conf_scale
I0321 00:37:31.201135  2075 net.cpp:150] Setting up conv6_2_mbox_conf_scale
I0321 00:37:31.201140  2075 net.cpp:157] Top shape: 1 60 5 19 (5700)
I0321 00:37:31.201153  2075 net.cpp:165] Memory required for data: 161727248
I0321 00:37:31.201158  2075 layer_factory.hpp:77] Creating layer conv6_2_mbox_conf_perm
I0321 00:37:31.201164  2075 net.cpp:100] Creating Layer conv6_2_mbox_conf_perm
I0321 00:37:31.201166  2075 net.cpp:434] conv6_2_mbox_conf_perm <- conv6_2_mbox_conf
I0321 00:37:31.201170  2075 net.cpp:408] conv6_2_mbox_conf_perm -> conv6_2_mbox_conf_perm
I0321 00:37:31.201249  2075 net.cpp:150] Setting up conv6_2_mbox_conf_perm
I0321 00:37:31.201254  2075 net.cpp:157] Top shape: 1 5 19 60 (5700)
I0321 00:37:31.201267  2075 net.cpp:165] Memory required for data: 161750048
I0321 00:37:31.201268  2075 layer_factory.hpp:77] Creating layer conv6_2_mbox_conf_flat
I0321 00:37:31.201277  2075 net.cpp:100] Creating Layer conv6_2_mbox_conf_flat
I0321 00:37:31.201280  2075 net.cpp:434] conv6_2_mbox_conf_flat <- conv6_2_mbox_conf_perm
I0321 00:37:31.201284  2075 net.cpp:408] conv6_2_mbox_conf_flat -> conv6_2_mbox_conf_flat
I0321 00:37:31.201313  2075 net.cpp:150] Setting up conv6_2_mbox_conf_flat
I0321 00:37:31.201316  2075 net.cpp:157] Top shape: 1 5700 (5700)
I0321 00:37:31.201328  2075 net.cpp:165] Memory required for data: 161772848
I0321 00:37:31.201331  2075 layer_factory.hpp:77] Creating layer conv6_2_mbox_priorbox
I0321 00:37:31.201337  2075 net.cpp:100] Creating Layer conv6_2_mbox_priorbox
I0321 00:37:31.201340  2075 net.cpp:434] conv6_2_mbox_priorbox <- conv6_2_conv6_2_relu_0_split_3
I0321 00:37:31.201344  2075 net.cpp:434] conv6_2_mbox_priorbox <- data_data_0_split_3
I0321 00:37:31.201349  2075 net.cpp:408] conv6_2_mbox_priorbox -> conv6_2_mbox_priorbox
I0321 00:37:31.201385  2075 net.cpp:150] Setting up conv6_2_mbox_priorbox
I0321 00:37:31.201388  2075 net.cpp:157] Top shape: 1 2 2280 (4560)
I0321 00:37:31.201400  2075 net.cpp:165] Memory required for data: 161791088
I0321 00:37:31.201403  2075 layer_factory.hpp:77] Creating layer conv7_2_mbox_loc
I0321 00:37:31.201411  2075 net.cpp:100] Creating Layer conv7_2_mbox_loc
I0321 00:37:31.201414  2075 net.cpp:434] conv7_2_mbox_loc <- conv7_2_conv7_2_relu_0_split_1
I0321 00:37:31.201443  2075 net.cpp:408] conv7_2_mbox_loc -> conv7_2_mbox_loc
I0321 00:37:31.204542  2075 net.cpp:150] Setting up conv7_2_mbox_loc
I0321 00:37:31.204584  2075 net.cpp:157] Top shape: 1 24 3 10 (720)
I0321 00:37:31.204588  2075 net.cpp:165] Memory required for data: 161793968
I0321 00:37:31.204597  2075 layer_factory.hpp:77] Creating layer conv7_2_mbox_loc_bn
I0321 00:37:31.204609  2075 net.cpp:100] Creating Layer conv7_2_mbox_loc_bn
I0321 00:37:31.204615  2075 net.cpp:434] conv7_2_mbox_loc_bn <- conv7_2_mbox_loc
I0321 00:37:31.204622  2075 net.cpp:395] conv7_2_mbox_loc_bn -> conv7_2_mbox_loc (in-place)
I0321 00:37:31.204812  2075 net.cpp:150] Setting up conv7_2_mbox_loc_bn
I0321 00:37:31.204818  2075 net.cpp:157] Top shape: 1 24 3 10 (720)
I0321 00:37:31.204830  2075 net.cpp:165] Memory required for data: 161796848
I0321 00:37:31.204838  2075 layer_factory.hpp:77] Creating layer conv7_2_mbox_loc_scale
I0321 00:37:31.204846  2075 net.cpp:100] Creating Layer conv7_2_mbox_loc_scale
I0321 00:37:31.204849  2075 net.cpp:434] conv7_2_mbox_loc_scale <- conv7_2_mbox_loc
I0321 00:37:31.204864  2075 net.cpp:395] conv7_2_mbox_loc_scale -> conv7_2_mbox_loc (in-place)
I0321 00:37:31.204898  2075 layer_factory.hpp:77] Creating layer conv7_2_mbox_loc_scale
I0321 00:37:31.204993  2075 net.cpp:150] Setting up conv7_2_mbox_loc_scale
I0321 00:37:31.204998  2075 net.cpp:157] Top shape: 1 24 3 10 (720)
I0321 00:37:31.205000  2075 net.cpp:165] Memory required for data: 161799728
I0321 00:37:31.205004  2075 layer_factory.hpp:77] Creating layer conv7_2_mbox_loc_perm
I0321 00:37:31.205013  2075 net.cpp:100] Creating Layer conv7_2_mbox_loc_perm
I0321 00:37:31.205015  2075 net.cpp:434] conv7_2_mbox_loc_perm <- conv7_2_mbox_loc
I0321 00:37:31.205020  2075 net.cpp:408] conv7_2_mbox_loc_perm -> conv7_2_mbox_loc_perm
I0321 00:37:31.205093  2075 net.cpp:150] Setting up conv7_2_mbox_loc_perm
I0321 00:37:31.205098  2075 net.cpp:157] Top shape: 1 3 10 24 (720)
I0321 00:37:31.205101  2075 net.cpp:165] Memory required for data: 161802608
I0321 00:37:31.205102  2075 layer_factory.hpp:77] Creating layer conv7_2_mbox_loc_flat
I0321 00:37:31.205109  2075 net.cpp:100] Creating Layer conv7_2_mbox_loc_flat
I0321 00:37:31.205112  2075 net.cpp:434] conv7_2_mbox_loc_flat <- conv7_2_mbox_loc_perm
I0321 00:37:31.205116  2075 net.cpp:408] conv7_2_mbox_loc_flat -> conv7_2_mbox_loc_flat
I0321 00:37:31.205134  2075 net.cpp:150] Setting up conv7_2_mbox_loc_flat
I0321 00:37:31.205138  2075 net.cpp:157] Top shape: 1 720 (720)
I0321 00:37:31.205140  2075 net.cpp:165] Memory required for data: 161805488
I0321 00:37:31.205143  2075 layer_factory.hpp:77] Creating layer conv7_2_mbox_conf
I0321 00:37:31.205153  2075 net.cpp:100] Creating Layer conv7_2_mbox_conf
I0321 00:37:31.205157  2075 net.cpp:434] conv7_2_mbox_conf <- conv7_2_conv7_2_relu_0_split_2
I0321 00:37:31.205163  2075 net.cpp:408] conv7_2_mbox_conf -> conv7_2_mbox_conf
I0321 00:37:31.210191  2075 net.cpp:150] Setting up conv7_2_mbox_conf
I0321 00:37:31.210214  2075 net.cpp:157] Top shape: 1 60 3 10 (1800)
I0321 00:37:31.210217  2075 net.cpp:165] Memory required for data: 161812688
I0321 00:37:31.210223  2075 layer_factory.hpp:77] Creating layer conv7_2_mbox_conf_bn
I0321 00:37:31.210233  2075 net.cpp:100] Creating Layer conv7_2_mbox_conf_bn
I0321 00:37:31.210238  2075 net.cpp:434] conv7_2_mbox_conf_bn <- conv7_2_mbox_conf
I0321 00:37:31.210244  2075 net.cpp:395] conv7_2_mbox_conf_bn -> conv7_2_mbox_conf (in-place)
I0321 00:37:31.210429  2075 net.cpp:150] Setting up conv7_2_mbox_conf_bn
I0321 00:37:31.210434  2075 net.cpp:157] Top shape: 1 60 3 10 (1800)
I0321 00:37:31.210438  2075 net.cpp:165] Memory required for data: 161819888
I0321 00:37:31.210443  2075 layer_factory.hpp:77] Creating layer conv7_2_mbox_conf_scale
I0321 00:37:31.210453  2075 net.cpp:100] Creating Layer conv7_2_mbox_conf_scale
I0321 00:37:31.210455  2075 net.cpp:434] conv7_2_mbox_conf_scale <- conv7_2_mbox_conf
I0321 00:37:31.210459  2075 net.cpp:395] conv7_2_mbox_conf_scale -> conv7_2_mbox_conf (in-place)
I0321 00:37:31.210491  2075 layer_factory.hpp:77] Creating layer conv7_2_mbox_conf_scale
I0321 00:37:31.210599  2075 net.cpp:150] Setting up conv7_2_mbox_conf_scale
I0321 00:37:31.210605  2075 net.cpp:157] Top shape: 1 60 3 10 (1800)
I0321 00:37:31.210608  2075 net.cpp:165] Memory required for data: 161827088
I0321 00:37:31.210613  2075 layer_factory.hpp:77] Creating layer conv7_2_mbox_conf_perm
I0321 00:37:31.210619  2075 net.cpp:100] Creating Layer conv7_2_mbox_conf_perm
I0321 00:37:31.210623  2075 net.cpp:434] conv7_2_mbox_conf_perm <- conv7_2_mbox_conf
I0321 00:37:31.210626  2075 net.cpp:408] conv7_2_mbox_conf_perm -> conv7_2_mbox_conf_perm
I0321 00:37:31.210698  2075 net.cpp:150] Setting up conv7_2_mbox_conf_perm
I0321 00:37:31.210702  2075 net.cpp:157] Top shape: 1 3 10 60 (1800)
I0321 00:37:31.210705  2075 net.cpp:165] Memory required for data: 161834288
I0321 00:37:31.210707  2075 layer_factory.hpp:77] Creating layer conv7_2_mbox_conf_flat
I0321 00:37:31.210712  2075 net.cpp:100] Creating Layer conv7_2_mbox_conf_flat
I0321 00:37:31.210716  2075 net.cpp:434] conv7_2_mbox_conf_flat <- conv7_2_mbox_conf_perm
I0321 00:37:31.210721  2075 net.cpp:408] conv7_2_mbox_conf_flat -> conv7_2_mbox_conf_flat
I0321 00:37:31.210738  2075 net.cpp:150] Setting up conv7_2_mbox_conf_flat
I0321 00:37:31.210743  2075 net.cpp:157] Top shape: 1 1800 (1800)
I0321 00:37:31.210747  2075 net.cpp:165] Memory required for data: 161841488
I0321 00:37:31.210748  2075 layer_factory.hpp:77] Creating layer conv7_2_mbox_priorbox
I0321 00:37:31.210754  2075 net.cpp:100] Creating Layer conv7_2_mbox_priorbox
I0321 00:37:31.210757  2075 net.cpp:434] conv7_2_mbox_priorbox <- conv7_2_conv7_2_relu_0_split_3
I0321 00:37:31.210769  2075 net.cpp:434] conv7_2_mbox_priorbox <- data_data_0_split_4
I0321 00:37:31.210774  2075 net.cpp:408] conv7_2_mbox_priorbox -> conv7_2_mbox_priorbox
I0321 00:37:31.210798  2075 net.cpp:150] Setting up conv7_2_mbox_priorbox
I0321 00:37:31.210803  2075 net.cpp:157] Top shape: 1 2 720 (1440)
I0321 00:37:31.210804  2075 net.cpp:165] Memory required for data: 161847248
I0321 00:37:31.210806  2075 layer_factory.hpp:77] Creating layer conv8_2_mbox_loc
I0321 00:37:31.210813  2075 net.cpp:100] Creating Layer conv8_2_mbox_loc
I0321 00:37:31.210816  2075 net.cpp:434] conv8_2_mbox_loc <- conv8_2_conv8_2_relu_0_split_0
I0321 00:37:31.210822  2075 net.cpp:408] conv8_2_mbox_loc -> conv8_2_mbox_loc
I0321 00:37:31.213171  2075 net.cpp:150] Setting up conv8_2_mbox_loc
I0321 00:37:31.213181  2075 net.cpp:157] Top shape: 1 16 1 8 (128)
I0321 00:37:31.213183  2075 net.cpp:165] Memory required for data: 161847760
I0321 00:37:31.213188  2075 layer_factory.hpp:77] Creating layer conv8_2_mbox_loc_bn
I0321 00:37:31.213193  2075 net.cpp:100] Creating Layer conv8_2_mbox_loc_bn
I0321 00:37:31.213207  2075 net.cpp:434] conv8_2_mbox_loc_bn <- conv8_2_mbox_loc
I0321 00:37:31.213213  2075 net.cpp:395] conv8_2_mbox_loc_bn -> conv8_2_mbox_loc (in-place)
I0321 00:37:31.213397  2075 net.cpp:150] Setting up conv8_2_mbox_loc_bn
I0321 00:37:31.213402  2075 net.cpp:157] Top shape: 1 16 1 8 (128)
I0321 00:37:31.213405  2075 net.cpp:165] Memory required for data: 161848272
I0321 00:37:31.213410  2075 layer_factory.hpp:77] Creating layer conv8_2_mbox_loc_scale
I0321 00:37:31.213416  2075 net.cpp:100] Creating Layer conv8_2_mbox_loc_scale
I0321 00:37:31.213419  2075 net.cpp:434] conv8_2_mbox_loc_scale <- conv8_2_mbox_loc
I0321 00:37:31.213424  2075 net.cpp:395] conv8_2_mbox_loc_scale -> conv8_2_mbox_loc (in-place)
I0321 00:37:31.213454  2075 layer_factory.hpp:77] Creating layer conv8_2_mbox_loc_scale
I0321 00:37:31.213546  2075 net.cpp:150] Setting up conv8_2_mbox_loc_scale
I0321 00:37:31.213551  2075 net.cpp:157] Top shape: 1 16 1 8 (128)
I0321 00:37:31.213553  2075 net.cpp:165] Memory required for data: 161848784
I0321 00:37:31.213557  2075 layer_factory.hpp:77] Creating layer conv8_2_mbox_loc_perm
I0321 00:37:31.213563  2075 net.cpp:100] Creating Layer conv8_2_mbox_loc_perm
I0321 00:37:31.213565  2075 net.cpp:434] conv8_2_mbox_loc_perm <- conv8_2_mbox_loc
I0321 00:37:31.213570  2075 net.cpp:408] conv8_2_mbox_loc_perm -> conv8_2_mbox_loc_perm
I0321 00:37:31.213649  2075 net.cpp:150] Setting up conv8_2_mbox_loc_perm
I0321 00:37:31.213654  2075 net.cpp:157] Top shape: 1 1 8 16 (128)
I0321 00:37:31.213655  2075 net.cpp:165] Memory required for data: 161849296
I0321 00:37:31.213657  2075 layer_factory.hpp:77] Creating layer conv8_2_mbox_loc_flat
I0321 00:37:31.213661  2075 net.cpp:100] Creating Layer conv8_2_mbox_loc_flat
I0321 00:37:31.213665  2075 net.cpp:434] conv8_2_mbox_loc_flat <- conv8_2_mbox_loc_perm
I0321 00:37:31.213668  2075 net.cpp:408] conv8_2_mbox_loc_flat -> conv8_2_mbox_loc_flat
I0321 00:37:31.213685  2075 net.cpp:150] Setting up conv8_2_mbox_loc_flat
I0321 00:37:31.213688  2075 net.cpp:157] Top shape: 1 128 (128)
I0321 00:37:31.213691  2075 net.cpp:165] Memory required for data: 161849808
I0321 00:37:31.213693  2075 layer_factory.hpp:77] Creating layer conv8_2_mbox_conf
I0321 00:37:31.213699  2075 net.cpp:100] Creating Layer conv8_2_mbox_conf
I0321 00:37:31.213703  2075 net.cpp:434] conv8_2_mbox_conf <- conv8_2_conv8_2_relu_0_split_1
I0321 00:37:31.213707  2075 net.cpp:408] conv8_2_mbox_conf -> conv8_2_mbox_conf
I0321 00:37:31.217200  2075 net.cpp:150] Setting up conv8_2_mbox_conf
I0321 00:37:31.217209  2075 net.cpp:157] Top shape: 1 40 1 8 (320)
I0321 00:37:31.217212  2075 net.cpp:165] Memory required for data: 161851088
I0321 00:37:31.217217  2075 layer_factory.hpp:77] Creating layer conv8_2_mbox_conf_bn
I0321 00:37:31.217223  2075 net.cpp:100] Creating Layer conv8_2_mbox_conf_bn
I0321 00:37:31.217227  2075 net.cpp:434] conv8_2_mbox_conf_bn <- conv8_2_mbox_conf
I0321 00:37:31.217232  2075 net.cpp:395] conv8_2_mbox_conf_bn -> conv8_2_mbox_conf (in-place)
I0321 00:37:31.217396  2075 net.cpp:150] Setting up conv8_2_mbox_conf_bn
I0321 00:37:31.217401  2075 net.cpp:157] Top shape: 1 40 1 8 (320)
I0321 00:37:31.217403  2075 net.cpp:165] Memory required for data: 161852368
I0321 00:37:31.217409  2075 layer_factory.hpp:77] Creating layer conv8_2_mbox_conf_scale
I0321 00:37:31.217417  2075 net.cpp:100] Creating Layer conv8_2_mbox_conf_scale
I0321 00:37:31.217419  2075 net.cpp:434] conv8_2_mbox_conf_scale <- conv8_2_mbox_conf
I0321 00:37:31.217422  2075 net.cpp:395] conv8_2_mbox_conf_scale -> conv8_2_mbox_conf (in-place)
I0321 00:37:31.217453  2075 layer_factory.hpp:77] Creating layer conv8_2_mbox_conf_scale
I0321 00:37:31.217545  2075 net.cpp:150] Setting up conv8_2_mbox_conf_scale
I0321 00:37:31.217550  2075 net.cpp:157] Top shape: 1 40 1 8 (320)
I0321 00:37:31.217552  2075 net.cpp:165] Memory required for data: 161853648
I0321 00:37:31.217557  2075 layer_factory.hpp:77] Creating layer conv8_2_mbox_conf_perm
I0321 00:37:31.217562  2075 net.cpp:100] Creating Layer conv8_2_mbox_conf_perm
I0321 00:37:31.217574  2075 net.cpp:434] conv8_2_mbox_conf_perm <- conv8_2_mbox_conf
I0321 00:37:31.217578  2075 net.cpp:408] conv8_2_mbox_conf_perm -> conv8_2_mbox_conf_perm
I0321 00:37:31.217660  2075 net.cpp:150] Setting up conv8_2_mbox_conf_perm
I0321 00:37:31.217665  2075 net.cpp:157] Top shape: 1 1 8 40 (320)
I0321 00:37:31.217667  2075 net.cpp:165] Memory required for data: 161854928
I0321 00:37:31.217669  2075 layer_factory.hpp:77] Creating layer conv8_2_mbox_conf_flat
I0321 00:37:31.217674  2075 net.cpp:100] Creating Layer conv8_2_mbox_conf_flat
I0321 00:37:31.217677  2075 net.cpp:434] conv8_2_mbox_conf_flat <- conv8_2_mbox_conf_perm
I0321 00:37:31.217681  2075 net.cpp:408] conv8_2_mbox_conf_flat -> conv8_2_mbox_conf_flat
I0321 00:37:31.217708  2075 net.cpp:150] Setting up conv8_2_mbox_conf_flat
I0321 00:37:31.217712  2075 net.cpp:157] Top shape: 1 320 (320)
I0321 00:37:31.217715  2075 net.cpp:165] Memory required for data: 161856208
I0321 00:37:31.217717  2075 layer_factory.hpp:77] Creating layer conv8_2_mbox_priorbox
I0321 00:37:31.217723  2075 net.cpp:100] Creating Layer conv8_2_mbox_priorbox
I0321 00:37:31.217736  2075 net.cpp:434] conv8_2_mbox_priorbox <- conv8_2_conv8_2_relu_0_split_2
I0321 00:37:31.217738  2075 net.cpp:434] conv8_2_mbox_priorbox <- data_data_0_split_5
I0321 00:37:31.217743  2075 net.cpp:408] conv8_2_mbox_priorbox -> conv8_2_mbox_priorbox
I0321 00:37:31.217783  2075 net.cpp:150] Setting up conv8_2_mbox_priorbox
I0321 00:37:31.217788  2075 net.cpp:157] Top shape: 1 2 128 (256)
I0321 00:37:31.217792  2075 net.cpp:165] Memory required for data: 161857232
I0321 00:37:31.217793  2075 layer_factory.hpp:77] Creating layer mbox_loc
I0321 00:37:31.217799  2075 net.cpp:100] Creating Layer mbox_loc
I0321 00:37:31.217803  2075 net.cpp:434] mbox_loc <- bn4a_root_relu_mbox_loc_flat
I0321 00:37:31.217808  2075 net.cpp:434] mbox_loc <- bn_res4b_relu_mbox_loc_flat
I0321 00:37:31.217811  2075 net.cpp:434] mbox_loc <- conv6_2_mbox_loc_flat
I0321 00:37:31.217815  2075 net.cpp:434] mbox_loc <- conv7_2_mbox_loc_flat
I0321 00:37:31.217818  2075 net.cpp:434] mbox_loc <- conv8_2_mbox_loc_flat
I0321 00:37:31.217823  2075 net.cpp:408] mbox_loc -> mbox_loc
I0321 00:37:31.217844  2075 net.cpp:150] Setting up mbox_loc
I0321 00:37:31.217849  2075 net.cpp:157] Top shape: 1 35048 (35048)
I0321 00:37:31.217850  2075 net.cpp:165] Memory required for data: 161997424
I0321 00:37:31.217854  2075 layer_factory.hpp:77] Creating layer mbox_conf
I0321 00:37:31.217857  2075 net.cpp:100] Creating Layer mbox_conf
I0321 00:37:31.217860  2075 net.cpp:434] mbox_conf <- bn4a_root_relu_mbox_conf_flat
I0321 00:37:31.217864  2075 net.cpp:434] mbox_conf <- bn_res4b_relu_mbox_conf_flat
I0321 00:37:31.217869  2075 net.cpp:434] mbox_conf <- conv6_2_mbox_conf_flat
I0321 00:37:31.217871  2075 net.cpp:434] mbox_conf <- conv7_2_mbox_conf_flat
I0321 00:37:31.217875  2075 net.cpp:434] mbox_conf <- conv8_2_mbox_conf_flat
I0321 00:37:31.217878  2075 net.cpp:408] mbox_conf -> mbox_conf
I0321 00:37:31.217895  2075 net.cpp:150] Setting up mbox_conf
I0321 00:37:31.217900  2075 net.cpp:157] Top shape: 1 87620 (87620)
I0321 00:37:31.217902  2075 net.cpp:165] Memory required for data: 162347904
I0321 00:37:31.217905  2075 layer_factory.hpp:77] Creating layer mbox_priorbox
I0321 00:37:31.217910  2075 net.cpp:100] Creating Layer mbox_priorbox
I0321 00:37:31.217912  2075 net.cpp:434] mbox_priorbox <- bn4a_root_relu_mbox_priorbox
I0321 00:37:31.217916  2075 net.cpp:434] mbox_priorbox <- bn_res4b_relu_mbox_priorbox
I0321 00:37:31.217918  2075 net.cpp:434] mbox_priorbox <- conv6_2_mbox_priorbox
I0321 00:37:31.217921  2075 net.cpp:434] mbox_priorbox <- conv7_2_mbox_priorbox
I0321 00:37:31.217924  2075 net.cpp:434] mbox_priorbox <- conv8_2_mbox_priorbox
I0321 00:37:31.217927  2075 net.cpp:408] mbox_priorbox -> mbox_priorbox
I0321 00:37:31.217945  2075 net.cpp:150] Setting up mbox_priorbox
I0321 00:37:31.217949  2075 net.cpp:157] Top shape: 1 2 35048 (70096)
I0321 00:37:31.217952  2075 net.cpp:165] Memory required for data: 162628288
I0321 00:37:31.217963  2075 layer_factory.hpp:77] Creating layer mbox_conf_reshape
I0321 00:37:31.217972  2075 net.cpp:100] Creating Layer mbox_conf_reshape
I0321 00:37:31.217975  2075 net.cpp:434] mbox_conf_reshape <- mbox_conf
I0321 00:37:31.217980  2075 net.cpp:408] mbox_conf_reshape -> mbox_conf_reshape
I0321 00:37:31.218020  2075 net.cpp:150] Setting up mbox_conf_reshape
I0321 00:37:31.218025  2075 net.cpp:157] Top shape: 1 8762 10 (87620)
I0321 00:37:31.218027  2075 net.cpp:165] Memory required for data: 162978768
I0321 00:37:31.218039  2075 layer_factory.hpp:77] Creating layer mbox_conf_softmax
I0321 00:37:31.218045  2075 net.cpp:100] Creating Layer mbox_conf_softmax
I0321 00:37:31.218049  2075 net.cpp:434] mbox_conf_softmax <- mbox_conf_reshape
I0321 00:37:31.218052  2075 net.cpp:408] mbox_conf_softmax -> mbox_conf_softmax
I0321 00:37:31.218322  2075 net.cpp:150] Setting up mbox_conf_softmax
I0321 00:37:31.218330  2075 net.cpp:157] Top shape: 1 8762 10 (87620)
I0321 00:37:31.218333  2075 net.cpp:165] Memory required for data: 163329248
I0321 00:37:31.218336  2075 layer_factory.hpp:77] Creating layer mbox_conf_flatten
I0321 00:37:31.218340  2075 net.cpp:100] Creating Layer mbox_conf_flatten
I0321 00:37:31.218343  2075 net.cpp:434] mbox_conf_flatten <- mbox_conf_softmax
I0321 00:37:31.218348  2075 net.cpp:408] mbox_conf_flatten -> mbox_conf_flatten
I0321 00:37:31.218377  2075 net.cpp:150] Setting up mbox_conf_flatten
I0321 00:37:31.218382  2075 net.cpp:157] Top shape: 1 87620 (87620)
I0321 00:37:31.218384  2075 net.cpp:165] Memory required for data: 163679728
I0321 00:37:31.218387  2075 layer_factory.hpp:77] Creating layer detection_out
I0321 00:37:31.218400  2075 net.cpp:100] Creating Layer detection_out
I0321 00:37:31.218402  2075 net.cpp:434] detection_out <- mbox_loc
I0321 00:37:31.218406  2075 net.cpp:434] detection_out <- mbox_conf_flatten
I0321 00:37:31.218410  2075 net.cpp:434] detection_out <- mbox_priorbox
I0321 00:37:31.218413  2075 net.cpp:408] detection_out -> detection_out
I0321 00:37:31.223095  2075 net.cpp:150] Setting up detection_out
I0321 00:37:31.223112  2075 net.cpp:157] Top shape: 1 1 1 7 (7)
I0321 00:37:31.223116  2075 net.cpp:165] Memory required for data: 163679756
I0321 00:37:31.223119  2075 layer_factory.hpp:77] Creating layer detection_eval
I0321 00:37:31.223129  2075 net.cpp:100] Creating Layer detection_eval
I0321 00:37:31.223134  2075 net.cpp:434] detection_eval <- detection_out
I0321 00:37:31.223137  2075 net.cpp:434] detection_eval <- label
I0321 00:37:31.223142  2075 net.cpp:408] detection_eval -> detection_eval
I0321 00:37:31.223753  2075 net.cpp:150] Setting up detection_eval
I0321 00:37:31.223759  2075 net.cpp:157] Top shape: 1 1 10 5 (50)
I0321 00:37:31.223762  2075 net.cpp:165] Memory required for data: 163679956
I0321 00:37:31.223764  2075 net.cpp:228] detection_eval does not need backward computation.
I0321 00:37:31.223768  2075 net.cpp:228] detection_out does not need backward computation.
I0321 00:37:31.223772  2075 net.cpp:228] mbox_conf_flatten does not need backward computation.
I0321 00:37:31.223774  2075 net.cpp:228] mbox_conf_softmax does not need backward computation.
…
